{"format": "graph-model", "generatedBy": "2.14.0", "convertedBy": "TensorFlow.js Converter v4.12.0", "signature": {"outputs": {"Identity:0": {"name": "Identity:0"}}}, "modelTopology": {"node": [{"name": "ConstantFolding/PartitionedCall/model/tf.math.divide/truediv_recip", "op": "Const", "attr": {"dtype": {"type": "DT_FLOAT"}, "value": {"tensor": {"dtype": "DT_FLOAT", "tensorShape": {"dim": [{"size": "1"}, {"size": "1"}, {"size": "1"}]}}}}}, {"name": "4215", "op": "Const", "attr": {"dtype": {"type": "DT_FLOAT"}, "value": {"tensor": {"dtype": "DT_FLOAT", "tensorShape": {"dim": [{"size": "1"}, {"size": "2"}, {"size": "8400"}]}}}}}, {"name": "4207", "op": "Const", "attr": {"value": {"tensor": {"dtype": "DT_INT64", "tensorShape": {"dim": [{"size": "3"}]}}}, "dtype": {"type": "DT_INT64"}}}, {"name": "4209", "op": "Const", "attr": {"dtype": {"type": "DT_INT64"}, "value": {"tensor": {"dtype": "DT_INT64", "tensorShape": {"dim": [{"size": "3"}]}}}}}, {"name": "PartitionedCall/model/tf.strided_slice_19/ones_like", "op": "Const", "attr": {"dtype": {"type": "DT_INT64"}, "value": {"tensor": {"dtype": "DT_INT64", "tensorShape": {"dim": [{"size": "3"}]}}}}}, {"name": "4217", "op": "Const", "attr": {"dtype": {"type": "DT_FLOAT"}, "value": {"tensor": {"dtype": "DT_FLOAT", "tensorShape": {"dim": [{"size": "1"}, {"size": "2"}, {"size": "8400"}]}}}}}, {"name": "4201", "op": "Const", "attr": {"dtype": {"type": "DT_INT64"}, "value": {"tensor": {"dtype": "DT_INT64", "tensorShape": {"dim": [{"size": "3"}]}}}}}, {"name": "4203", "op": "Const", "attr": {"value": {"tensor": {"dtype": "DT_INT64", "tensorShape": {"dim": [{"size": "3"}]}}}, "dtype": {"type": "DT_INT64"}}}, {"name": "PartitionedCall/model/tf.strided_slice_16/StridedSlice/strides", "op": "Const", "attr": {"dtype": {"type": "DT_INT64"}, "value": {"tensor": {"dtype": "DT_INT64", "tensorShape": {"dim": [{"size": "3"}]}}}}}, {"name": "PartitionedCall/model/tf.reshape_3/Reshape/shape", "op": "Const", "attr": {"value": {"tensor": {"dtype": "DT_INT32", "tensorShape": {"dim": [{"size": "4"}]}}}, "dtype": {"type": "DT_INT32"}}}, {"name": "PartitionedCall/model/tf.compat.v1.transpose_4/transpose/perm", "op": "Const", "attr": {"dtype": {"type": "DT_INT32"}, "value": {"tensor": {"dtype": "DT_INT32", "tensorShape": {"dim": [{"size": "4"}]}}}}}, {"name": "PartitionedCall/model/tf.compat.v1.transpose_5/transpose/perm", "op": "Const", "attr": {"value": {"tensor": {"dtype": "DT_INT32", "tensorShape": {"dim": [{"size": "4"}]}}}, "dtype": {"type": "DT_INT32"}}}, {"name": "4205", "op": "Const", "attr": {"value": {"tensor": {"dtype": "DT_FLOAT", "tensorShape": {"dim": [{"size": "1"}, {"size": "1"}, {"size": "16"}, {"size": "1"}]}}}, "dtype": {"type": "DT_FLOAT"}}}, {"name": "PartitionedCall/model/tf.compat.v1.transpose_8/transpose/perm", "op": "Const", "attr": {"value": {"tensor": {"dtype": "DT_INT32", "tensorShape": {"dim": [{"size": "4"}]}}}, "dtype": {"type": "DT_INT32"}}}, {"name": "PartitionedCall/model/tf.reshape_4/Reshape/shape", "op": "Const", "attr": {"dtype": {"type": "DT_INT32"}, "value": {"tensor": {"dtype": "DT_INT32", "tensorShape": {"dim": [{"size": "3"}]}}}}}, {"name": "4211", "op": "Const", "attr": {"value": {"tensor": {"dtype": "DT_INT64", "tensorShape": {"dim": [{"size": "3"}]}}}, "dtype": {"type": "DT_INT64"}}}, {"name": "4213", "op": "Const", "attr": {"dtype": {"type": "DT_INT64"}, "value": {"tensor": {"dtype": "DT_INT64", "tensorShape": {"dim": [{"size": "3"}]}}}}}, {"name": "PartitionedCall/model/tf.strided_slice_18/ones_like", "op": "Const", "attr": {"dtype": {"type": "DT_INT64"}, "value": {"tensor": {"dtype": "DT_INT64", "tensorShape": {"dim": [{"size": "3"}]}}}}}, {"name": "PartitionedCall/model/tf.concat_17/concat/axis", "op": "Const", "attr": {"value": {"tensor": {"dtype": "DT_INT32", "tensorShape": {}}}, "dtype": {"type": "DT_INT32"}}}, {"name": "PartitionedCall/model/tf.math.multiply_195/Mul/y", "op": "Const", "attr": {"dtype": {"type": "DT_FLOAT"}, "value": {"tensor": {"dtype": "DT_FLOAT", "tensorShape": {"dim": [{"size": "1"}, {"size": "1"}, {"size": "8400"}]}}}}}, {"name": "4139", "op": "Const", "attr": {"dtype": {"type": "DT_FLOAT"}, "value": {"tensor": {"dtype": "DT_FLOAT", "tensorShape": {"dim": [{"size": "3"}, {"size": "3"}, {"size": "64"}, {"size": "64"}]}}}}}, {"name": "4151", "op": "Const", "attr": {"dtype": {"type": "DT_FLOAT"}, "value": {"tensor": {"dtype": "DT_FLOAT", "tensorShape": {"dim": [{"size": "64"}]}}}}}, {"name": "4163", "op": "Const", "attr": {"value": {"tensor": {"dtype": "DT_FLOAT", "tensorShape": {"dim": [{"size": "3"}, {"size": "3"}, {"size": "64"}, {"size": "64"}]}}}, "dtype": {"type": "DT_FLOAT"}}}, {"name": "4175", "op": "Const", "attr": {"dtype": {"type": "DT_FLOAT"}, "value": {"tensor": {"dtype": "DT_FLOAT", "tensorShape": {"dim": [{"size": "64"}]}}}}}, {"name": "4187", "op": "Const", "attr": {"dtype": {"type": "DT_FLOAT"}, "value": {"tensor": {"dtype": "DT_FLOAT", "tensorShape": {"dim": [{"size": "1"}, {"size": "1"}, {"size": "64"}, {"size": "64"}]}}}}}, {"name": "4197", "op": "Const", "attr": {"dtype": {"type": "DT_FLOAT"}, "value": {"tensor": {"dtype": "DT_FLOAT", "tensorShape": {"dim": [{"size": "64"}]}}}}}, {"name": "4137", "op": "Const", "attr": {"dtype": {"type": "DT_FLOAT"}, "value": {"tensor": {"dtype": "DT_FLOAT", "tensorShape": {"dim": [{"size": "3"}, {"size": "3"}, {"size": "64"}, {"size": "64"}]}}}}}, {"name": "4149", "op": "Const", "attr": {"dtype": {"type": "DT_FLOAT"}, "value": {"tensor": {"dtype": "DT_FLOAT", "tensorShape": {"dim": [{"size": "64"}]}}}}}, {"name": "4161", "op": "Const", "attr": {"value": {"tensor": {"dtype": "DT_FLOAT", "tensorShape": {"dim": [{"size": "3"}, {"size": "3"}, {"size": "64"}, {"size": "64"}]}}}, "dtype": {"type": "DT_FLOAT"}}}, {"name": "4173", "op": "Const", "attr": {"value": {"tensor": {"dtype": "DT_FLOAT", "tensorShape": {"dim": [{"size": "64"}]}}}, "dtype": {"type": "DT_FLOAT"}}}, {"name": "4185", "op": "Const", "attr": {"value": {"tensor": {"dtype": "DT_FLOAT", "tensorShape": {"dim": [{"size": "1"}, {"size": "1"}, {"size": "64"}, {"size": "3"}]}}}, "dtype": {"type": "DT_FLOAT"}}}, {"name": "4199", "op": "Const", "attr": {"dtype": {"type": "DT_FLOAT"}, "value": {"tensor": {"dtype": "DT_FLOAT", "tensorShape": {"dim": [{"size": "3"}]}}}}}, {"name": "PartitionedCall/model/tf.concat_10/concat/axis", "op": "Const", "attr": {"dtype": {"type": "DT_INT32"}, "value": {"tensor": {"dtype": "DT_INT32", "tensorShape": {}}}}}, {"name": "PartitionedCall/model/tf.compat.v1.transpose/transpose/perm", "op": "Const", "attr": {"dtype": {"type": "DT_INT32"}, "value": {"tensor": {"dtype": "DT_INT32", "tensorShape": {"dim": [{"size": "4"}]}}}}}, {"name": "PartitionedCall/model/tf.reshape/Reshape/shape", "op": "Const", "attr": {"dtype": {"type": "DT_INT32"}, "value": {"tensor": {"dtype": "DT_INT32", "tensorShape": {"dim": [{"size": "3"}]}}}}}, {"name": "4135", "op": "Const", "attr": {"dtype": {"type": "DT_FLOAT"}, "value": {"tensor": {"dtype": "DT_FLOAT", "tensorShape": {"dim": [{"size": "3"}, {"size": "3"}, {"size": "128"}, {"size": "64"}]}}}}}, {"name": "4147", "op": "Const", "attr": {"dtype": {"type": "DT_FLOAT"}, "value": {"tensor": {"dtype": "DT_FLOAT", "tensorShape": {"dim": [{"size": "64"}]}}}}}, {"name": "4159", "op": "Const", "attr": {"dtype": {"type": "DT_FLOAT"}, "value": {"tensor": {"dtype": "DT_FLOAT", "tensorShape": {"dim": [{"size": "3"}, {"size": "3"}, {"size": "64"}, {"size": "64"}]}}}}}, {"name": "4171", "op": "Const", "attr": {"value": {"tensor": {"dtype": "DT_FLOAT", "tensorShape": {"dim": [{"size": "64"}]}}}, "dtype": {"type": "DT_FLOAT"}}}, {"name": "4183", "op": "Const", "attr": {"dtype": {"type": "DT_FLOAT"}, "value": {"tensor": {"dtype": "DT_FLOAT", "tensorShape": {"dim": [{"size": "1"}, {"size": "1"}, {"size": "64"}, {"size": "64"}]}}}}}, {"name": "4193", "op": "Const", "attr": {"dtype": {"type": "DT_FLOAT"}, "value": {"tensor": {"dtype": "DT_FLOAT", "tensorShape": {"dim": [{"size": "64"}]}}}}}, {"name": "4133", "op": "Const", "attr": {"value": {"tensor": {"dtype": "DT_FLOAT", "tensorShape": {"dim": [{"size": "3"}, {"size": "3"}, {"size": "128"}, {"size": "64"}]}}}, "dtype": {"type": "DT_FLOAT"}}}, {"name": "4145", "op": "Const", "attr": {"dtype": {"type": "DT_FLOAT"}, "value": {"tensor": {"dtype": "DT_FLOAT", "tensorShape": {"dim": [{"size": "64"}]}}}}}, {"name": "4157", "op": "Const", "attr": {"value": {"tensor": {"dtype": "DT_FLOAT", "tensorShape": {"dim": [{"size": "3"}, {"size": "3"}, {"size": "64"}, {"size": "64"}]}}}, "dtype": {"type": "DT_FLOAT"}}}, {"name": "4169", "op": "Const", "attr": {"dtype": {"type": "DT_FLOAT"}, "value": {"tensor": {"dtype": "DT_FLOAT", "tensorShape": {"dim": [{"size": "64"}]}}}}}, {"name": "4181", "op": "Const", "attr": {"dtype": {"type": "DT_FLOAT"}, "value": {"tensor": {"dtype": "DT_FLOAT", "tensorShape": {"dim": [{"size": "1"}, {"size": "1"}, {"size": "64"}, {"size": "3"}]}}}}}, {"name": "4195", "op": "Const", "attr": {"dtype": {"type": "DT_FLOAT"}, "value": {"tensor": {"dtype": "DT_FLOAT", "tensorShape": {"dim": [{"size": "3"}]}}}}}, {"name": "PartitionedCall/model/tf.concat_13/concat/axis", "op": "Const", "attr": {"value": {"tensor": {"dtype": "DT_INT32", "tensorShape": {}}}, "dtype": {"type": "DT_INT32"}}}, {"name": "PartitionedCall/model/tf.compat.v1.transpose_1/transpose/perm", "op": "Const", "attr": {"value": {"tensor": {"dtype": "DT_INT32", "tensorShape": {"dim": [{"size": "4"}]}}}, "dtype": {"type": "DT_INT32"}}}, {"name": "PartitionedCall/model/tf.reshape_1/Reshape/shape", "op": "Const", "attr": {"dtype": {"type": "DT_INT32"}, "value": {"tensor": {"dtype": "DT_INT32", "tensorShape": {"dim": [{"size": "3"}]}}}}}, {"name": "4131", "op": "Const", "attr": {"value": {"tensor": {"dtype": "DT_FLOAT", "tensorShape": {"dim": [{"size": "3"}, {"size": "3"}, {"size": "256"}, {"size": "64"}]}}}, "dtype": {"type": "DT_FLOAT"}}}, {"name": "4143", "op": "Const", "attr": {"value": {"tensor": {"dtype": "DT_FLOAT", "tensorShape": {"dim": [{"size": "64"}]}}}, "dtype": {"type": "DT_FLOAT"}}}, {"name": "4155", "op": "Const", "attr": {"dtype": {"type": "DT_FLOAT"}, "value": {"tensor": {"dtype": "DT_FLOAT", "tensorShape": {"dim": [{"size": "3"}, {"size": "3"}, {"size": "64"}, {"size": "64"}]}}}}}, {"name": "4167", "op": "Const", "attr": {"value": {"tensor": {"dtype": "DT_FLOAT", "tensorShape": {"dim": [{"size": "64"}]}}}, "dtype": {"type": "DT_FLOAT"}}}, {"name": "4179", "op": "Const", "attr": {"value": {"tensor": {"dtype": "DT_FLOAT", "tensorShape": {"dim": [{"size": "1"}, {"size": "1"}, {"size": "64"}, {"size": "64"}]}}}, "dtype": {"type": "DT_FLOAT"}}}, {"name": "4189", "op": "Const", "attr": {"dtype": {"type": "DT_FLOAT"}, "value": {"tensor": {"dtype": "DT_FLOAT", "tensorShape": {"dim": [{"size": "64"}]}}}}}, {"name": "4121", "op": "Const", "attr": {"value": {"tensor": {"dtype": "DT_INT64", "tensorShape": {"dim": [{"size": "4"}]}}}, "dtype": {"type": "DT_INT64"}}}, {"name": "4123", "op": "Const", "attr": {"value": {"tensor": {"dtype": "DT_INT64", "tensorShape": {"dim": [{"size": "4"}]}}}, "dtype": {"type": "DT_INT64"}}}, {"name": "PartitionedCall/model/tf.strided_slice_14/ones_like", "op": "Const", "attr": {"dtype": {"type": "DT_INT64"}, "value": {"tensor": {"dtype": "DT_INT64", "tensorShape": {"dim": [{"size": "4"}]}}}}}, {"name": "4091", "op": "Const", "attr": {"dtype": {"type": "DT_INT64"}, "value": {"tensor": {"dtype": "DT_INT64", "tensorShape": {"dim": [{"size": "4"}]}}}}}, {"name": "4093", "op": "Const", "attr": {"value": {"tensor": {"dtype": "DT_INT64", "tensorShape": {"dim": [{"size": "4"}]}}}, "dtype": {"type": "DT_INT64"}}}, {"name": "PartitionedCall/model/tf.strided_slice_12/ones_like", "op": "Const", "attr": {"value": {"tensor": {"dtype": "DT_INT64", "tensorShape": {"dim": [{"size": "4"}]}}}, "dtype": {"type": "DT_INT64"}}}, {"name": "4061", "op": "Const", "attr": {"value": {"tensor": {"dtype": "DT_INT64", "tensorShape": {"dim": [{"size": "4"}]}}}, "dtype": {"type": "DT_INT64"}}}, {"name": "4063", "op": "Const", "attr": {"value": {"tensor": {"dtype": "DT_INT64", "tensorShape": {"dim": [{"size": "4"}]}}}, "dtype": {"type": "DT_INT64"}}}, {"name": "PartitionedCall/model/tf.strided_slice_10/ones_like", "op": "Const", "attr": {"value": {"tensor": {"dtype": "DT_INT64", "tensorShape": {"dim": [{"size": "4"}]}}}, "dtype": {"type": "DT_INT64"}}}, {"name": "PartitionedCall/model/lambda_1//model.13/Resize/size", "op": "Const", "attr": {"value": {"tensor": {"dtype": "DT_INT32", "tensorShape": {"dim": [{"size": "2"}]}}}, "dtype": {"type": "DT_INT32"}}}, {"name": "PartitionedCall/model/tf.concat_7/concat/axis", "op": "Const", "attr": {"dtype": {"type": "DT_INT32"}, "value": {"tensor": {"dtype": "DT_INT32", "tensorShape": {}}}}}, {"name": "4045", "op": "Const", "attr": {"dtype": {"type": "DT_FLOAT"}, "value": {"tensor": {"dtype": "DT_FLOAT", "tensorShape": {"dim": [{"size": "1"}, {"size": "1"}, {"size": "192"}, {"size": "64"}]}}}}}, {"name": "4047", "op": "Const", "attr": {"dtype": {"type": "DT_FLOAT"}, "value": {"tensor": {"dtype": "DT_FLOAT", "tensorShape": {"dim": [{"size": "64"}]}}}}}, {"name": "4049", "op": "Const", "attr": {"dtype": {"type": "DT_INT64"}, "value": {"tensor": {"dtype": "DT_INT64", "tensorShape": {"dim": [{"size": "4"}]}}}}}, {"name": "4051", "op": "Const", "attr": {"dtype": {"type": "DT_INT64"}, "value": {"tensor": {"dtype": "DT_INT64", "tensorShape": {"dim": [{"size": "4"}]}}}}}, {"name": "PartitionedCall/model/tf.strided_slice_11/ones_like", "op": "Const", "attr": {"value": {"tensor": {"dtype": "DT_INT64", "tensorShape": {"dim": [{"size": "4"}]}}}, "dtype": {"type": "DT_INT64"}}}, {"name": "4053", "op": "Const", "attr": {"dtype": {"type": "DT_FLOAT"}, "value": {"tensor": {"dtype": "DT_FLOAT", "tensorShape": {"dim": [{"size": "3"}, {"size": "3"}, {"size": "32"}, {"size": "32"}]}}}}}, {"name": "4055", "op": "Const", "attr": {"value": {"tensor": {"dtype": "DT_FLOAT", "tensorShape": {"dim": [{"size": "32"}]}}}, "dtype": {"type": "DT_FLOAT"}}}, {"name": "4057", "op": "Const", "attr": {"value": {"tensor": {"dtype": "DT_FLOAT", "tensorShape": {"dim": [{"size": "3"}, {"size": "3"}, {"size": "32"}, {"size": "32"}]}}}, "dtype": {"type": "DT_FLOAT"}}}, {"name": "4059", "op": "Const", "attr": {"value": {"tensor": {"dtype": "DT_FLOAT", "tensorShape": {"dim": [{"size": "32"}]}}}, "dtype": {"type": "DT_FLOAT"}}}, {"name": "PartitionedCall/model/tf.concat_8/concat/axis", "op": "Const", "attr": {"dtype": {"type": "DT_INT32"}, "value": {"tensor": {"dtype": "DT_INT32", "tensorShape": {}}}}}, {"name": "4065", "op": "Const", "attr": {"value": {"tensor": {"dtype": "DT_FLOAT", "tensorShape": {"dim": [{"size": "1"}, {"size": "1"}, {"size": "96"}, {"size": "64"}]}}}, "dtype": {"type": "DT_FLOAT"}}}, {"name": "4067", "op": "Const", "attr": {"dtype": {"type": "DT_FLOAT"}, "value": {"tensor": {"dtype": "DT_FLOAT", "tensorShape": {"dim": [{"size": "64"}]}}}}}, {"name": "4069", "op": "Const", "attr": {"dtype": {"type": "DT_INT32"}, "value": {"tensor": {"dtype": "DT_INT32", "tensorShape": {"dim": [{"size": "4"}, {"size": "2"}]}}}}}, {"name": "4071", "op": "Const", "attr": {"dtype": {"type": "DT_FLOAT"}, "value": {"tensor": {"dtype": "DT_FLOAT", "tensorShape": {"dim": [{"size": "3"}, {"size": "3"}, {"size": "64"}, {"size": "64"}]}}}}}, {"name": "4073", "op": "Const", "attr": {"dtype": {"type": "DT_FLOAT"}, "value": {"tensor": {"dtype": "DT_FLOAT", "tensorShape": {"dim": [{"size": "64"}]}}}}}, {"name": "4037", "op": "Const", "attr": {"dtype": {"type": "DT_INT64"}, "value": {"tensor": {"dtype": "DT_INT64", "tensorShape": {"dim": [{"size": "4"}]}}}}}, {"name": "4039", "op": "Const", "attr": {"dtype": {"type": "DT_INT64"}, "value": {"tensor": {"dtype": "DT_INT64", "tensorShape": {"dim": [{"size": "4"}]}}}}}, {"name": "PartitionedCall/model/tf.strided_slice_8/ones_like", "op": "Const", "attr": {"value": {"tensor": {"dtype": "DT_INT64", "tensorShape": {"dim": [{"size": "4"}]}}}, "dtype": {"type": "DT_INT64"}}}, {"name": "PartitionedCall/model/lambda//model.10/Resize/size", "op": "Const", "attr": {"dtype": {"type": "DT_INT32"}, "value": {"tensor": {"dtype": "DT_INT32", "tensorShape": {"dim": [{"size": "2"}]}}}}}, {"name": "PartitionedCall/model/tf.concat_5/concat/axis", "op": "Const", "attr": {"dtype": {"type": "DT_INT32"}, "value": {"tensor": {"dtype": "DT_INT32", "tensorShape": {}}}}}, {"name": "4021", "op": "Const", "attr": {"value": {"tensor": {"dtype": "DT_FLOAT", "tensorShape": {"dim": [{"size": "1"}, {"size": "1"}, {"size": "384"}, {"size": "128"}]}}}, "dtype": {"type": "DT_FLOAT"}}}, {"name": "4023", "op": "Const", "attr": {"dtype": {"type": "DT_FLOAT"}, "value": {"tensor": {"dtype": "DT_FLOAT", "tensorShape": {"dim": [{"size": "128"}]}}}}}, {"name": "4025", "op": "Const", "attr": {"dtype": {"type": "DT_INT64"}, "value": {"tensor": {"dtype": "DT_INT64", "tensorShape": {"dim": [{"size": "4"}]}}}}}, {"name": "4027", "op": "Const", "attr": {"value": {"tensor": {"dtype": "DT_INT64", "tensorShape": {"dim": [{"size": "4"}]}}}, "dtype": {"type": "DT_INT64"}}}, {"name": "PartitionedCall/model/tf.strided_slice_9/ones_like", "op": "Const", "attr": {"value": {"tensor": {"dtype": "DT_INT64", "tensorShape": {"dim": [{"size": "4"}]}}}, "dtype": {"type": "DT_INT64"}}}, {"name": "4029", "op": "Const", "attr": {"dtype": {"type": "DT_FLOAT"}, "value": {"tensor": {"dtype": "DT_FLOAT", "tensorShape": {"dim": [{"size": "3"}, {"size": "3"}, {"size": "64"}, {"size": "64"}]}}}}}, {"name": "4031", "op": "Const", "attr": {"dtype": {"type": "DT_FLOAT"}, "value": {"tensor": {"dtype": "DT_FLOAT", "tensorShape": {"dim": [{"size": "64"}]}}}}}, {"name": "4033", "op": "Const", "attr": {"value": {"tensor": {"dtype": "DT_FLOAT", "tensorShape": {"dim": [{"size": "3"}, {"size": "3"}, {"size": "64"}, {"size": "64"}]}}}, "dtype": {"type": "DT_FLOAT"}}}, {"name": "4035", "op": "Const", "attr": {"dtype": {"type": "DT_FLOAT"}, "value": {"tensor": {"dtype": "DT_FLOAT", "tensorShape": {"dim": [{"size": "64"}]}}}}}, {"name": "PartitionedCall/model/tf.concat_6/concat/axis", "op": "Const", "attr": {"dtype": {"type": "DT_INT32"}, "value": {"tensor": {"dtype": "DT_INT32", "tensorShape": {}}}}}, {"name": "4041", "op": "Const", "attr": {"dtype": {"type": "DT_FLOAT"}, "value": {"tensor": {"dtype": "DT_FLOAT", "tensorShape": {"dim": [{"size": "1"}, {"size": "1"}, {"size": "192"}, {"size": "128"}]}}}}}, {"name": "4043", "op": "Const", "attr": {"dtype": {"type": "DT_FLOAT"}, "value": {"tensor": {"dtype": "DT_FLOAT", "tensorShape": {"dim": [{"size": "128"}]}}}}}, {"name": "PartitionedCall/model/tf.concat_9/concat/axis", "op": "Const", "attr": {"dtype": {"type": "DT_INT32"}, "value": {"tensor": {"dtype": "DT_INT32", "tensorShape": {}}}}}, {"name": "4075", "op": "Const", "attr": {"dtype": {"type": "DT_FLOAT"}, "value": {"tensor": {"dtype": "DT_FLOAT", "tensorShape": {"dim": [{"size": "1"}, {"size": "1"}, {"size": "192"}, {"size": "128"}]}}}}}, {"name": "4077", "op": "Const", "attr": {"dtype": {"type": "DT_FLOAT"}, "value": {"tensor": {"dtype": "DT_FLOAT", "tensorShape": {"dim": [{"size": "128"}]}}}}}, {"name": "4079", "op": "Const", "attr": {"dtype": {"type": "DT_INT64"}, "value": {"tensor": {"dtype": "DT_INT64", "tensorShape": {"dim": [{"size": "4"}]}}}}}, {"name": "4081", "op": "Const", "attr": {"value": {"tensor": {"dtype": "DT_INT64", "tensorShape": {"dim": [{"size": "4"}]}}}, "dtype": {"type": "DT_INT64"}}}, {"name": "PartitionedCall/model/tf.strided_slice_13/ones_like", "op": "Const", "attr": {"value": {"tensor": {"dtype": "DT_INT64", "tensorShape": {"dim": [{"size": "4"}]}}}, "dtype": {"type": "DT_INT64"}}}, {"name": "4083", "op": "Const", "attr": {"value": {"tensor": {"dtype": "DT_FLOAT", "tensorShape": {"dim": [{"size": "3"}, {"size": "3"}, {"size": "64"}, {"size": "64"}]}}}, "dtype": {"type": "DT_FLOAT"}}}, {"name": "4085", "op": "Const", "attr": {"dtype": {"type": "DT_FLOAT"}, "value": {"tensor": {"dtype": "DT_FLOAT", "tensorShape": {"dim": [{"size": "64"}]}}}}}, {"name": "4087", "op": "Const", "attr": {"dtype": {"type": "DT_FLOAT"}, "value": {"tensor": {"dtype": "DT_FLOAT", "tensorShape": {"dim": [{"size": "3"}, {"size": "3"}, {"size": "64"}, {"size": "64"}]}}}}}, {"name": "4089", "op": "Const", "attr": {"dtype": {"type": "DT_FLOAT"}, "value": {"tensor": {"dtype": "DT_FLOAT", "tensorShape": {"dim": [{"size": "64"}]}}}}}, {"name": "PartitionedCall/model/tf.concat_11/concat/axis", "op": "Const", "attr": {"dtype": {"type": "DT_INT32"}, "value": {"tensor": {"dtype": "DT_INT32", "tensorShape": {}}}}}, {"name": "4095", "op": "Const", "attr": {"value": {"tensor": {"dtype": "DT_FLOAT", "tensorShape": {"dim": [{"size": "1"}, {"size": "1"}, {"size": "192"}, {"size": "128"}]}}}, "dtype": {"type": "DT_FLOAT"}}}, {"name": "4097", "op": "Const", "attr": {"dtype": {"type": "DT_FLOAT"}, "value": {"tensor": {"dtype": "DT_FLOAT", "tensorShape": {"dim": [{"size": "128"}]}}}}}, {"name": "4099", "op": "Const", "attr": {"dtype": {"type": "DT_INT32"}, "value": {"tensor": {"dtype": "DT_INT32", "tensorShape": {"dim": [{"size": "4"}, {"size": "2"}]}}}}}, {"name": "4101", "op": "Const", "attr": {"dtype": {"type": "DT_FLOAT"}, "value": {"tensor": {"dtype": "DT_FLOAT", "tensorShape": {"dim": [{"size": "3"}, {"size": "3"}, {"size": "128"}, {"size": "128"}]}}}}}, {"name": "4103", "op": "Const", "attr": {"value": {"tensor": {"dtype": "DT_FLOAT", "tensorShape": {"dim": [{"size": "128"}]}}}, "dtype": {"type": "DT_FLOAT"}}}, {"name": "4005", "op": "Const", "attr": {"dtype": {"type": "DT_INT64"}, "value": {"tensor": {"dtype": "DT_INT64", "tensorShape": {"dim": [{"size": "4"}]}}}}}, {"name": "4007", "op": "Const", "attr": {"dtype": {"type": "DT_INT64"}, "value": {"tensor": {"dtype": "DT_INT64", "tensorShape": {"dim": [{"size": "4"}]}}}}}, {"name": "PartitionedCall/model/tf.strided_slice_6/ones_like", "op": "Const", "attr": {"value": {"tensor": {"dtype": "DT_INT64", "tensorShape": {"dim": [{"size": "4"}]}}}, "dtype": {"type": "DT_INT64"}}}, {"name": "3975", "op": "Const", "attr": {"dtype": {"type": "DT_INT64"}, "value": {"tensor": {"dtype": "DT_INT64", "tensorShape": {"dim": [{"size": "4"}]}}}}}, {"name": "3977", "op": "Const", "attr": {"dtype": {"type": "DT_INT64"}, "value": {"tensor": {"dtype": "DT_INT64", "tensorShape": {"dim": [{"size": "4"}]}}}}}, {"name": "PartitionedCall/model/tf.strided_slice_4/ones_like", "op": "Const", "attr": {"dtype": {"type": "DT_INT64"}, "value": {"tensor": {"dtype": "DT_INT64", "tensorShape": {"dim": [{"size": "4"}]}}}}}, {"name": "3937", "op": "Const", "attr": {"dtype": {"type": "DT_INT64"}, "value": {"tensor": {"dtype": "DT_INT64", "tensorShape": {"dim": [{"size": "4"}]}}}}}, {"name": "3939", "op": "Const", "attr": {"dtype": {"type": "DT_INT64"}, "value": {"tensor": {"dtype": "DT_INT64", "tensorShape": {"dim": [{"size": "4"}]}}}}}, {"name": "PartitionedCall/model/tf.strided_slice_2/ones_like", "op": "Const", "attr": {"value": {"tensor": {"dtype": "DT_INT64", "tensorShape": {"dim": [{"size": "4"}]}}}, "dtype": {"type": "DT_INT64"}}}, {"name": "3899", "op": "Const", "attr": {"value": {"tensor": {"dtype": "DT_INT64", "tensorShape": {"dim": [{"size": "4"}]}}}, "dtype": {"type": "DT_INT64"}}}, {"name": "3901", "op": "Const", "attr": {"dtype": {"type": "DT_INT64"}, "value": {"tensor": {"dtype": "DT_INT64", "tensorShape": {"dim": [{"size": "4"}]}}}}}, {"name": "PartitionedCall/model/tf.strided_slice/ones_like", "op": "Const", "attr": {"value": {"tensor": {"dtype": "DT_INT64", "tensorShape": {"dim": [{"size": "4"}]}}}, "dtype": {"type": "DT_INT64"}}}, {"name": "3871", "op": "Const", "attr": {"value": {"tensor": {"dtype": "DT_INT32", "tensorShape": {"dim": [{"size": "4"}, {"size": "2"}]}}}, "dtype": {"type": "DT_INT32"}}}, {"name": "3873", "op": "Const", "attr": {"dtype": {"type": "DT_FLOAT"}, "value": {"tensor": {"dtype": "DT_FLOAT", "tensorShape": {"dim": [{"size": "3"}, {"size": "3"}, {"size": "3"}, {"size": "16"}]}}}}}, {"name": "3875", "op": "Const", "attr": {"dtype": {"type": "DT_FLOAT"}, "value": {"tensor": {"dtype": "DT_FLOAT", "tensorShape": {"dim": [{"size": "16"}]}}}}}, {"name": "3877", "op": "Const", "attr": {"value": {"tensor": {"dtype": "DT_INT32", "tensorShape": {"dim": [{"size": "4"}, {"size": "2"}]}}}, "dtype": {"type": "DT_INT32"}}}, {"name": "3879", "op": "Const", "attr": {"dtype": {"type": "DT_FLOAT"}, "value": {"tensor": {"dtype": "DT_FLOAT", "tensorShape": {"dim": [{"size": "3"}, {"size": "3"}, {"size": "16"}, {"size": "32"}]}}}}}, {"name": "3881", "op": "Const", "attr": {"value": {"tensor": {"dtype": "DT_FLOAT", "tensorShape": {"dim": [{"size": "32"}]}}}, "dtype": {"type": "DT_FLOAT"}}}, {"name": "3883", "op": "Const", "attr": {"dtype": {"type": "DT_FLOAT"}, "value": {"tensor": {"dtype": "DT_FLOAT", "tensorShape": {"dim": [{"size": "1"}, {"size": "1"}, {"size": "32"}, {"size": "32"}]}}}}}, {"name": "3885", "op": "Const", "attr": {"dtype": {"type": "DT_FLOAT"}, "value": {"tensor": {"dtype": "DT_FLOAT", "tensorShape": {"dim": [{"size": "32"}]}}}}}, {"name": "3887", "op": "Const", "attr": {"dtype": {"type": "DT_INT64"}, "value": {"tensor": {"dtype": "DT_INT64", "tensorShape": {"dim": [{"size": "4"}]}}}}}, {"name": "3889", "op": "Const", "attr": {"dtype": {"type": "DT_INT64"}, "value": {"tensor": {"dtype": "DT_INT64", "tensorShape": {"dim": [{"size": "4"}]}}}}}, {"name": "PartitionedCall/model/tf.strided_slice_1/ones_like", "op": "Const", "attr": {"dtype": {"type": "DT_INT64"}, "value": {"tensor": {"dtype": "DT_INT64", "tensorShape": {"dim": [{"size": "4"}]}}}}}, {"name": "3891", "op": "Const", "attr": {"value": {"tensor": {"dtype": "DT_FLOAT", "tensorShape": {"dim": [{"size": "3"}, {"size": "3"}, {"size": "16"}, {"size": "16"}]}}}, "dtype": {"type": "DT_FLOAT"}}}, {"name": "3893", "op": "Const", "attr": {"value": {"tensor": {"dtype": "DT_FLOAT", "tensorShape": {"dim": [{"size": "16"}]}}}, "dtype": {"type": "DT_FLOAT"}}}, {"name": "3895", "op": "Const", "attr": {"value": {"tensor": {"dtype": "DT_FLOAT", "tensorShape": {"dim": [{"size": "3"}, {"size": "3"}, {"size": "16"}, {"size": "16"}]}}}, "dtype": {"type": "DT_FLOAT"}}}, {"name": "3897", "op": "Const", "attr": {"value": {"tensor": {"dtype": "DT_FLOAT", "tensorShape": {"dim": [{"size": "16"}]}}}, "dtype": {"type": "DT_FLOAT"}}}, {"name": "PartitionedCall/model/tf.concat/concat/axis", "op": "Const", "attr": {"dtype": {"type": "DT_INT32"}, "value": {"tensor": {"dtype": "DT_INT32", "tensorShape": {}}}}}, {"name": "3903", "op": "Const", "attr": {"dtype": {"type": "DT_FLOAT"}, "value": {"tensor": {"dtype": "DT_FLOAT", "tensorShape": {"dim": [{"size": "1"}, {"size": "1"}, {"size": "48"}, {"size": "32"}]}}}}}, {"name": "3905", "op": "Const", "attr": {"value": {"tensor": {"dtype": "DT_FLOAT", "tensorShape": {"dim": [{"size": "32"}]}}}, "dtype": {"type": "DT_FLOAT"}}}, {"name": "3907", "op": "Const", "attr": {"value": {"tensor": {"dtype": "DT_INT32", "tensorShape": {"dim": [{"size": "4"}, {"size": "2"}]}}}, "dtype": {"type": "DT_INT32"}}}, {"name": "3909", "op": "Const", "attr": {"value": {"tensor": {"dtype": "DT_FLOAT", "tensorShape": {"dim": [{"size": "3"}, {"size": "3"}, {"size": "32"}, {"size": "64"}]}}}, "dtype": {"type": "DT_FLOAT"}}}, {"name": "3911", "op": "Const", "attr": {"value": {"tensor": {"dtype": "DT_FLOAT", "tensorShape": {"dim": [{"size": "64"}]}}}, "dtype": {"type": "DT_FLOAT"}}}, {"name": "3913", "op": "Const", "attr": {"value": {"tensor": {"dtype": "DT_FLOAT", "tensorShape": {"dim": [{"size": "1"}, {"size": "1"}, {"size": "64"}, {"size": "64"}]}}}, "dtype": {"type": "DT_FLOAT"}}}, {"name": "3915", "op": "Const", "attr": {"value": {"tensor": {"dtype": "DT_FLOAT", "tensorShape": {"dim": [{"size": "64"}]}}}, "dtype": {"type": "DT_FLOAT"}}}, {"name": "3917", "op": "Const", "attr": {"dtype": {"type": "DT_INT64"}, "value": {"tensor": {"dtype": "DT_INT64", "tensorShape": {"dim": [{"size": "4"}]}}}}}, {"name": "3919", "op": "Const", "attr": {"dtype": {"type": "DT_INT64"}, "value": {"tensor": {"dtype": "DT_INT64", "tensorShape": {"dim": [{"size": "4"}]}}}}}, {"name": "PartitionedCall/model/tf.strided_slice_3/ones_like", "op": "Const", "attr": {"value": {"tensor": {"dtype": "DT_INT64", "tensorShape": {"dim": [{"size": "4"}]}}}, "dtype": {"type": "DT_INT64"}}}, {"name": "3921", "op": "Const", "attr": {"value": {"tensor": {"dtype": "DT_FLOAT", "tensorShape": {"dim": [{"size": "3"}, {"size": "3"}, {"size": "32"}, {"size": "32"}]}}}, "dtype": {"type": "DT_FLOAT"}}}, {"name": "3923", "op": "Const", "attr": {"dtype": {"type": "DT_FLOAT"}, "value": {"tensor": {"dtype": "DT_FLOAT", "tensorShape": {"dim": [{"size": "32"}]}}}}}, {"name": "3925", "op": "Const", "attr": {"dtype": {"type": "DT_FLOAT"}, "value": {"tensor": {"dtype": "DT_FLOAT", "tensorShape": {"dim": [{"size": "3"}, {"size": "3"}, {"size": "32"}, {"size": "32"}]}}}}}, {"name": "3927", "op": "Const", "attr": {"dtype": {"type": "DT_FLOAT"}, "value": {"tensor": {"dtype": "DT_FLOAT", "tensorShape": {"dim": [{"size": "32"}]}}}}}, {"name": "3929", "op": "Const", "attr": {"value": {"tensor": {"dtype": "DT_FLOAT", "tensorShape": {"dim": [{"size": "3"}, {"size": "3"}, {"size": "32"}, {"size": "32"}]}}}, "dtype": {"type": "DT_FLOAT"}}}, {"name": "3931", "op": "Const", "attr": {"dtype": {"type": "DT_FLOAT"}, "value": {"tensor": {"dtype": "DT_FLOAT", "tensorShape": {"dim": [{"size": "32"}]}}}}}, {"name": "3933", "op": "Const", "attr": {"value": {"tensor": {"dtype": "DT_FLOAT", "tensorShape": {"dim": [{"size": "3"}, {"size": "3"}, {"size": "32"}, {"size": "32"}]}}}, "dtype": {"type": "DT_FLOAT"}}}, {"name": "3935", "op": "Const", "attr": {"dtype": {"type": "DT_FLOAT"}, "value": {"tensor": {"dtype": "DT_FLOAT", "tensorShape": {"dim": [{"size": "32"}]}}}}}, {"name": "PartitionedCall/model/tf.concat_1/concat/axis", "op": "Const", "attr": {"dtype": {"type": "DT_INT32"}, "value": {"tensor": {"dtype": "DT_INT32", "tensorShape": {}}}}}, {"name": "3941", "op": "Const", "attr": {"dtype": {"type": "DT_FLOAT"}, "value": {"tensor": {"dtype": "DT_FLOAT", "tensorShape": {"dim": [{"size": "1"}, {"size": "1"}, {"size": "128"}, {"size": "64"}]}}}}}, {"name": "3943", "op": "Const", "attr": {"value": {"tensor": {"dtype": "DT_FLOAT", "tensorShape": {"dim": [{"size": "64"}]}}}, "dtype": {"type": "DT_FLOAT"}}}, {"name": "3945", "op": "Const", "attr": {"value": {"tensor": {"dtype": "DT_INT32", "tensorShape": {"dim": [{"size": "4"}, {"size": "2"}]}}}, "dtype": {"type": "DT_INT32"}}}, {"name": "3947", "op": "Const", "attr": {"value": {"tensor": {"dtype": "DT_FLOAT", "tensorShape": {"dim": [{"size": "3"}, {"size": "3"}, {"size": "64"}, {"size": "128"}]}}}, "dtype": {"type": "DT_FLOAT"}}}, {"name": "3949", "op": "Const", "attr": {"value": {"tensor": {"dtype": "DT_FLOAT", "tensorShape": {"dim": [{"size": "128"}]}}}, "dtype": {"type": "DT_FLOAT"}}}, {"name": "3951", "op": "Const", "attr": {"dtype": {"type": "DT_FLOAT"}, "value": {"tensor": {"dtype": "DT_FLOAT", "tensorShape": {"dim": [{"size": "1"}, {"size": "1"}, {"size": "128"}, {"size": "128"}]}}}}}, {"name": "3953", "op": "Const", "attr": {"value": {"tensor": {"dtype": "DT_FLOAT", "tensorShape": {"dim": [{"size": "128"}]}}}, "dtype": {"type": "DT_FLOAT"}}}, {"name": "3955", "op": "Const", "attr": {"dtype": {"type": "DT_INT64"}, "value": {"tensor": {"dtype": "DT_INT64", "tensorShape": {"dim": [{"size": "4"}]}}}}}, {"name": "3957", "op": "Const", "attr": {"value": {"tensor": {"dtype": "DT_INT64", "tensorShape": {"dim": [{"size": "4"}]}}}, "dtype": {"type": "DT_INT64"}}}, {"name": "PartitionedCall/model/tf.strided_slice_5/ones_like", "op": "Const", "attr": {"value": {"tensor": {"dtype": "DT_INT64", "tensorShape": {"dim": [{"size": "4"}]}}}, "dtype": {"type": "DT_INT64"}}}, {"name": "3959", "op": "Const", "attr": {"value": {"tensor": {"dtype": "DT_FLOAT", "tensorShape": {"dim": [{"size": "3"}, {"size": "3"}, {"size": "64"}, {"size": "64"}]}}}, "dtype": {"type": "DT_FLOAT"}}}, {"name": "3961", "op": "Const", "attr": {"dtype": {"type": "DT_FLOAT"}, "value": {"tensor": {"dtype": "DT_FLOAT", "tensorShape": {"dim": [{"size": "64"}]}}}}}, {"name": "3963", "op": "Const", "attr": {"dtype": {"type": "DT_FLOAT"}, "value": {"tensor": {"dtype": "DT_FLOAT", "tensorShape": {"dim": [{"size": "3"}, {"size": "3"}, {"size": "64"}, {"size": "64"}]}}}}}, {"name": "3965", "op": "Const", "attr": {"value": {"tensor": {"dtype": "DT_FLOAT", "tensorShape": {"dim": [{"size": "64"}]}}}, "dtype": {"type": "DT_FLOAT"}}}, {"name": "3967", "op": "Const", "attr": {"value": {"tensor": {"dtype": "DT_FLOAT", "tensorShape": {"dim": [{"size": "3"}, {"size": "3"}, {"size": "64"}, {"size": "64"}]}}}, "dtype": {"type": "DT_FLOAT"}}}, {"name": "3969", "op": "Const", "attr": {"dtype": {"type": "DT_FLOAT"}, "value": {"tensor": {"dtype": "DT_FLOAT", "tensorShape": {"dim": [{"size": "64"}]}}}}}, {"name": "3971", "op": "Const", "attr": {"dtype": {"type": "DT_FLOAT"}, "value": {"tensor": {"dtype": "DT_FLOAT", "tensorShape": {"dim": [{"size": "3"}, {"size": "3"}, {"size": "64"}, {"size": "64"}]}}}}}, {"name": "3973", "op": "Const", "attr": {"value": {"tensor": {"dtype": "DT_FLOAT", "tensorShape": {"dim": [{"size": "64"}]}}}, "dtype": {"type": "DT_FLOAT"}}}, {"name": "PartitionedCall/model/tf.concat_2/concat/axis", "op": "Const", "attr": {"dtype": {"type": "DT_INT32"}, "value": {"tensor": {"dtype": "DT_INT32", "tensorShape": {}}}}}, {"name": "3979", "op": "Const", "attr": {"value": {"tensor": {"dtype": "DT_FLOAT", "tensorShape": {"dim": [{"size": "1"}, {"size": "1"}, {"size": "256"}, {"size": "128"}]}}}, "dtype": {"type": "DT_FLOAT"}}}, {"name": "3981", "op": "Const", "attr": {"value": {"tensor": {"dtype": "DT_FLOAT", "tensorShape": {"dim": [{"size": "128"}]}}}, "dtype": {"type": "DT_FLOAT"}}}, {"name": "3983", "op": "Const", "attr": {"value": {"tensor": {"dtype": "DT_INT32", "tensorShape": {"dim": [{"size": "4"}, {"size": "2"}]}}}, "dtype": {"type": "DT_INT32"}}}, {"name": "3985", "op": "Const", "attr": {"value": {"tensor": {"dtype": "DT_FLOAT", "tensorShape": {"dim": [{"size": "3"}, {"size": "3"}, {"size": "128"}, {"size": "256"}]}}}, "dtype": {"type": "DT_FLOAT"}}}, {"name": "3987", "op": "Const", "attr": {"dtype": {"type": "DT_FLOAT"}, "value": {"tensor": {"dtype": "DT_FLOAT", "tensorShape": {"dim": [{"size": "256"}]}}}}}, {"name": "3989", "op": "Const", "attr": {"value": {"tensor": {"dtype": "DT_FLOAT", "tensorShape": {"dim": [{"size": "1"}, {"size": "1"}, {"size": "256"}, {"size": "256"}]}}}, "dtype": {"type": "DT_FLOAT"}}}, {"name": "3991", "op": "Const", "attr": {"value": {"tensor": {"dtype": "DT_FLOAT", "tensorShape": {"dim": [{"size": "256"}]}}}, "dtype": {"type": "DT_FLOAT"}}}, {"name": "3993", "op": "Const", "attr": {"dtype": {"type": "DT_INT64"}, "value": {"tensor": {"dtype": "DT_INT64", "tensorShape": {"dim": [{"size": "4"}]}}}}}, {"name": "3995", "op": "Const", "attr": {"dtype": {"type": "DT_INT64"}, "value": {"tensor": {"dtype": "DT_INT64", "tensorShape": {"dim": [{"size": "4"}]}}}}}, {"name": "PartitionedCall/model/tf.strided_slice_7/ones_like", "op": "Const", "attr": {"value": {"tensor": {"dtype": "DT_INT64", "tensorShape": {"dim": [{"size": "4"}]}}}, "dtype": {"type": "DT_INT64"}}}, {"name": "3997", "op": "Const", "attr": {"value": {"tensor": {"dtype": "DT_FLOAT", "tensorShape": {"dim": [{"size": "3"}, {"size": "3"}, {"size": "128"}, {"size": "128"}]}}}, "dtype": {"type": "DT_FLOAT"}}}, {"name": "3999", "op": "Const", "attr": {"dtype": {"type": "DT_FLOAT"}, "value": {"tensor": {"dtype": "DT_FLOAT", "tensorShape": {"dim": [{"size": "128"}]}}}}}, {"name": "4001", "op": "Const", "attr": {"value": {"tensor": {"dtype": "DT_FLOAT", "tensorShape": {"dim": [{"size": "3"}, {"size": "3"}, {"size": "128"}, {"size": "128"}]}}}, "dtype": {"type": "DT_FLOAT"}}}, {"name": "4003", "op": "Const", "attr": {"dtype": {"type": "DT_FLOAT"}, "value": {"tensor": {"dtype": "DT_FLOAT", "tensorShape": {"dim": [{"size": "128"}]}}}}}, {"name": "PartitionedCall/model/tf.concat_3/concat/axis", "op": "Const", "attr": {"dtype": {"type": "DT_INT32"}, "value": {"tensor": {"dtype": "DT_INT32", "tensorShape": {}}}}}, {"name": "4009", "op": "Const", "attr": {"dtype": {"type": "DT_FLOAT"}, "value": {"tensor": {"dtype": "DT_FLOAT", "tensorShape": {"dim": [{"size": "1"}, {"size": "1"}, {"size": "384"}, {"size": "256"}]}}}}}, {"name": "4011", "op": "Const", "attr": {"dtype": {"type": "DT_FLOAT"}, "value": {"tensor": {"dtype": "DT_FLOAT", "tensorShape": {"dim": [{"size": "256"}]}}}}}, {"name": "4013", "op": "Const", "attr": {"dtype": {"type": "DT_FLOAT"}, "value": {"tensor": {"dtype": "DT_FLOAT", "tensorShape": {"dim": [{"size": "1"}, {"size": "1"}, {"size": "256"}, {"size": "128"}]}}}}}, {"name": "4015", "op": "Const", "attr": {"value": {"tensor": {"dtype": "DT_FLOAT", "tensorShape": {"dim": [{"size": "128"}]}}}, "dtype": {"type": "DT_FLOAT"}}}, {"name": "PartitionedCall/model/tf.concat_4/concat/axis", "op": "Const", "attr": {"value": {"tensor": {"dtype": "DT_INT32", "tensorShape": {}}}, "dtype": {"type": "DT_INT32"}}}, {"name": "4017", "op": "Const", "attr": {"dtype": {"type": "DT_FLOAT"}, "value": {"tensor": {"dtype": "DT_FLOAT", "tensorShape": {"dim": [{"size": "1"}, {"size": "1"}, {"size": "512"}, {"size": "256"}]}}}}}, {"name": "4019", "op": "Const", "attr": {"dtype": {"type": "DT_FLOAT"}, "value": {"tensor": {"dtype": "DT_FLOAT", "tensorShape": {"dim": [{"size": "256"}]}}}}}, {"name": "PartitionedCall/model/tf.concat_12/concat/axis", "op": "Const", "attr": {"dtype": {"type": "DT_INT32"}, "value": {"tensor": {"dtype": "DT_INT32", "tensorShape": {}}}}}, {"name": "4105", "op": "Const", "attr": {"dtype": {"type": "DT_FLOAT"}, "value": {"tensor": {"dtype": "DT_FLOAT", "tensorShape": {"dim": [{"size": "1"}, {"size": "1"}, {"size": "384"}, {"size": "256"}]}}}}}, {"name": "4107", "op": "Const", "attr": {"dtype": {"type": "DT_FLOAT"}, "value": {"tensor": {"dtype": "DT_FLOAT", "tensorShape": {"dim": [{"size": "256"}]}}}}}, {"name": "4109", "op": "Const", "attr": {"value": {"tensor": {"dtype": "DT_INT64", "tensorShape": {"dim": [{"size": "4"}]}}}, "dtype": {"type": "DT_INT64"}}}, {"name": "4111", "op": "Const", "attr": {"value": {"tensor": {"dtype": "DT_INT64", "tensorShape": {"dim": [{"size": "4"}]}}}, "dtype": {"type": "DT_INT64"}}}, {"name": "PartitionedCall/model/tf.strided_slice_15/ones_like", "op": "Const", "attr": {"value": {"tensor": {"dtype": "DT_INT64", "tensorShape": {"dim": [{"size": "4"}]}}}, "dtype": {"type": "DT_INT64"}}}, {"name": "4113", "op": "Const", "attr": {"dtype": {"type": "DT_FLOAT"}, "value": {"tensor": {"dtype": "DT_FLOAT", "tensorShape": {"dim": [{"size": "3"}, {"size": "3"}, {"size": "128"}, {"size": "128"}]}}}}}, {"name": "4115", "op": "Const", "attr": {"value": {"tensor": {"dtype": "DT_FLOAT", "tensorShape": {"dim": [{"size": "128"}]}}}, "dtype": {"type": "DT_FLOAT"}}}, {"name": "4117", "op": "Const", "attr": {"value": {"tensor": {"dtype": "DT_FLOAT", "tensorShape": {"dim": [{"size": "3"}, {"size": "3"}, {"size": "128"}, {"size": "128"}]}}}, "dtype": {"type": "DT_FLOAT"}}}, {"name": "4119", "op": "Const", "attr": {"value": {"tensor": {"dtype": "DT_FLOAT", "tensorShape": {"dim": [{"size": "128"}]}}}, "dtype": {"type": "DT_FLOAT"}}}, {"name": "PartitionedCall/model/tf.concat_14/concat/axis", "op": "Const", "attr": {"value": {"tensor": {"dtype": "DT_INT32", "tensorShape": {}}}, "dtype": {"type": "DT_INT32"}}}, {"name": "4125", "op": "Const", "attr": {"dtype": {"type": "DT_FLOAT"}, "value": {"tensor": {"dtype": "DT_FLOAT", "tensorShape": {"dim": [{"size": "1"}, {"size": "1"}, {"size": "384"}, {"size": "256"}]}}}}}, {"name": "4127", "op": "Const", "attr": {"value": {"tensor": {"dtype": "DT_FLOAT", "tensorShape": {"dim": [{"size": "256"}]}}}, "dtype": {"type": "DT_FLOAT"}}}, {"name": "4129", "op": "Const", "attr": {"value": {"tensor": {"dtype": "DT_FLOAT", "tensorShape": {"dim": [{"size": "3"}, {"size": "3"}, {"size": "256"}, {"size": "64"}]}}}, "dtype": {"type": "DT_FLOAT"}}}, {"name": "4141", "op": "Const", "attr": {"dtype": {"type": "DT_FLOAT"}, "value": {"tensor": {"dtype": "DT_FLOAT", "tensorShape": {"dim": [{"size": "64"}]}}}}}, {"name": "4153", "op": "Const", "attr": {"dtype": {"type": "DT_FLOAT"}, "value": {"tensor": {"dtype": "DT_FLOAT", "tensorShape": {"dim": [{"size": "3"}, {"size": "3"}, {"size": "64"}, {"size": "64"}]}}}}}, {"name": "4165", "op": "Const", "attr": {"dtype": {"type": "DT_FLOAT"}, "value": {"tensor": {"dtype": "DT_FLOAT", "tensorShape": {"dim": [{"size": "64"}]}}}}}, {"name": "4177", "op": "Const", "attr": {"dtype": {"type": "DT_FLOAT"}, "value": {"tensor": {"dtype": "DT_FLOAT", "tensorShape": {"dim": [{"size": "1"}, {"size": "1"}, {"size": "64"}, {"size": "3"}]}}}}}, {"name": "4191", "op": "Const", "attr": {"value": {"tensor": {"dtype": "DT_FLOAT", "tensorShape": {"dim": [{"size": "3"}]}}}, "dtype": {"type": "DT_FLOAT"}}}, {"name": "PartitionedCall/model/tf.concat_15/concat/axis", "op": "Const", "attr": {"value": {"tensor": {"dtype": "DT_INT32", "tensorShape": {}}}, "dtype": {"type": "DT_INT32"}}}, {"name": "PartitionedCall/model/tf.compat.v1.transpose_2/transpose/perm", "op": "Const", "attr": {"dtype": {"type": "DT_INT32"}, "value": {"tensor": {"dtype": "DT_INT32", "tensorShape": {"dim": [{"size": "4"}]}}}}}, {"name": "PartitionedCall/model/tf.reshape_2/Reshape/shape", "op": "Const", "attr": {"value": {"tensor": {"dtype": "DT_INT32", "tensorShape": {"dim": [{"size": "3"}]}}}, "dtype": {"type": "DT_INT32"}}}, {"name": "PartitionedCall/model/tf.concat_16/concat/axis", "op": "Const", "attr": {"dtype": {"type": "DT_INT32"}, "value": {"tensor": {"dtype": "DT_INT32", "tensorShape": {}}}}}, {"name": "4221", "op": "Const", "attr": {"dtype": {"type": "DT_INT64"}, "value": {"tensor": {"dtype": "DT_INT64", "tensorShape": {"dim": [{"size": "3"}]}}}}}, {"name": "4223", "op": "Const", "attr": {"dtype": {"type": "DT_INT64"}, "value": {"tensor": {"dtype": "DT_INT64", "tensorShape": {"dim": [{"size": "3"}]}}}}}, {"name": "PartitionedCall/model/tf.strided_slice_17/StridedSlice/strides", "op": "Const", "attr": {"value": {"tensor": {"dtype": "DT_INT64", "tensorShape": {"dim": [{"size": "3"}]}}}, "dtype": {"type": "DT_INT64"}}}, {"name": "PartitionedCall/model/output0/concat/axis", "op": "Const", "attr": {"value": {"tensor": {"dtype": "DT_INT32", "tensorShape": {}}}, "dtype": {"type": "DT_INT32"}}}, {"name": "x", "op": "Placeholder", "attr": {"shape": {"shape": {"dim": [{"size": "1"}, {"size": "640"}, {"size": "640"}, {"size": "3"}]}}, "dtype": {"type": "DT_FLOAT"}}}, {"name": "PartitionedCall/model/tf.compat.v1.pad/Pad", "op": "Pad", "input": ["x", "3871"], "attr": {"T": {"type": "DT_FLOAT"}, "Tpaddings": {"type": "DT_INT32"}}}, {"name": "PartitionedCall/model/tf.math.add/Add", "op": "_FusedConv2D", "input": ["PartitionedCall/model/tf.compat.v1.pad/Pad", "3873", "3875"], "device": "/device:CPU:0", "attr": {"num_host_args": {"i": "0"}, "strides": {"list": {"i": ["1", "2", "2", "1"]}}, "leakyrelu_alpha": {"f": 0.2}, "epsilon": {"f": 0.0}, "explicit_paddings": {"list": {}}, "data_format": {"s": "TkhXQw=="}, "fused_ops": {"list": {"s": ["Qmlhc0FkZA=="]}}, "padding": {"s": "VkFMSUQ="}, "T": {"type": "DT_FLOAT"}, "num_args": {"i": "1"}, "dilations": {"list": {"i": ["1", "1", "1", "1"]}}, "filter_format": {"s": "SFdJTw=="}, "use_cudnn_on_gpu": {"b": true}, "TArgs": {"list": {"type": ["DT_FLOAT"]}}}}, {"name": "PartitionedCall/model/tf.math.sigmoid/Sigmoid", "op": "Sigmoid", "input": ["PartitionedCall/model/tf.math.add/Add"], "attr": {"T": {"type": "DT_FLOAT"}}}, {"name": "PartitionedCall/model/tf.math.multiply_2/Mul", "op": "Mul", "input": ["PartitionedCall/model/tf.math.add/Add", "PartitionedCall/model/tf.math.sigmoid/Sigmoid"], "attr": {"T": {"type": "DT_FLOAT"}}}, {"name": "PartitionedCall/model/tf.compat.v1.pad_1/Pad", "op": "Pad", "input": ["PartitionedCall/model/tf.math.multiply_2/Mul", "3877"], "attr": {"Tpaddings": {"type": "DT_INT32"}, "T": {"type": "DT_FLOAT"}}}, {"name": "PartitionedCall/model/tf.math.add_1/Add", "op": "_FusedConv2D", "input": ["PartitionedCall/model/tf.compat.v1.pad_1/Pad", "3879", "3881"], "device": "/device:CPU:0", "attr": {"num_host_args": {"i": "0"}, "padding": {"s": "VkFMSUQ="}, "fused_ops": {"list": {"s": ["Qmlhc0FkZA=="]}}, "filter_format": {"s": "SFdJTw=="}, "strides": {"list": {"i": ["1", "2", "2", "1"]}}, "use_cudnn_on_gpu": {"b": true}, "dilations": {"list": {"i": ["1", "1", "1", "1"]}}, "explicit_paddings": {"list": {}}, "leakyrelu_alpha": {"f": 0.2}, "data_format": {"s": "TkhXQw=="}, "num_args": {"i": "1"}, "T": {"type": "DT_FLOAT"}, "TArgs": {"list": {"type": ["DT_FLOAT"]}}, "epsilon": {"f": 0.0}}}, {"name": "PartitionedCall/model/tf.math.sigmoid_1/Sigmoid", "op": "Sigmoid", "input": ["PartitionedCall/model/tf.math.add_1/Add"], "attr": {"T": {"type": "DT_FLOAT"}}}, {"name": "PartitionedCall/model/tf.math.multiply_5/Mul", "op": "Mul", "input": ["PartitionedCall/model/tf.math.add_1/Add", "PartitionedCall/model/tf.math.sigmoid_1/Sigmoid"], "attr": {"T": {"type": "DT_FLOAT"}}}, {"name": "PartitionedCall/model/tf.math.add_2/Add", "op": "_FusedConv2D", "input": ["PartitionedCall/model/tf.math.multiply_5/Mul", "3883", "3885"], "device": "/device:CPU:0", "attr": {"T": {"type": "DT_FLOAT"}, "fused_ops": {"list": {"s": ["Qmlhc0FkZA=="]}}, "data_format": {"s": "TkhXQw=="}, "epsilon": {"f": 0.0}, "leakyrelu_alpha": {"f": 0.2}, "num_host_args": {"i": "0"}, "dilations": {"list": {"i": ["1", "1", "1", "1"]}}, "strides": {"list": {"i": ["1", "1", "1", "1"]}}, "explicit_paddings": {"list": {}}, "filter_format": {"s": "SFdJTw=="}, "use_cudnn_on_gpu": {"b": true}, "padding": {"s": "U0FNRQ=="}, "num_args": {"i": "1"}, "TArgs": {"list": {"type": ["DT_FLOAT"]}}}}, {"name": "PartitionedCall/model/tf.math.sigmoid_2/Sigmoid", "op": "Sigmoid", "input": ["PartitionedCall/model/tf.math.add_2/Add"], "attr": {"T": {"type": "DT_FLOAT"}}}, {"name": "PartitionedCall/model/tf.math.multiply_8/Mul", "op": "Mul", "input": ["PartitionedCall/model/tf.math.add_2/Add", "PartitionedCall/model/tf.math.sigmoid_2/Sigmoid"], "attr": {"T": {"type": "DT_FLOAT"}}}, {"name": "PartitionedCall/model/tf.strided_slice/StridedSlice", "op": "StridedSlice", "input": ["PartitionedCall/model/tf.math.multiply_8/Mul", "3899", "3901", "PartitionedCall/model/tf.strided_slice/ones_like"], "attr": {"shrink_axis_mask": {"i": "0"}, "end_mask": {"i": "7"}, "begin_mask": {"i": "15"}, "T": {"type": "DT_FLOAT"}, "Index": {"type": "DT_INT64"}, "new_axis_mask": {"i": "0"}, "ellipsis_mask": {"i": "0"}}}, {"name": "PartitionedCall/model/tf.strided_slice_1/StridedSlice", "op": "StridedSlice", "input": ["PartitionedCall/model/tf.math.multiply_8/Mul", "3887", "3889", "PartitionedCall/model/tf.strided_slice_1/ones_like"], "attr": {"ellipsis_mask": {"i": "0"}, "Index": {"type": "DT_INT64"}, "begin_mask": {"i": "7"}, "shrink_axis_mask": {"i": "0"}, "T": {"type": "DT_FLOAT"}, "end_mask": {"i": "7"}, "new_axis_mask": {"i": "0"}}}, {"name": "PartitionedCall/model/tf.math.add_3/Add", "op": "_FusedConv2D", "input": ["PartitionedCall/model/tf.strided_slice_1/StridedSlice", "3891", "3893"], "device": "/device:CPU:0", "attr": {"padding": {"s": "U0FNRQ=="}, "num_host_args": {"i": "0"}, "T": {"type": "DT_FLOAT"}, "num_args": {"i": "1"}, "strides": {"list": {"i": ["1", "1", "1", "1"]}}, "data_format": {"s": "TkhXQw=="}, "fused_ops": {"list": {"s": ["Qmlhc0FkZA=="]}}, "epsilon": {"f": 0.0}, "filter_format": {"s": "SFdJTw=="}, "TArgs": {"list": {"type": ["DT_FLOAT"]}}, "use_cudnn_on_gpu": {"b": true}, "leakyrelu_alpha": {"f": 0.2}, "explicit_paddings": {"list": {}}, "dilations": {"list": {"i": ["1", "1", "1", "1"]}}}}, {"name": "PartitionedCall/model/tf.math.sigmoid_3/Sigmoid", "op": "Sigmoid", "input": ["PartitionedCall/model/tf.math.add_3/Add"], "attr": {"T": {"type": "DT_FLOAT"}}}, {"name": "PartitionedCall/model/tf.math.multiply_11/Mul", "op": "Mul", "input": ["PartitionedCall/model/tf.math.add_3/Add", "PartitionedCall/model/tf.math.sigmoid_3/Sigmoid"], "attr": {"T": {"type": "DT_FLOAT"}}}, {"name": "PartitionedCall/model/tf.math.add_4/Add", "op": "_FusedConv2D", "input": ["PartitionedCall/model/tf.math.multiply_11/Mul", "3895", "3897"], "device": "/device:CPU:0", "attr": {"use_cudnn_on_gpu": {"b": true}, "leakyrelu_alpha": {"f": 0.2}, "padding": {"s": "U0FNRQ=="}, "epsilon": {"f": 0.0}, "fused_ops": {"list": {"s": ["Qmlhc0FkZA=="]}}, "explicit_paddings": {"list": {}}, "num_host_args": {"i": "0"}, "TArgs": {"list": {"type": ["DT_FLOAT"]}}, "num_args": {"i": "1"}, "filter_format": {"s": "SFdJTw=="}, "dilations": {"list": {"i": ["1", "1", "1", "1"]}}, "strides": {"list": {"i": ["1", "1", "1", "1"]}}, "T": {"type": "DT_FLOAT"}, "data_format": {"s": "TkhXQw=="}}}, {"name": "PartitionedCall/model/tf.math.sigmoid_4/Sigmoid", "op": "Sigmoid", "input": ["PartitionedCall/model/tf.math.add_4/Add"], "attr": {"T": {"type": "DT_FLOAT"}}}, {"name": "PartitionedCall/model/tf.math.multiply_14/Mul", "op": "Mul", "input": ["PartitionedCall/model/tf.math.add_4/Add", "PartitionedCall/model/tf.math.sigmoid_4/Sigmoid"], "attr": {"T": {"type": "DT_FLOAT"}}}, {"name": "PartitionedCall/model/tf.math.add_5/Add", "op": "AddV2", "input": ["PartitionedCall/model/tf.strided_slice_1/StridedSlice", "PartitionedCall/model/tf.math.multiply_14/Mul"], "attr": {"T": {"type": "DT_FLOAT"}}}, {"name": "PartitionedCall/model/tf.concat/concat", "op": "ConcatV2", "input": ["PartitionedCall/model/tf.strided_slice/StridedSlice", "PartitionedCall/model/tf.strided_slice_1/StridedSlice", "PartitionedCall/model/tf.math.add_5/Add", "PartitionedCall/model/tf.concat/concat/axis"], "attr": {"T": {"type": "DT_FLOAT"}, "Tidx": {"type": "DT_INT32"}, "N": {"i": "3"}}}, {"name": "PartitionedCall/model/tf.math.add_6/Add", "op": "_FusedConv2D", "input": ["PartitionedCall/model/tf.concat/concat", "3903", "3905"], "device": "/device:CPU:0", "attr": {"num_host_args": {"i": "0"}, "dilations": {"list": {"i": ["1", "1", "1", "1"]}}, "use_cudnn_on_gpu": {"b": true}, "strides": {"list": {"i": ["1", "1", "1", "1"]}}, "explicit_paddings": {"list": {}}, "fused_ops": {"list": {"s": ["Qmlhc0FkZA=="]}}, "filter_format": {"s": "SFdJTw=="}, "data_format": {"s": "TkhXQw=="}, "TArgs": {"list": {"type": ["DT_FLOAT"]}}, "epsilon": {"f": 0.0}, "padding": {"s": "U0FNRQ=="}, "T": {"type": "DT_FLOAT"}, "leakyrelu_alpha": {"f": 0.2}, "num_args": {"i": "1"}}}, {"name": "PartitionedCall/model/tf.math.sigmoid_5/Sigmoid", "op": "Sigmoid", "input": ["PartitionedCall/model/tf.math.add_6/Add"], "attr": {"T": {"type": "DT_FLOAT"}}}, {"name": "PartitionedCall/model/tf.math.multiply_19/Mul", "op": "Mul", "input": ["PartitionedCall/model/tf.math.add_6/Add", "PartitionedCall/model/tf.math.sigmoid_5/Sigmoid"], "attr": {"T": {"type": "DT_FLOAT"}}}, {"name": "PartitionedCall/model/tf.compat.v1.pad_2/Pad", "op": "Pad", "input": ["PartitionedCall/model/tf.math.multiply_19/Mul", "3907"], "attr": {"T": {"type": "DT_FLOAT"}, "Tpaddings": {"type": "DT_INT32"}}}, {"name": "PartitionedCall/model/tf.math.add_7/Add", "op": "_FusedConv2D", "input": ["PartitionedCall/model/tf.compat.v1.pad_2/Pad", "3909", "3911"], "device": "/device:CPU:0", "attr": {"filter_format": {"s": "SFdJTw=="}, "T": {"type": "DT_FLOAT"}, "padding": {"s": "VkFMSUQ="}, "num_host_args": {"i": "0"}, "leakyrelu_alpha": {"f": 0.2}, "strides": {"list": {"i": ["1", "2", "2", "1"]}}, "TArgs": {"list": {"type": ["DT_FLOAT"]}}, "data_format": {"s": "TkhXQw=="}, "dilations": {"list": {"i": ["1", "1", "1", "1"]}}, "explicit_paddings": {"list": {}}, "fused_ops": {"list": {"s": ["Qmlhc0FkZA=="]}}, "use_cudnn_on_gpu": {"b": true}, "epsilon": {"f": 0.0}, "num_args": {"i": "1"}}}, {"name": "PartitionedCall/model/tf.math.sigmoid_6/Sigmoid", "op": "Sigmoid", "input": ["PartitionedCall/model/tf.math.add_7/Add"], "attr": {"T": {"type": "DT_FLOAT"}}}, {"name": "PartitionedCall/model/tf.math.multiply_22/Mul", "op": "Mul", "input": ["PartitionedCall/model/tf.math.add_7/Add", "PartitionedCall/model/tf.math.sigmoid_6/Sigmoid"], "attr": {"T": {"type": "DT_FLOAT"}}}, {"name": "PartitionedCall/model/tf.math.add_8/Add", "op": "_FusedConv2D", "input": ["PartitionedCall/model/tf.math.multiply_22/Mul", "3913", "3915"], "device": "/device:CPU:0", "attr": {"dilations": {"list": {"i": ["1", "1", "1", "1"]}}, "num_args": {"i": "1"}, "filter_format": {"s": "SFdJTw=="}, "explicit_paddings": {"list": {}}, "use_cudnn_on_gpu": {"b": true}, "strides": {"list": {"i": ["1", "1", "1", "1"]}}, "leakyrelu_alpha": {"f": 0.2}, "data_format": {"s": "TkhXQw=="}, "epsilon": {"f": 0.0}, "num_host_args": {"i": "0"}, "TArgs": {"list": {"type": ["DT_FLOAT"]}}, "padding": {"s": "U0FNRQ=="}, "fused_ops": {"list": {"s": ["Qmlhc0FkZA=="]}}, "T": {"type": "DT_FLOAT"}}}, {"name": "PartitionedCall/model/tf.math.sigmoid_7/Sigmoid", "op": "Sigmoid", "input": ["PartitionedCall/model/tf.math.add_8/Add"], "attr": {"T": {"type": "DT_FLOAT"}}}, {"name": "PartitionedCall/model/tf.math.multiply_25/Mul", "op": "Mul", "input": ["PartitionedCall/model/tf.math.add_8/Add", "PartitionedCall/model/tf.math.sigmoid_7/Sigmoid"], "attr": {"T": {"type": "DT_FLOAT"}}}, {"name": "PartitionedCall/model/tf.strided_slice_2/StridedSlice", "op": "StridedSlice", "input": ["PartitionedCall/model/tf.math.multiply_25/Mul", "3937", "3939", "PartitionedCall/model/tf.strided_slice_2/ones_like"], "attr": {"T": {"type": "DT_FLOAT"}, "ellipsis_mask": {"i": "0"}, "end_mask": {"i": "7"}, "new_axis_mask": {"i": "0"}, "begin_mask": {"i": "15"}, "shrink_axis_mask": {"i": "0"}, "Index": {"type": "DT_INT64"}}}, {"name": "PartitionedCall/model/tf.strided_slice_3/StridedSlice", "op": "StridedSlice", "input": ["PartitionedCall/model/tf.math.multiply_25/Mul", "3917", "3919", "PartitionedCall/model/tf.strided_slice_3/ones_like"], "attr": {"new_axis_mask": {"i": "0"}, "ellipsis_mask": {"i": "0"}, "shrink_axis_mask": {"i": "0"}, "end_mask": {"i": "7"}, "T": {"type": "DT_FLOAT"}, "Index": {"type": "DT_INT64"}, "begin_mask": {"i": "7"}}}, {"name": "PartitionedCall/model/tf.math.add_9/Add", "op": "_FusedConv2D", "input": ["PartitionedCall/model/tf.strided_slice_3/StridedSlice", "3921", "3923"], "device": "/device:CPU:0", "attr": {"explicit_paddings": {"list": {}}, "data_format": {"s": "TkhXQw=="}, "TArgs": {"list": {"type": ["DT_FLOAT"]}}, "strides": {"list": {"i": ["1", "1", "1", "1"]}}, "T": {"type": "DT_FLOAT"}, "leakyrelu_alpha": {"f": 0.2}, "epsilon": {"f": 0.0}, "dilations": {"list": {"i": ["1", "1", "1", "1"]}}, "num_args": {"i": "1"}, "num_host_args": {"i": "0"}, "padding": {"s": "U0FNRQ=="}, "filter_format": {"s": "SFdJTw=="}, "fused_ops": {"list": {"s": ["Qmlhc0FkZA=="]}}, "use_cudnn_on_gpu": {"b": true}}}, {"name": "PartitionedCall/model/tf.math.sigmoid_8/Sigmoid", "op": "Sigmoid", "input": ["PartitionedCall/model/tf.math.add_9/Add"], "attr": {"T": {"type": "DT_FLOAT"}}}, {"name": "PartitionedCall/model/tf.math.multiply_28/Mul", "op": "Mul", "input": ["PartitionedCall/model/tf.math.add_9/Add", "PartitionedCall/model/tf.math.sigmoid_8/Sigmoid"], "attr": {"T": {"type": "DT_FLOAT"}}}, {"name": "PartitionedCall/model/tf.math.add_10/Add", "op": "_FusedConv2D", "input": ["PartitionedCall/model/tf.math.multiply_28/Mul", "3925", "3927"], "device": "/device:CPU:0", "attr": {"TArgs": {"list": {"type": ["DT_FLOAT"]}}, "num_args": {"i": "1"}, "leakyrelu_alpha": {"f": 0.2}, "dilations": {"list": {"i": ["1", "1", "1", "1"]}}, "epsilon": {"f": 0.0}, "explicit_paddings": {"list": {}}, "padding": {"s": "U0FNRQ=="}, "T": {"type": "DT_FLOAT"}, "fused_ops": {"list": {"s": ["Qmlhc0FkZA=="]}}, "data_format": {"s": "TkhXQw=="}, "filter_format": {"s": "SFdJTw=="}, "strides": {"list": {"i": ["1", "1", "1", "1"]}}, "num_host_args": {"i": "0"}, "use_cudnn_on_gpu": {"b": true}}}, {"name": "PartitionedCall/model/tf.math.sigmoid_9/Sigmoid", "op": "Sigmoid", "input": ["PartitionedCall/model/tf.math.add_10/Add"], "attr": {"T": {"type": "DT_FLOAT"}}}, {"name": "PartitionedCall/model/tf.math.multiply_31/Mul", "op": "Mul", "input": ["PartitionedCall/model/tf.math.add_10/Add", "PartitionedCall/model/tf.math.sigmoid_9/Sigmoid"], "attr": {"T": {"type": "DT_FLOAT"}}}, {"name": "PartitionedCall/model/tf.math.add_11/Add", "op": "AddV2", "input": ["PartitionedCall/model/tf.strided_slice_3/StridedSlice", "PartitionedCall/model/tf.math.multiply_31/Mul"], "attr": {"T": {"type": "DT_FLOAT"}}}, {"name": "PartitionedCall/model/tf.math.add_12/Add", "op": "_FusedConv2D", "input": ["PartitionedCall/model/tf.math.add_11/Add", "3929", "3931"], "device": "/device:CPU:0", "attr": {"explicit_paddings": {"list": {}}, "filter_format": {"s": "SFdJTw=="}, "padding": {"s": "U0FNRQ=="}, "fused_ops": {"list": {"s": ["Qmlhc0FkZA=="]}}, "use_cudnn_on_gpu": {"b": true}, "data_format": {"s": "TkhXQw=="}, "epsilon": {"f": 0.0}, "leakyrelu_alpha": {"f": 0.2}, "strides": {"list": {"i": ["1", "1", "1", "1"]}}, "TArgs": {"list": {"type": ["DT_FLOAT"]}}, "num_host_args": {"i": "0"}, "num_args": {"i": "1"}, "dilations": {"list": {"i": ["1", "1", "1", "1"]}}, "T": {"type": "DT_FLOAT"}}}, {"name": "PartitionedCall/model/tf.math.sigmoid_10/Sigmoid", "op": "Sigmoid", "input": ["PartitionedCall/model/tf.math.add_12/Add"], "attr": {"T": {"type": "DT_FLOAT"}}}, {"name": "PartitionedCall/model/tf.math.multiply_36/Mul", "op": "Mul", "input": ["PartitionedCall/model/tf.math.add_12/Add", "PartitionedCall/model/tf.math.sigmoid_10/Sigmoid"], "attr": {"T": {"type": "DT_FLOAT"}}}, {"name": "PartitionedCall/model/tf.math.add_13/Add", "op": "_FusedConv2D", "input": ["PartitionedCall/model/tf.math.multiply_36/Mul", "3933", "3935"], "device": "/device:CPU:0", "attr": {"data_format": {"s": "TkhXQw=="}, "use_cudnn_on_gpu": {"b": true}, "explicit_paddings": {"list": {}}, "epsilon": {"f": 0.0}, "padding": {"s": "U0FNRQ=="}, "num_host_args": {"i": "0"}, "filter_format": {"s": "SFdJTw=="}, "leakyrelu_alpha": {"f": 0.2}, "fused_ops": {"list": {"s": ["Qmlhc0FkZA=="]}}, "dilations": {"list": {"i": ["1", "1", "1", "1"]}}, "strides": {"list": {"i": ["1", "1", "1", "1"]}}, "T": {"type": "DT_FLOAT"}, "num_args": {"i": "1"}, "TArgs": {"list": {"type": ["DT_FLOAT"]}}}}, {"name": "PartitionedCall/model/tf.math.sigmoid_11/Sigmoid", "op": "Sigmoid", "input": ["PartitionedCall/model/tf.math.add_13/Add"], "attr": {"T": {"type": "DT_FLOAT"}}}, {"name": "PartitionedCall/model/tf.math.multiply_39/Mul", "op": "Mul", "input": ["PartitionedCall/model/tf.math.add_13/Add", "PartitionedCall/model/tf.math.sigmoid_11/Sigmoid"], "attr": {"T": {"type": "DT_FLOAT"}}}, {"name": "PartitionedCall/model/tf.math.add_14/Add", "op": "AddV2", "input": ["PartitionedCall/model/tf.math.add_11/Add", "PartitionedCall/model/tf.math.multiply_39/Mul"], "attr": {"T": {"type": "DT_FLOAT"}}}, {"name": "PartitionedCall/model/tf.concat_1/concat", "op": "ConcatV2", "input": ["PartitionedCall/model/tf.strided_slice_2/StridedSlice", "PartitionedCall/model/tf.strided_slice_3/StridedSlice", "PartitionedCall/model/tf.math.add_11/Add", "PartitionedCall/model/tf.math.add_14/Add", "PartitionedCall/model/tf.concat_1/concat/axis"], "attr": {"T": {"type": "DT_FLOAT"}, "Tidx": {"type": "DT_INT32"}, "N": {"i": "4"}}}, {"name": "PartitionedCall/model/tf.math.add_15/Add", "op": "_FusedConv2D", "input": ["PartitionedCall/model/tf.concat_1/concat", "3941", "3943"], "device": "/device:CPU:0", "attr": {"filter_format": {"s": "SFdJTw=="}, "data_format": {"s": "TkhXQw=="}, "strides": {"list": {"i": ["1", "1", "1", "1"]}}, "fused_ops": {"list": {"s": ["Qmlhc0FkZA=="]}}, "dilations": {"list": {"i": ["1", "1", "1", "1"]}}, "padding": {"s": "U0FNRQ=="}, "num_host_args": {"i": "0"}, "TArgs": {"list": {"type": ["DT_FLOAT"]}}, "leakyrelu_alpha": {"f": 0.2}, "T": {"type": "DT_FLOAT"}, "epsilon": {"f": 0.0}, "num_args": {"i": "1"}, "use_cudnn_on_gpu": {"b": true}, "explicit_paddings": {"list": {}}}}, {"name": "PartitionedCall/model/tf.math.sigmoid_12/Sigmoid", "op": "Sigmoid", "input": ["PartitionedCall/model/tf.math.add_15/Add"], "attr": {"T": {"type": "DT_FLOAT"}}}, {"name": "PartitionedCall/model/tf.math.multiply_44/Mul", "op": "Mul", "input": ["PartitionedCall/model/tf.math.add_15/Add", "PartitionedCall/model/tf.math.sigmoid_12/Sigmoid"], "attr": {"T": {"type": "DT_FLOAT"}}}, {"name": "PartitionedCall/model/tf.compat.v1.pad_3/Pad", "op": "Pad", "input": ["PartitionedCall/model/tf.math.multiply_44/Mul", "3945"], "attr": {"T": {"type": "DT_FLOAT"}, "Tpaddings": {"type": "DT_INT32"}}}, {"name": "PartitionedCall/model/tf.math.add_16/Add", "op": "_FusedConv2D", "input": ["PartitionedCall/model/tf.compat.v1.pad_3/Pad", "3947", "3949"], "device": "/device:CPU:0", "attr": {"strides": {"list": {"i": ["1", "2", "2", "1"]}}, "fused_ops": {"list": {"s": ["Qmlhc0FkZA=="]}}, "padding": {"s": "VkFMSUQ="}, "num_args": {"i": "1"}, "leakyrelu_alpha": {"f": 0.2}, "use_cudnn_on_gpu": {"b": true}, "num_host_args": {"i": "0"}, "dilations": {"list": {"i": ["1", "1", "1", "1"]}}, "epsilon": {"f": 0.0}, "TArgs": {"list": {"type": ["DT_FLOAT"]}}, "explicit_paddings": {"list": {}}, "T": {"type": "DT_FLOAT"}, "filter_format": {"s": "SFdJTw=="}, "data_format": {"s": "TkhXQw=="}}}, {"name": "PartitionedCall/model/tf.math.sigmoid_13/Sigmoid", "op": "Sigmoid", "input": ["PartitionedCall/model/tf.math.add_16/Add"], "attr": {"T": {"type": "DT_FLOAT"}}}, {"name": "PartitionedCall/model/tf.math.multiply_47/Mul", "op": "Mul", "input": ["PartitionedCall/model/tf.math.add_16/Add", "PartitionedCall/model/tf.math.sigmoid_13/Sigmoid"], "attr": {"T": {"type": "DT_FLOAT"}}}, {"name": "PartitionedCall/model/tf.math.add_17/Add", "op": "_FusedConv2D", "input": ["PartitionedCall/model/tf.math.multiply_47/Mul", "3951", "3953"], "device": "/device:CPU:0", "attr": {"padding": {"s": "U0FNRQ=="}, "T": {"type": "DT_FLOAT"}, "epsilon": {"f": 0.0}, "strides": {"list": {"i": ["1", "1", "1", "1"]}}, "num_args": {"i": "1"}, "num_host_args": {"i": "0"}, "fused_ops": {"list": {"s": ["Qmlhc0FkZA=="]}}, "data_format": {"s": "TkhXQw=="}, "filter_format": {"s": "SFdJTw=="}, "TArgs": {"list": {"type": ["DT_FLOAT"]}}, "explicit_paddings": {"list": {}}, "leakyrelu_alpha": {"f": 0.2}, "use_cudnn_on_gpu": {"b": true}, "dilations": {"list": {"i": ["1", "1", "1", "1"]}}}}, {"name": "PartitionedCall/model/tf.math.sigmoid_14/Sigmoid", "op": "Sigmoid", "input": ["PartitionedCall/model/tf.math.add_17/Add"], "attr": {"T": {"type": "DT_FLOAT"}}}, {"name": "PartitionedCall/model/tf.math.multiply_50/Mul", "op": "Mul", "input": ["PartitionedCall/model/tf.math.add_17/Add", "PartitionedCall/model/tf.math.sigmoid_14/Sigmoid"], "attr": {"T": {"type": "DT_FLOAT"}}}, {"name": "PartitionedCall/model/tf.strided_slice_4/StridedSlice", "op": "StridedSlice", "input": ["PartitionedCall/model/tf.math.multiply_50/Mul", "3975", "3977", "PartitionedCall/model/tf.strided_slice_4/ones_like"], "attr": {"T": {"type": "DT_FLOAT"}, "ellipsis_mask": {"i": "0"}, "begin_mask": {"i": "15"}, "end_mask": {"i": "7"}, "Index": {"type": "DT_INT64"}, "new_axis_mask": {"i": "0"}, "shrink_axis_mask": {"i": "0"}}}, {"name": "PartitionedCall/model/tf.strided_slice_5/StridedSlice", "op": "StridedSlice", "input": ["PartitionedCall/model/tf.math.multiply_50/Mul", "3955", "3957", "PartitionedCall/model/tf.strided_slice_5/ones_like"], "attr": {"T": {"type": "DT_FLOAT"}, "shrink_axis_mask": {"i": "0"}, "new_axis_mask": {"i": "0"}, "ellipsis_mask": {"i": "0"}, "end_mask": {"i": "7"}, "Index": {"type": "DT_INT64"}, "begin_mask": {"i": "7"}}}, {"name": "PartitionedCall/model/tf.math.add_18/Add", "op": "_FusedConv2D", "input": ["PartitionedCall/model/tf.strided_slice_5/StridedSlice", "3959", "3961"], "device": "/device:CPU:0", "attr": {"strides": {"list": {"i": ["1", "1", "1", "1"]}}, "use_cudnn_on_gpu": {"b": true}, "explicit_paddings": {"list": {}}, "leakyrelu_alpha": {"f": 0.2}, "fused_ops": {"list": {"s": ["Qmlhc0FkZA=="]}}, "data_format": {"s": "TkhXQw=="}, "epsilon": {"f": 0.0}, "num_args": {"i": "1"}, "padding": {"s": "U0FNRQ=="}, "dilations": {"list": {"i": ["1", "1", "1", "1"]}}, "TArgs": {"list": {"type": ["DT_FLOAT"]}}, "T": {"type": "DT_FLOAT"}, "filter_format": {"s": "SFdJTw=="}, "num_host_args": {"i": "0"}}}, {"name": "PartitionedCall/model/tf.math.sigmoid_15/Sigmoid", "op": "Sigmoid", "input": ["PartitionedCall/model/tf.math.add_18/Add"], "attr": {"T": {"type": "DT_FLOAT"}}}, {"name": "PartitionedCall/model/tf.math.multiply_53/Mul", "op": "Mul", "input": ["PartitionedCall/model/tf.math.add_18/Add", "PartitionedCall/model/tf.math.sigmoid_15/Sigmoid"], "attr": {"T": {"type": "DT_FLOAT"}}}, {"name": "PartitionedCall/model/tf.math.add_19/Add", "op": "_FusedConv2D", "input": ["PartitionedCall/model/tf.math.multiply_53/Mul", "3963", "3965"], "device": "/device:CPU:0", "attr": {"filter_format": {"s": "SFdJTw=="}, "fused_ops": {"list": {"s": ["Qmlhc0FkZA=="]}}, "num_args": {"i": "1"}, "padding": {"s": "U0FNRQ=="}, "T": {"type": "DT_FLOAT"}, "epsilon": {"f": 0.0}, "dilations": {"list": {"i": ["1", "1", "1", "1"]}}, "use_cudnn_on_gpu": {"b": true}, "leakyrelu_alpha": {"f": 0.2}, "data_format": {"s": "TkhXQw=="}, "strides": {"list": {"i": ["1", "1", "1", "1"]}}, "num_host_args": {"i": "0"}, "explicit_paddings": {"list": {}}, "TArgs": {"list": {"type": ["DT_FLOAT"]}}}}, {"name": "PartitionedCall/model/tf.math.sigmoid_16/Sigmoid", "op": "Sigmoid", "input": ["PartitionedCall/model/tf.math.add_19/Add"], "attr": {"T": {"type": "DT_FLOAT"}}}, {"name": "PartitionedCall/model/tf.math.multiply_56/Mul", "op": "Mul", "input": ["PartitionedCall/model/tf.math.add_19/Add", "PartitionedCall/model/tf.math.sigmoid_16/Sigmoid"], "attr": {"T": {"type": "DT_FLOAT"}}}, {"name": "PartitionedCall/model/tf.math.add_20/Add", "op": "AddV2", "input": ["PartitionedCall/model/tf.strided_slice_5/StridedSlice", "PartitionedCall/model/tf.math.multiply_56/Mul"], "attr": {"T": {"type": "DT_FLOAT"}}}, {"name": "PartitionedCall/model/tf.math.add_21/Add", "op": "_FusedConv2D", "input": ["PartitionedCall/model/tf.math.add_20/Add", "3967", "3969"], "device": "/device:CPU:0", "attr": {"num_host_args": {"i": "0"}, "leakyrelu_alpha": {"f": 0.2}, "fused_ops": {"list": {"s": ["Qmlhc0FkZA=="]}}, "use_cudnn_on_gpu": {"b": true}, "epsilon": {"f": 0.0}, "explicit_paddings": {"list": {}}, "filter_format": {"s": "SFdJTw=="}, "data_format": {"s": "TkhXQw=="}, "T": {"type": "DT_FLOAT"}, "padding": {"s": "U0FNRQ=="}, "num_args": {"i": "1"}, "TArgs": {"list": {"type": ["DT_FLOAT"]}}, "dilations": {"list": {"i": ["1", "1", "1", "1"]}}, "strides": {"list": {"i": ["1", "1", "1", "1"]}}}}, {"name": "PartitionedCall/model/tf.math.sigmoid_17/Sigmoid", "op": "Sigmoid", "input": ["PartitionedCall/model/tf.math.add_21/Add"], "attr": {"T": {"type": "DT_FLOAT"}}}, {"name": "PartitionedCall/model/tf.math.multiply_61/Mul", "op": "Mul", "input": ["PartitionedCall/model/tf.math.add_21/Add", "PartitionedCall/model/tf.math.sigmoid_17/Sigmoid"], "attr": {"T": {"type": "DT_FLOAT"}}}, {"name": "PartitionedCall/model/tf.math.add_22/Add", "op": "_FusedConv2D", "input": ["PartitionedCall/model/tf.math.multiply_61/Mul", "3971", "3973"], "device": "/device:CPU:0", "attr": {"TArgs": {"list": {"type": ["DT_FLOAT"]}}, "filter_format": {"s": "SFdJTw=="}, "num_args": {"i": "1"}, "padding": {"s": "U0FNRQ=="}, "fused_ops": {"list": {"s": ["Qmlhc0FkZA=="]}}, "strides": {"list": {"i": ["1", "1", "1", "1"]}}, "num_host_args": {"i": "0"}, "epsilon": {"f": 0.0}, "T": {"type": "DT_FLOAT"}, "use_cudnn_on_gpu": {"b": true}, "explicit_paddings": {"list": {}}, "dilations": {"list": {"i": ["1", "1", "1", "1"]}}, "leakyrelu_alpha": {"f": 0.2}, "data_format": {"s": "TkhXQw=="}}}, {"name": "PartitionedCall/model/tf.math.sigmoid_18/Sigmoid", "op": "Sigmoid", "input": ["PartitionedCall/model/tf.math.add_22/Add"], "attr": {"T": {"type": "DT_FLOAT"}}}, {"name": "PartitionedCall/model/tf.math.multiply_64/Mul", "op": "Mul", "input": ["PartitionedCall/model/tf.math.add_22/Add", "PartitionedCall/model/tf.math.sigmoid_18/Sigmoid"], "attr": {"T": {"type": "DT_FLOAT"}}}, {"name": "PartitionedCall/model/tf.math.add_23/Add", "op": "AddV2", "input": ["PartitionedCall/model/tf.math.add_20/Add", "PartitionedCall/model/tf.math.multiply_64/Mul"], "attr": {"T": {"type": "DT_FLOAT"}}}, {"name": "PartitionedCall/model/tf.concat_2/concat", "op": "ConcatV2", "input": ["PartitionedCall/model/tf.strided_slice_4/StridedSlice", "PartitionedCall/model/tf.strided_slice_5/StridedSlice", "PartitionedCall/model/tf.math.add_20/Add", "PartitionedCall/model/tf.math.add_23/Add", "PartitionedCall/model/tf.concat_2/concat/axis"], "attr": {"Tidx": {"type": "DT_INT32"}, "T": {"type": "DT_FLOAT"}, "N": {"i": "4"}}}, {"name": "PartitionedCall/model/tf.math.add_24/Add", "op": "_FusedConv2D", "input": ["PartitionedCall/model/tf.concat_2/concat", "3979", "3981"], "device": "/device:CPU:0", "attr": {"strides": {"list": {"i": ["1", "1", "1", "1"]}}, "dilations": {"list": {"i": ["1", "1", "1", "1"]}}, "explicit_paddings": {"list": {}}, "data_format": {"s": "TkhXQw=="}, "T": {"type": "DT_FLOAT"}, "epsilon": {"f": 0.0}, "TArgs": {"list": {"type": ["DT_FLOAT"]}}, "padding": {"s": "U0FNRQ=="}, "fused_ops": {"list": {"s": ["Qmlhc0FkZA=="]}}, "num_args": {"i": "1"}, "leakyrelu_alpha": {"f": 0.2}, "filter_format": {"s": "SFdJTw=="}, "use_cudnn_on_gpu": {"b": true}, "num_host_args": {"i": "0"}}}, {"name": "PartitionedCall/model/tf.math.sigmoid_19/Sigmoid", "op": "Sigmoid", "input": ["PartitionedCall/model/tf.math.add_24/Add"], "attr": {"T": {"type": "DT_FLOAT"}}}, {"name": "PartitionedCall/model/tf.math.multiply_69/Mul", "op": "Mul", "input": ["PartitionedCall/model/tf.math.add_24/Add", "PartitionedCall/model/tf.math.sigmoid_19/Sigmoid"], "attr": {"T": {"type": "DT_FLOAT"}}}, {"name": "PartitionedCall/model/tf.compat.v1.pad_4/Pad", "op": "Pad", "input": ["PartitionedCall/model/tf.math.multiply_69/Mul", "3983"], "attr": {"T": {"type": "DT_FLOAT"}, "Tpaddings": {"type": "DT_INT32"}}}, {"name": "PartitionedCall/model/tf.math.add_25/Add", "op": "_FusedConv2D", "input": ["PartitionedCall/model/tf.compat.v1.pad_4/Pad", "3985", "3987"], "device": "/device:CPU:0", "attr": {"strides": {"list": {"i": ["1", "2", "2", "1"]}}, "epsilon": {"f": 0.0}, "explicit_paddings": {"list": {}}, "fused_ops": {"list": {"s": ["Qmlhc0FkZA=="]}}, "padding": {"s": "VkFMSUQ="}, "T": {"type": "DT_FLOAT"}, "use_cudnn_on_gpu": {"b": true}, "leakyrelu_alpha": {"f": 0.2}, "filter_format": {"s": "SFdJTw=="}, "TArgs": {"list": {"type": ["DT_FLOAT"]}}, "dilations": {"list": {"i": ["1", "1", "1", "1"]}}, "num_host_args": {"i": "0"}, "num_args": {"i": "1"}, "data_format": {"s": "TkhXQw=="}}}, {"name": "PartitionedCall/model/tf.math.sigmoid_20/Sigmoid", "op": "Sigmoid", "input": ["PartitionedCall/model/tf.math.add_25/Add"], "attr": {"T": {"type": "DT_FLOAT"}}}, {"name": "PartitionedCall/model/tf.math.multiply_72/Mul", "op": "Mul", "input": ["PartitionedCall/model/tf.math.add_25/Add", "PartitionedCall/model/tf.math.sigmoid_20/Sigmoid"], "attr": {"T": {"type": "DT_FLOAT"}}}, {"name": "PartitionedCall/model/tf.math.add_26/Add", "op": "_FusedConv2D", "input": ["PartitionedCall/model/tf.math.multiply_72/Mul", "3989", "3991"], "device": "/device:CPU:0", "attr": {"use_cudnn_on_gpu": {"b": true}, "leakyrelu_alpha": {"f": 0.2}, "strides": {"list": {"i": ["1", "1", "1", "1"]}}, "dilations": {"list": {"i": ["1", "1", "1", "1"]}}, "T": {"type": "DT_FLOAT"}, "TArgs": {"list": {"type": ["DT_FLOAT"]}}, "num_host_args": {"i": "0"}, "epsilon": {"f": 0.0}, "filter_format": {"s": "SFdJTw=="}, "explicit_paddings": {"list": {}}, "num_args": {"i": "1"}, "data_format": {"s": "TkhXQw=="}, "fused_ops": {"list": {"s": ["Qmlhc0FkZA=="]}}, "padding": {"s": "U0FNRQ=="}}}, {"name": "PartitionedCall/model/tf.math.sigmoid_21/Sigmoid", "op": "Sigmoid", "input": ["PartitionedCall/model/tf.math.add_26/Add"], "attr": {"T": {"type": "DT_FLOAT"}}}, {"name": "PartitionedCall/model/tf.math.multiply_75/Mul", "op": "Mul", "input": ["PartitionedCall/model/tf.math.add_26/Add", "PartitionedCall/model/tf.math.sigmoid_21/Sigmoid"], "attr": {"T": {"type": "DT_FLOAT"}}}, {"name": "PartitionedCall/model/tf.strided_slice_6/StridedSlice", "op": "StridedSlice", "input": ["PartitionedCall/model/tf.math.multiply_75/Mul", "4005", "4007", "PartitionedCall/model/tf.strided_slice_6/ones_like"], "attr": {"end_mask": {"i": "7"}, "Index": {"type": "DT_INT64"}, "begin_mask": {"i": "15"}, "ellipsis_mask": {"i": "0"}, "new_axis_mask": {"i": "0"}, "T": {"type": "DT_FLOAT"}, "shrink_axis_mask": {"i": "0"}}}, {"name": "PartitionedCall/model/tf.strided_slice_7/StridedSlice", "op": "StridedSlice", "input": ["PartitionedCall/model/tf.math.multiply_75/Mul", "3993", "3995", "PartitionedCall/model/tf.strided_slice_7/ones_like"], "attr": {"end_mask": {"i": "7"}, "shrink_axis_mask": {"i": "0"}, "begin_mask": {"i": "7"}, "ellipsis_mask": {"i": "0"}, "T": {"type": "DT_FLOAT"}, "new_axis_mask": {"i": "0"}, "Index": {"type": "DT_INT64"}}}, {"name": "PartitionedCall/model/tf.math.add_27/Add", "op": "_FusedConv2D", "input": ["PartitionedCall/model/tf.strided_slice_7/StridedSlice", "3997", "3999"], "device": "/device:CPU:0", "attr": {"leakyrelu_alpha": {"f": 0.2}, "strides": {"list": {"i": ["1", "1", "1", "1"]}}, "epsilon": {"f": 0.0}, "fused_ops": {"list": {"s": ["Qmlhc0FkZA=="]}}, "num_args": {"i": "1"}, "num_host_args": {"i": "0"}, "TArgs": {"list": {"type": ["DT_FLOAT"]}}, "T": {"type": "DT_FLOAT"}, "filter_format": {"s": "SFdJTw=="}, "data_format": {"s": "TkhXQw=="}, "dilations": {"list": {"i": ["1", "1", "1", "1"]}}, "explicit_paddings": {"list": {}}, "padding": {"s": "U0FNRQ=="}, "use_cudnn_on_gpu": {"b": true}}}, {"name": "PartitionedCall/model/tf.math.sigmoid_22/Sigmoid", "op": "Sigmoid", "input": ["PartitionedCall/model/tf.math.add_27/Add"], "attr": {"T": {"type": "DT_FLOAT"}}}, {"name": "PartitionedCall/model/tf.math.multiply_78/Mul", "op": "Mul", "input": ["PartitionedCall/model/tf.math.add_27/Add", "PartitionedCall/model/tf.math.sigmoid_22/Sigmoid"], "attr": {"T": {"type": "DT_FLOAT"}}}, {"name": "PartitionedCall/model/tf.math.add_28/Add", "op": "_FusedConv2D", "input": ["PartitionedCall/model/tf.math.multiply_78/Mul", "4001", "4003"], "device": "/device:CPU:0", "attr": {"use_cudnn_on_gpu": {"b": true}, "num_args": {"i": "1"}, "explicit_paddings": {"list": {}}, "dilations": {"list": {"i": ["1", "1", "1", "1"]}}, "TArgs": {"list": {"type": ["DT_FLOAT"]}}, "epsilon": {"f": 0.0}, "T": {"type": "DT_FLOAT"}, "filter_format": {"s": "SFdJTw=="}, "fused_ops": {"list": {"s": ["Qmlhc0FkZA=="]}}, "strides": {"list": {"i": ["1", "1", "1", "1"]}}, "padding": {"s": "U0FNRQ=="}, "num_host_args": {"i": "0"}, "data_format": {"s": "TkhXQw=="}, "leakyrelu_alpha": {"f": 0.2}}}, {"name": "PartitionedCall/model/tf.math.sigmoid_23/Sigmoid", "op": "Sigmoid", "input": ["PartitionedCall/model/tf.math.add_28/Add"], "attr": {"T": {"type": "DT_FLOAT"}}}, {"name": "PartitionedCall/model/tf.math.multiply_81/Mul", "op": "Mul", "input": ["PartitionedCall/model/tf.math.add_28/Add", "PartitionedCall/model/tf.math.sigmoid_23/Sigmoid"], "attr": {"T": {"type": "DT_FLOAT"}}}, {"name": "PartitionedCall/model/tf.math.add_29/Add", "op": "AddV2", "input": ["PartitionedCall/model/tf.strided_slice_7/StridedSlice", "PartitionedCall/model/tf.math.multiply_81/Mul"], "attr": {"T": {"type": "DT_FLOAT"}}}, {"name": "PartitionedCall/model/tf.concat_3/concat", "op": "ConcatV2", "input": ["PartitionedCall/model/tf.strided_slice_6/StridedSlice", "PartitionedCall/model/tf.strided_slice_7/StridedSlice", "PartitionedCall/model/tf.math.add_29/Add", "PartitionedCall/model/tf.concat_3/concat/axis"], "attr": {"N": {"i": "3"}, "Tidx": {"type": "DT_INT32"}, "T": {"type": "DT_FLOAT"}}}, {"name": "PartitionedCall/model/tf.math.add_30/Add", "op": "_FusedConv2D", "input": ["PartitionedCall/model/tf.concat_3/concat", "4009", "4011"], "device": "/device:CPU:0", "attr": {"fused_ops": {"list": {"s": ["Qmlhc0FkZA=="]}}, "dilations": {"list": {"i": ["1", "1", "1", "1"]}}, "T": {"type": "DT_FLOAT"}, "explicit_paddings": {"list": {}}, "num_args": {"i": "1"}, "leakyrelu_alpha": {"f": 0.2}, "data_format": {"s": "TkhXQw=="}, "padding": {"s": "U0FNRQ=="}, "filter_format": {"s": "SFdJTw=="}, "num_host_args": {"i": "0"}, "strides": {"list": {"i": ["1", "1", "1", "1"]}}, "epsilon": {"f": 0.0}, "TArgs": {"list": {"type": ["DT_FLOAT"]}}, "use_cudnn_on_gpu": {"b": true}}}, {"name": "PartitionedCall/model/tf.math.sigmoid_24/Sigmoid", "op": "Sigmoid", "input": ["PartitionedCall/model/tf.math.add_30/Add"], "attr": {"T": {"type": "DT_FLOAT"}}}, {"name": "PartitionedCall/model/tf.math.multiply_86/Mul", "op": "Mul", "input": ["PartitionedCall/model/tf.math.add_30/Add", "PartitionedCall/model/tf.math.sigmoid_24/Sigmoid"], "attr": {"T": {"type": "DT_FLOAT"}}}, {"name": "PartitionedCall/model/tf.math.add_31/Add", "op": "_FusedConv2D", "input": ["PartitionedCall/model/tf.math.multiply_86/Mul", "4013", "4015"], "device": "/device:CPU:0", "attr": {"fused_ops": {"list": {"s": ["Qmlhc0FkZA=="]}}, "use_cudnn_on_gpu": {"b": true}, "T": {"type": "DT_FLOAT"}, "num_host_args": {"i": "0"}, "filter_format": {"s": "SFdJTw=="}, "explicit_paddings": {"list": {}}, "epsilon": {"f": 0.0}, "TArgs": {"list": {"type": ["DT_FLOAT"]}}, "dilations": {"list": {"i": ["1", "1", "1", "1"]}}, "strides": {"list": {"i": ["1", "1", "1", "1"]}}, "padding": {"s": "U0FNRQ=="}, "data_format": {"s": "TkhXQw=="}, "leakyrelu_alpha": {"f": 0.2}, "num_args": {"i": "1"}}}, {"name": "PartitionedCall/model/tf.math.sigmoid_25/Sigmoid", "op": "Sigmoid", "input": ["PartitionedCall/model/tf.math.add_31/Add"], "attr": {"T": {"type": "DT_FLOAT"}}}, {"name": "PartitionedCall/model/tf.math.multiply_89/Mul", "op": "Mul", "input": ["PartitionedCall/model/tf.math.add_31/Add", "PartitionedCall/model/tf.math.sigmoid_25/Sigmoid"], "attr": {"T": {"type": "DT_FLOAT"}}}, {"name": "PartitionedCall/model/tf.compat.v1.nn.pool/max_pool", "op": "MaxPool", "input": ["PartitionedCall/model/tf.math.multiply_89/Mul"], "attr": {"ksize": {"list": {"i": ["1", "5", "5", "1"]}}, "data_format": {"s": "TkhXQw=="}, "strides": {"list": {"i": ["1", "1", "1", "1"]}}, "explicit_paddings": {"list": {}}, "padding": {"s": "U0FNRQ=="}, "T": {"type": "DT_FLOAT"}}}, {"name": "PartitionedCall/model/tf.compat.v1.nn.pool_1/max_pool", "op": "MaxPool", "input": ["PartitionedCall/model/tf.compat.v1.nn.pool/max_pool"], "attr": {"strides": {"list": {"i": ["1", "1", "1", "1"]}}, "padding": {"s": "U0FNRQ=="}, "data_format": {"s": "TkhXQw=="}, "T": {"type": "DT_FLOAT"}, "explicit_paddings": {"list": {}}, "ksize": {"list": {"i": ["1", "5", "5", "1"]}}}}, {"name": "PartitionedCall/model/tf.compat.v1.nn.pool_2/max_pool", "op": "MaxPool", "input": ["PartitionedCall/model/tf.compat.v1.nn.pool_1/max_pool"], "attr": {"explicit_paddings": {"list": {}}, "T": {"type": "DT_FLOAT"}, "padding": {"s": "U0FNRQ=="}, "strides": {"list": {"i": ["1", "1", "1", "1"]}}, "data_format": {"s": "TkhXQw=="}, "ksize": {"list": {"i": ["1", "5", "5", "1"]}}}}, {"name": "PartitionedCall/model/tf.concat_4/concat", "op": "ConcatV2", "input": ["PartitionedCall/model/tf.math.multiply_89/Mul", "PartitionedCall/model/tf.compat.v1.nn.pool/max_pool", "PartitionedCall/model/tf.compat.v1.nn.pool_1/max_pool", "PartitionedCall/model/tf.compat.v1.nn.pool_2/max_pool", "PartitionedCall/model/tf.concat_4/concat/axis"], "attr": {"N": {"i": "4"}, "T": {"type": "DT_FLOAT"}, "Tidx": {"type": "DT_INT32"}}}, {"name": "PartitionedCall/model/tf.math.add_32/Add", "op": "_FusedConv2D", "input": ["PartitionedCall/model/tf.concat_4/concat", "4017", "4019"], "device": "/device:CPU:0", "attr": {"fused_ops": {"list": {"s": ["Qmlhc0FkZA=="]}}, "filter_format": {"s": "SFdJTw=="}, "padding": {"s": "U0FNRQ=="}, "strides": {"list": {"i": ["1", "1", "1", "1"]}}, "TArgs": {"list": {"type": ["DT_FLOAT"]}}, "leakyrelu_alpha": {"f": 0.2}, "data_format": {"s": "TkhXQw=="}, "dilations": {"list": {"i": ["1", "1", "1", "1"]}}, "explicit_paddings": {"list": {}}, "use_cudnn_on_gpu": {"b": true}, "num_args": {"i": "1"}, "epsilon": {"f": 0.0}, "T": {"type": "DT_FLOAT"}, "num_host_args": {"i": "0"}}}, {"name": "PartitionedCall/model/tf.math.sigmoid_26/Sigmoid", "op": "Sigmoid", "input": ["PartitionedCall/model/tf.math.add_32/Add"], "attr": {"T": {"type": "DT_FLOAT"}}}, {"name": "PartitionedCall/model/tf.math.multiply_92/Mul", "op": "Mul", "input": ["PartitionedCall/model/tf.math.add_32/Add", "PartitionedCall/model/tf.math.sigmoid_26/Sigmoid"], "attr": {"T": {"type": "DT_FLOAT"}}}, {"name": "PartitionedCall/model/lambda//model.10/Resize", "op": "ResizeNearestNeighbor", "input": ["PartitionedCall/model/tf.math.multiply_92/Mul", "PartitionedCall/model/lambda//model.10/Resize/size"], "attr": {"T": {"type": "DT_FLOAT"}, "align_corners": {"b": false}, "half_pixel_centers": {"b": false}}}, {"name": "PartitionedCall/model/tf.concat_5/concat", "op": "ConcatV2", "input": ["PartitionedCall/model/lambda//model.10/Resize", "PartitionedCall/model/tf.math.multiply_69/Mul", "PartitionedCall/model/tf.concat_5/concat/axis"], "attr": {"T": {"type": "DT_FLOAT"}, "N": {"i": "2"}, "Tidx": {"type": "DT_INT32"}}}, {"name": "PartitionedCall/model/tf.math.add_33/Add", "op": "_FusedConv2D", "input": ["PartitionedCall/model/tf.concat_5/concat", "4021", "4023"], "device": "/device:CPU:0", "attr": {"padding": {"s": "U0FNRQ=="}, "fused_ops": {"list": {"s": ["Qmlhc0FkZA=="]}}, "data_format": {"s": "TkhXQw=="}, "dilations": {"list": {"i": ["1", "1", "1", "1"]}}, "explicit_paddings": {"list": {}}, "T": {"type": "DT_FLOAT"}, "epsilon": {"f": 0.0}, "filter_format": {"s": "SFdJTw=="}, "leakyrelu_alpha": {"f": 0.2}, "num_args": {"i": "1"}, "TArgs": {"list": {"type": ["DT_FLOAT"]}}, "strides": {"list": {"i": ["1", "1", "1", "1"]}}, "use_cudnn_on_gpu": {"b": true}, "num_host_args": {"i": "0"}}}, {"name": "PartitionedCall/model/tf.math.sigmoid_27/Sigmoid", "op": "Sigmoid", "input": ["PartitionedCall/model/tf.math.add_33/Add"], "attr": {"T": {"type": "DT_FLOAT"}}}, {"name": "PartitionedCall/model/tf.math.multiply_95/Mul", "op": "Mul", "input": ["PartitionedCall/model/tf.math.add_33/Add", "PartitionedCall/model/tf.math.sigmoid_27/Sigmoid"], "attr": {"T": {"type": "DT_FLOAT"}}}, {"name": "PartitionedCall/model/tf.strided_slice_8/StridedSlice", "op": "StridedSlice", "input": ["PartitionedCall/model/tf.math.multiply_95/Mul", "4037", "4039", "PartitionedCall/model/tf.strided_slice_8/ones_like"], "attr": {"begin_mask": {"i": "15"}, "Index": {"type": "DT_INT64"}, "T": {"type": "DT_FLOAT"}, "new_axis_mask": {"i": "0"}, "shrink_axis_mask": {"i": "0"}, "end_mask": {"i": "7"}, "ellipsis_mask": {"i": "0"}}}, {"name": "PartitionedCall/model/tf.strided_slice_9/StridedSlice", "op": "StridedSlice", "input": ["PartitionedCall/model/tf.math.multiply_95/Mul", "4025", "4027", "PartitionedCall/model/tf.strided_slice_9/ones_like"], "attr": {"ellipsis_mask": {"i": "0"}, "new_axis_mask": {"i": "0"}, "begin_mask": {"i": "7"}, "shrink_axis_mask": {"i": "0"}, "end_mask": {"i": "7"}, "T": {"type": "DT_FLOAT"}, "Index": {"type": "DT_INT64"}}}, {"name": "PartitionedCall/model/tf.math.add_34/Add", "op": "_FusedConv2D", "input": ["PartitionedCall/model/tf.strided_slice_9/StridedSlice", "4029", "4031"], "device": "/device:CPU:0", "attr": {"filter_format": {"s": "SFdJTw=="}, "num_args": {"i": "1"}, "leakyrelu_alpha": {"f": 0.2}, "T": {"type": "DT_FLOAT"}, "num_host_args": {"i": "0"}, "epsilon": {"f": 0.0}, "padding": {"s": "U0FNRQ=="}, "data_format": {"s": "TkhXQw=="}, "strides": {"list": {"i": ["1", "1", "1", "1"]}}, "dilations": {"list": {"i": ["1", "1", "1", "1"]}}, "TArgs": {"list": {"type": ["DT_FLOAT"]}}, "fused_ops": {"list": {"s": ["Qmlhc0FkZA=="]}}, "use_cudnn_on_gpu": {"b": true}, "explicit_paddings": {"list": {}}}}, {"name": "PartitionedCall/model/tf.math.sigmoid_28/Sigmoid", "op": "Sigmoid", "input": ["PartitionedCall/model/tf.math.add_34/Add"], "attr": {"T": {"type": "DT_FLOAT"}}}, {"name": "PartitionedCall/model/tf.math.multiply_98/Mul", "op": "Mul", "input": ["PartitionedCall/model/tf.math.add_34/Add", "PartitionedCall/model/tf.math.sigmoid_28/Sigmoid"], "attr": {"T": {"type": "DT_FLOAT"}}}, {"name": "PartitionedCall/model/tf.math.add_35/Add", "op": "_FusedConv2D", "input": ["PartitionedCall/model/tf.math.multiply_98/Mul", "4033", "4035"], "device": "/device:CPU:0", "attr": {"filter_format": {"s": "SFdJTw=="}, "T": {"type": "DT_FLOAT"}, "use_cudnn_on_gpu": {"b": true}, "padding": {"s": "U0FNRQ=="}, "num_args": {"i": "1"}, "leakyrelu_alpha": {"f": 0.2}, "data_format": {"s": "TkhXQw=="}, "fused_ops": {"list": {"s": ["Qmlhc0FkZA=="]}}, "num_host_args": {"i": "0"}, "dilations": {"list": {"i": ["1", "1", "1", "1"]}}, "TArgs": {"list": {"type": ["DT_FLOAT"]}}, "epsilon": {"f": 0.0}, "explicit_paddings": {"list": {}}, "strides": {"list": {"i": ["1", "1", "1", "1"]}}}}, {"name": "PartitionedCall/model/tf.math.sigmoid_29/Sigmoid", "op": "Sigmoid", "input": ["PartitionedCall/model/tf.math.add_35/Add"], "attr": {"T": {"type": "DT_FLOAT"}}}, {"name": "PartitionedCall/model/tf.math.multiply_101/Mul", "op": "Mul", "input": ["PartitionedCall/model/tf.math.add_35/Add", "PartitionedCall/model/tf.math.sigmoid_29/Sigmoid"], "attr": {"T": {"type": "DT_FLOAT"}}}, {"name": "PartitionedCall/model/tf.concat_6/concat", "op": "ConcatV2", "input": ["PartitionedCall/model/tf.strided_slice_8/StridedSlice", "PartitionedCall/model/tf.strided_slice_9/StridedSlice", "PartitionedCall/model/tf.math.multiply_101/Mul", "PartitionedCall/model/tf.concat_6/concat/axis"], "attr": {"Tidx": {"type": "DT_INT32"}, "N": {"i": "3"}, "T": {"type": "DT_FLOAT"}}}, {"name": "PartitionedCall/model/tf.math.add_36/Add", "op": "_FusedConv2D", "input": ["PartitionedCall/model/tf.concat_6/concat", "4041", "4043"], "device": "/device:CPU:0", "attr": {"num_args": {"i": "1"}, "fused_ops": {"list": {"s": ["Qmlhc0FkZA=="]}}, "leakyrelu_alpha": {"f": 0.2}, "filter_format": {"s": "SFdJTw=="}, "num_host_args": {"i": "0"}, "explicit_paddings": {"list": {}}, "epsilon": {"f": 0.0}, "padding": {"s": "U0FNRQ=="}, "TArgs": {"list": {"type": ["DT_FLOAT"]}}, "strides": {"list": {"i": ["1", "1", "1", "1"]}}, "T": {"type": "DT_FLOAT"}, "data_format": {"s": "TkhXQw=="}, "dilations": {"list": {"i": ["1", "1", "1", "1"]}}, "use_cudnn_on_gpu": {"b": true}}}, {"name": "PartitionedCall/model/tf.math.sigmoid_30/Sigmoid", "op": "Sigmoid", "input": ["PartitionedCall/model/tf.math.add_36/Add"], "attr": {"T": {"type": "DT_FLOAT"}}}, {"name": "PartitionedCall/model/tf.math.multiply_104/Mul", "op": "Mul", "input": ["PartitionedCall/model/tf.math.add_36/Add", "PartitionedCall/model/tf.math.sigmoid_30/Sigmoid"], "attr": {"T": {"type": "DT_FLOAT"}}}, {"name": "PartitionedCall/model/lambda_1//model.13/Resize", "op": "ResizeNearestNeighbor", "input": ["PartitionedCall/model/tf.math.multiply_104/Mul", "PartitionedCall/model/lambda_1//model.13/Resize/size"], "attr": {"half_pixel_centers": {"b": false}, "T": {"type": "DT_FLOAT"}, "align_corners": {"b": false}}}, {"name": "PartitionedCall/model/tf.concat_7/concat", "op": "ConcatV2", "input": ["PartitionedCall/model/lambda_1//model.13/Resize", "PartitionedCall/model/tf.math.multiply_44/Mul", "PartitionedCall/model/tf.concat_7/concat/axis"], "attr": {"N": {"i": "2"}, "Tidx": {"type": "DT_INT32"}, "T": {"type": "DT_FLOAT"}}}, {"name": "PartitionedCall/model/tf.math.add_37/Add", "op": "_FusedConv2D", "input": ["PartitionedCall/model/tf.concat_7/concat", "4045", "4047"], "device": "/device:CPU:0", "attr": {"T": {"type": "DT_FLOAT"}, "num_args": {"i": "1"}, "filter_format": {"s": "SFdJTw=="}, "padding": {"s": "U0FNRQ=="}, "use_cudnn_on_gpu": {"b": true}, "data_format": {"s": "TkhXQw=="}, "explicit_paddings": {"list": {}}, "strides": {"list": {"i": ["1", "1", "1", "1"]}}, "epsilon": {"f": 0.0}, "fused_ops": {"list": {"s": ["Qmlhc0FkZA=="]}}, "num_host_args": {"i": "0"}, "leakyrelu_alpha": {"f": 0.2}, "TArgs": {"list": {"type": ["DT_FLOAT"]}}, "dilations": {"list": {"i": ["1", "1", "1", "1"]}}}}, {"name": "PartitionedCall/model/tf.math.sigmoid_31/Sigmoid", "op": "Sigmoid", "input": ["PartitionedCall/model/tf.math.add_37/Add"], "attr": {"T": {"type": "DT_FLOAT"}}}, {"name": "PartitionedCall/model/tf.math.multiply_107/Mul", "op": "Mul", "input": ["PartitionedCall/model/tf.math.add_37/Add", "PartitionedCall/model/tf.math.sigmoid_31/Sigmoid"], "attr": {"T": {"type": "DT_FLOAT"}}}, {"name": "PartitionedCall/model/tf.strided_slice_10/StridedSlice", "op": "StridedSlice", "input": ["PartitionedCall/model/tf.math.multiply_107/Mul", "4061", "4063", "PartitionedCall/model/tf.strided_slice_10/ones_like"], "attr": {"begin_mask": {"i": "15"}, "new_axis_mask": {"i": "0"}, "T": {"type": "DT_FLOAT"}, "Index": {"type": "DT_INT64"}, "ellipsis_mask": {"i": "0"}, "end_mask": {"i": "7"}, "shrink_axis_mask": {"i": "0"}}}, {"name": "PartitionedCall/model/tf.strided_slice_11/StridedSlice", "op": "StridedSlice", "input": ["PartitionedCall/model/tf.math.multiply_107/Mul", "4049", "4051", "PartitionedCall/model/tf.strided_slice_11/ones_like"], "attr": {"new_axis_mask": {"i": "0"}, "shrink_axis_mask": {"i": "0"}, "Index": {"type": "DT_INT64"}, "ellipsis_mask": {"i": "0"}, "end_mask": {"i": "7"}, "begin_mask": {"i": "7"}, "T": {"type": "DT_FLOAT"}}}, {"name": "PartitionedCall/model/tf.math.add_38/Add", "op": "_FusedConv2D", "input": ["PartitionedCall/model/tf.strided_slice_11/StridedSlice", "4053", "4055"], "device": "/device:CPU:0", "attr": {"leakyrelu_alpha": {"f": 0.2}, "explicit_paddings": {"list": {}}, "filter_format": {"s": "SFdJTw=="}, "num_args": {"i": "1"}, "fused_ops": {"list": {"s": ["Qmlhc0FkZA=="]}}, "strides": {"list": {"i": ["1", "1", "1", "1"]}}, "epsilon": {"f": 0.0}, "num_host_args": {"i": "0"}, "padding": {"s": "U0FNRQ=="}, "TArgs": {"list": {"type": ["DT_FLOAT"]}}, "T": {"type": "DT_FLOAT"}, "dilations": {"list": {"i": ["1", "1", "1", "1"]}}, "data_format": {"s": "TkhXQw=="}, "use_cudnn_on_gpu": {"b": true}}}, {"name": "PartitionedCall/model/tf.math.sigmoid_32/Sigmoid", "op": "Sigmoid", "input": ["PartitionedCall/model/tf.math.add_38/Add"], "attr": {"T": {"type": "DT_FLOAT"}}}, {"name": "PartitionedCall/model/tf.math.multiply_110/Mul", "op": "Mul", "input": ["PartitionedCall/model/tf.math.add_38/Add", "PartitionedCall/model/tf.math.sigmoid_32/Sigmoid"], "attr": {"T": {"type": "DT_FLOAT"}}}, {"name": "PartitionedCall/model/tf.math.add_39/Add", "op": "_FusedConv2D", "input": ["PartitionedCall/model/tf.math.multiply_110/Mul", "4057", "4059"], "device": "/device:CPU:0", "attr": {"num_host_args": {"i": "0"}, "epsilon": {"f": 0.0}, "leakyrelu_alpha": {"f": 0.2}, "fused_ops": {"list": {"s": ["Qmlhc0FkZA=="]}}, "explicit_paddings": {"list": {}}, "use_cudnn_on_gpu": {"b": true}, "strides": {"list": {"i": ["1", "1", "1", "1"]}}, "num_args": {"i": "1"}, "dilations": {"list": {"i": ["1", "1", "1", "1"]}}, "padding": {"s": "U0FNRQ=="}, "T": {"type": "DT_FLOAT"}, "data_format": {"s": "TkhXQw=="}, "TArgs": {"list": {"type": ["DT_FLOAT"]}}, "filter_format": {"s": "SFdJTw=="}}}, {"name": "PartitionedCall/model/tf.math.sigmoid_33/Sigmoid", "op": "Sigmoid", "input": ["PartitionedCall/model/tf.math.add_39/Add"], "attr": {"T": {"type": "DT_FLOAT"}}}, {"name": "PartitionedCall/model/tf.math.multiply_113/Mul", "op": "Mul", "input": ["PartitionedCall/model/tf.math.add_39/Add", "PartitionedCall/model/tf.math.sigmoid_33/Sigmoid"], "attr": {"T": {"type": "DT_FLOAT"}}}, {"name": "PartitionedCall/model/tf.concat_8/concat", "op": "ConcatV2", "input": ["PartitionedCall/model/tf.strided_slice_10/StridedSlice", "PartitionedCall/model/tf.strided_slice_11/StridedSlice", "PartitionedCall/model/tf.math.multiply_113/Mul", "PartitionedCall/model/tf.concat_8/concat/axis"], "attr": {"Tidx": {"type": "DT_INT32"}, "T": {"type": "DT_FLOAT"}, "N": {"i": "3"}}}, {"name": "PartitionedCall/model/tf.math.add_40/Add", "op": "_FusedConv2D", "input": ["PartitionedCall/model/tf.concat_8/concat", "4065", "4067"], "device": "/device:CPU:0", "attr": {"explicit_paddings": {"list": {}}, "T": {"type": "DT_FLOAT"}, "use_cudnn_on_gpu": {"b": true}, "padding": {"s": "U0FNRQ=="}, "leakyrelu_alpha": {"f": 0.2}, "epsilon": {"f": 0.0}, "dilations": {"list": {"i": ["1", "1", "1", "1"]}}, "num_host_args": {"i": "0"}, "filter_format": {"s": "SFdJTw=="}, "TArgs": {"list": {"type": ["DT_FLOAT"]}}, "num_args": {"i": "1"}, "data_format": {"s": "TkhXQw=="}, "fused_ops": {"list": {"s": ["Qmlhc0FkZA=="]}}, "strides": {"list": {"i": ["1", "1", "1", "1"]}}}}, {"name": "PartitionedCall/model/tf.math.sigmoid_34/Sigmoid", "op": "Sigmoid", "input": ["PartitionedCall/model/tf.math.add_40/Add"], "attr": {"T": {"type": "DT_FLOAT"}}}, {"name": "PartitionedCall/model/tf.math.multiply_116/Mul", "op": "Mul", "input": ["PartitionedCall/model/tf.math.add_40/Add", "PartitionedCall/model/tf.math.sigmoid_34/Sigmoid"], "attr": {"T": {"type": "DT_FLOAT"}}}, {"name": "PartitionedCall/model/tf.math.add_42/Add", "op": "_FusedConv2D", "input": ["PartitionedCall/model/tf.math.multiply_116/Mul", "4139", "4151"], "device": "/device:CPU:0", "attr": {"strides": {"list": {"i": ["1", "1", "1", "1"]}}, "leakyrelu_alpha": {"f": 0.2}, "epsilon": {"f": 0.0}, "filter_format": {"s": "SFdJTw=="}, "use_cudnn_on_gpu": {"b": true}, "padding": {"s": "U0FNRQ=="}, "fused_ops": {"list": {"s": ["Qmlhc0FkZA=="]}}, "data_format": {"s": "TkhXQw=="}, "dilations": {"list": {"i": ["1", "1", "1", "1"]}}, "TArgs": {"list": {"type": ["DT_FLOAT"]}}, "T": {"type": "DT_FLOAT"}, "num_args": {"i": "1"}, "explicit_paddings": {"list": {}}, "num_host_args": {"i": "0"}}}, {"name": "PartitionedCall/model/tf.math.add_43/Add", "op": "_FusedConv2D", "input": ["PartitionedCall/model/tf.math.multiply_116/Mul", "4137", "4149"], "device": "/device:CPU:0", "attr": {"num_args": {"i": "1"}, "padding": {"s": "U0FNRQ=="}, "num_host_args": {"i": "0"}, "dilations": {"list": {"i": ["1", "1", "1", "1"]}}, "T": {"type": "DT_FLOAT"}, "use_cudnn_on_gpu": {"b": true}, "epsilon": {"f": 0.0}, "leakyrelu_alpha": {"f": 0.2}, "fused_ops": {"list": {"s": ["Qmlhc0FkZA=="]}}, "explicit_paddings": {"list": {}}, "data_format": {"s": "TkhXQw=="}, "strides": {"list": {"i": ["1", "1", "1", "1"]}}, "filter_format": {"s": "SFdJTw=="}, "TArgs": {"list": {"type": ["DT_FLOAT"]}}}}, {"name": "PartitionedCall/model/tf.compat.v1.pad_5/Pad", "op": "Pad", "input": ["PartitionedCall/model/tf.math.multiply_116/Mul", "4069"], "attr": {"Tpaddings": {"type": "DT_INT32"}, "T": {"type": "DT_FLOAT"}}}, {"name": "PartitionedCall/model/tf.math.sigmoid_36/Sigmoid", "op": "Sigmoid", "input": ["PartitionedCall/model/tf.math.add_42/Add"], "attr": {"T": {"type": "DT_FLOAT"}}}, {"name": "PartitionedCall/model/tf.math.sigmoid_37/Sigmoid", "op": "Sigmoid", "input": ["PartitionedCall/model/tf.math.add_43/Add"], "attr": {"T": {"type": "DT_FLOAT"}}}, {"name": "PartitionedCall/model/tf.math.add_41/Add", "op": "_FusedConv2D", "input": ["PartitionedCall/model/tf.compat.v1.pad_5/Pad", "4071", "4073"], "device": "/device:CPU:0", "attr": {"dilations": {"list": {"i": ["1", "1", "1", "1"]}}, "explicit_paddings": {"list": {}}, "fused_ops": {"list": {"s": ["Qmlhc0FkZA=="]}}, "use_cudnn_on_gpu": {"b": true}, "num_host_args": {"i": "0"}, "num_args": {"i": "1"}, "TArgs": {"list": {"type": ["DT_FLOAT"]}}, "leakyrelu_alpha": {"f": 0.2}, "T": {"type": "DT_FLOAT"}, "strides": {"list": {"i": ["1", "2", "2", "1"]}}, "padding": {"s": "VkFMSUQ="}, "data_format": {"s": "TkhXQw=="}, "filter_format": {"s": "SFdJTw=="}, "epsilon": {"f": 0.0}}}, {"name": "PartitionedCall/model/tf.math.multiply_122/Mul", "op": "Mul", "input": ["PartitionedCall/model/tf.math.add_42/Add", "PartitionedCall/model/tf.math.sigmoid_36/Sigmoid"], "attr": {"T": {"type": "DT_FLOAT"}}}, {"name": "PartitionedCall/model/tf.math.multiply_125/Mul", "op": "Mul", "input": ["PartitionedCall/model/tf.math.add_43/Add", "PartitionedCall/model/tf.math.sigmoid_37/Sigmoid"], "attr": {"T": {"type": "DT_FLOAT"}}}, {"name": "PartitionedCall/model/tf.math.sigmoid_35/Sigmoid", "op": "Sigmoid", "input": ["PartitionedCall/model/tf.math.add_41/Add"], "attr": {"T": {"type": "DT_FLOAT"}}}, {"name": "PartitionedCall/model/tf.math.add_44/Add", "op": "_FusedConv2D", "input": ["PartitionedCall/model/tf.math.multiply_122/Mul", "4163", "4175"], "device": "/device:CPU:0", "attr": {"leakyrelu_alpha": {"f": 0.2}, "padding": {"s": "U0FNRQ=="}, "use_cudnn_on_gpu": {"b": true}, "filter_format": {"s": "SFdJTw=="}, "data_format": {"s": "TkhXQw=="}, "T": {"type": "DT_FLOAT"}, "TArgs": {"list": {"type": ["DT_FLOAT"]}}, "epsilon": {"f": 0.0}, "strides": {"list": {"i": ["1", "1", "1", "1"]}}, "dilations": {"list": {"i": ["1", "1", "1", "1"]}}, "num_args": {"i": "1"}, "num_host_args": {"i": "0"}, "fused_ops": {"list": {"s": ["Qmlhc0FkZA=="]}}, "explicit_paddings": {"list": {}}}}, {"name": "PartitionedCall/model/tf.math.add_45/Add", "op": "_FusedConv2D", "input": ["PartitionedCall/model/tf.math.multiply_125/Mul", "4161", "4173"], "device": "/device:CPU:0", "attr": {"num_args": {"i": "1"}, "num_host_args": {"i": "0"}, "epsilon": {"f": 0.0}, "dilations": {"list": {"i": ["1", "1", "1", "1"]}}, "TArgs": {"list": {"type": ["DT_FLOAT"]}}, "explicit_paddings": {"list": {}}, "use_cudnn_on_gpu": {"b": true}, "filter_format": {"s": "SFdJTw=="}, "leakyrelu_alpha": {"f": 0.2}, "padding": {"s": "U0FNRQ=="}, "data_format": {"s": "TkhXQw=="}, "fused_ops": {"list": {"s": ["Qmlhc0FkZA=="]}}, "strides": {"list": {"i": ["1", "1", "1", "1"]}}, "T": {"type": "DT_FLOAT"}}}, {"name": "PartitionedCall/model/tf.math.multiply_119/Mul", "op": "Mul", "input": ["PartitionedCall/model/tf.math.add_41/Add", "PartitionedCall/model/tf.math.sigmoid_35/Sigmoid"], "attr": {"T": {"type": "DT_FLOAT"}}}, {"name": "PartitionedCall/model/tf.math.sigmoid_38/Sigmoid", "op": "Sigmoid", "input": ["PartitionedCall/model/tf.math.add_44/Add"], "attr": {"T": {"type": "DT_FLOAT"}}}, {"name": "PartitionedCall/model/tf.math.sigmoid_39/Sigmoid", "op": "Sigmoid", "input": ["PartitionedCall/model/tf.math.add_45/Add"], "attr": {"T": {"type": "DT_FLOAT"}}}, {"name": "PartitionedCall/model/tf.concat_9/concat", "op": "ConcatV2", "input": ["PartitionedCall/model/tf.math.multiply_119/Mul", "PartitionedCall/model/tf.math.multiply_104/Mul", "PartitionedCall/model/tf.concat_9/concat/axis"], "attr": {"T": {"type": "DT_FLOAT"}, "N": {"i": "2"}, "Tidx": {"type": "DT_INT32"}}}, {"name": "PartitionedCall/model/tf.math.multiply_128/Mul", "op": "Mul", "input": ["PartitionedCall/model/tf.math.add_44/Add", "PartitionedCall/model/tf.math.sigmoid_38/Sigmoid"], "attr": {"T": {"type": "DT_FLOAT"}}}, {"name": "PartitionedCall/model/tf.math.multiply_131/Mul", "op": "Mul", "input": ["PartitionedCall/model/tf.math.add_45/Add", "PartitionedCall/model/tf.math.sigmoid_39/Sigmoid"], "attr": {"T": {"type": "DT_FLOAT"}}}, {"name": "PartitionedCall/model/tf.math.add_46/Add", "op": "_FusedConv2D", "input": ["PartitionedCall/model/tf.concat_9/concat", "4075", "4077"], "device": "/device:CPU:0", "attr": {"leakyrelu_alpha": {"f": 0.2}, "epsilon": {"f": 0.0}, "padding": {"s": "U0FNRQ=="}, "strides": {"list": {"i": ["1", "1", "1", "1"]}}, "data_format": {"s": "TkhXQw=="}, "explicit_paddings": {"list": {}}, "filter_format": {"s": "SFdJTw=="}, "num_args": {"i": "1"}, "use_cudnn_on_gpu": {"b": true}, "dilations": {"list": {"i": ["1", "1", "1", "1"]}}, "TArgs": {"list": {"type": ["DT_FLOAT"]}}, "num_host_args": {"i": "0"}, "T": {"type": "DT_FLOAT"}, "fused_ops": {"list": {"s": ["Qmlhc0FkZA=="]}}}}, {"name": "PartitionedCall/model/tf.math.add_47/Add", "op": "_FusedConv2D", "input": ["PartitionedCall/model/tf.math.multiply_128/Mul", "4187", "4197"], "device": "/device:CPU:0", "attr": {"dilations": {"list": {"i": ["1", "1", "1", "1"]}}, "explicit_paddings": {"list": {}}, "strides": {"list": {"i": ["1", "1", "1", "1"]}}, "leakyrelu_alpha": {"f": 0.2}, "use_cudnn_on_gpu": {"b": true}, "TArgs": {"list": {"type": ["DT_FLOAT"]}}, "data_format": {"s": "TkhXQw=="}, "padding": {"s": "U0FNRQ=="}, "num_args": {"i": "1"}, "fused_ops": {"list": {"s": ["Qmlhc0FkZA=="]}}, "filter_format": {"s": "SFdJTw=="}, "epsilon": {"f": 0.0}, "num_host_args": {"i": "0"}, "T": {"type": "DT_FLOAT"}}}, {"name": "PartitionedCall/model/tf.math.add_48/Add", "op": "_FusedConv2D", "input": ["PartitionedCall/model/tf.math.multiply_131/Mul", "4185", "4199"], "device": "/device:CPU:0", "attr": {"padding": {"s": "U0FNRQ=="}, "use_cudnn_on_gpu": {"b": true}, "strides": {"list": {"i": ["1", "1", "1", "1"]}}, "num_args": {"i": "1"}, "T": {"type": "DT_FLOAT"}, "data_format": {"s": "TkhXQw=="}, "TArgs": {"list": {"type": ["DT_FLOAT"]}}, "dilations": {"list": {"i": ["1", "1", "1", "1"]}}, "epsilon": {"f": 0.0}, "num_host_args": {"i": "0"}, "filter_format": {"s": "SFdJTw=="}, "leakyrelu_alpha": {"f": 0.2}, "explicit_paddings": {"list": {}}, "fused_ops": {"list": {"s": ["Qmlhc0FkZA=="]}}}}, {"name": "PartitionedCall/model/tf.math.sigmoid_40/Sigmoid", "op": "Sigmoid", "input": ["PartitionedCall/model/tf.math.add_46/Add"], "attr": {"T": {"type": "DT_FLOAT"}}}, {"name": "PartitionedCall/model/tf.concat_10/concat", "op": "ConcatV2", "input": ["PartitionedCall/model/tf.math.add_47/Add", "PartitionedCall/model/tf.math.add_48/Add", "PartitionedCall/model/tf.concat_10/concat/axis"], "attr": {"N": {"i": "2"}, "Tidx": {"type": "DT_INT32"}, "T": {"type": "DT_FLOAT"}}}, {"name": "PartitionedCall/model/tf.math.multiply_134/Mul", "op": "Mul", "input": ["PartitionedCall/model/tf.math.add_46/Add", "PartitionedCall/model/tf.math.sigmoid_40/Sigmoid"], "attr": {"T": {"type": "DT_FLOAT"}}}, {"name": "PartitionedCall/model/tf.compat.v1.transpose/transpose", "op": "Transpose", "input": ["PartitionedCall/model/tf.concat_10/concat", "PartitionedCall/model/tf.compat.v1.transpose/transpose/perm"], "attr": {"Tperm": {"type": "DT_INT32"}, "T": {"type": "DT_FLOAT"}}}, {"name": "PartitionedCall/model/tf.strided_slice_12/StridedSlice", "op": "StridedSlice", "input": ["PartitionedCall/model/tf.math.multiply_134/Mul", "4091", "4093", "PartitionedCall/model/tf.strided_slice_12/ones_like"], "attr": {"shrink_axis_mask": {"i": "0"}, "end_mask": {"i": "7"}, "begin_mask": {"i": "15"}, "Index": {"type": "DT_INT64"}, "T": {"type": "DT_FLOAT"}, "ellipsis_mask": {"i": "0"}, "new_axis_mask": {"i": "0"}}}, {"name": "PartitionedCall/model/tf.strided_slice_13/StridedSlice", "op": "StridedSlice", "input": ["PartitionedCall/model/tf.math.multiply_134/Mul", "4079", "4081", "PartitionedCall/model/tf.strided_slice_13/ones_like"], "attr": {"T": {"type": "DT_FLOAT"}, "new_axis_mask": {"i": "0"}, "shrink_axis_mask": {"i": "0"}, "ellipsis_mask": {"i": "0"}, "end_mask": {"i": "7"}, "begin_mask": {"i": "7"}, "Index": {"type": "DT_INT64"}}}, {"name": "PartitionedCall/model/tf.reshape/Reshape", "op": "Reshape", "input": ["PartitionedCall/model/tf.compat.v1.transpose/transpose", "PartitionedCall/model/tf.reshape/Reshape/shape"], "attr": {"Tshape": {"type": "DT_INT32"}, "T": {"type": "DT_FLOAT"}}}, {"name": "PartitionedCall/model/tf.math.add_49/Add", "op": "_FusedConv2D", "input": ["PartitionedCall/model/tf.strided_slice_13/StridedSlice", "4083", "4085"], "device": "/device:CPU:0", "attr": {"data_format": {"s": "TkhXQw=="}, "use_cudnn_on_gpu": {"b": true}, "fused_ops": {"list": {"s": ["Qmlhc0FkZA=="]}}, "strides": {"list": {"i": ["1", "1", "1", "1"]}}, "epsilon": {"f": 0.0}, "filter_format": {"s": "SFdJTw=="}, "T": {"type": "DT_FLOAT"}, "num_args": {"i": "1"}, "num_host_args": {"i": "0"}, "dilations": {"list": {"i": ["1", "1", "1", "1"]}}, "leakyrelu_alpha": {"f": 0.2}, "TArgs": {"list": {"type": ["DT_FLOAT"]}}, "explicit_paddings": {"list": {}}, "padding": {"s": "U0FNRQ=="}}}, {"name": "PartitionedCall/model/tf.math.sigmoid_41/Sigmoid", "op": "Sigmoid", "input": ["PartitionedCall/model/tf.math.add_49/Add"], "attr": {"T": {"type": "DT_FLOAT"}}}, {"name": "PartitionedCall/model/tf.math.multiply_137/Mul", "op": "Mul", "input": ["PartitionedCall/model/tf.math.add_49/Add", "PartitionedCall/model/tf.math.sigmoid_41/Sigmoid"], "attr": {"T": {"type": "DT_FLOAT"}}}, {"name": "PartitionedCall/model/tf.math.add_50/Add", "op": "_FusedConv2D", "input": ["PartitionedCall/model/tf.math.multiply_137/Mul", "4087", "4089"], "device": "/device:CPU:0", "attr": {"num_args": {"i": "1"}, "explicit_paddings": {"list": {}}, "filter_format": {"s": "SFdJTw=="}, "leakyrelu_alpha": {"f": 0.2}, "T": {"type": "DT_FLOAT"}, "dilations": {"list": {"i": ["1", "1", "1", "1"]}}, "epsilon": {"f": 0.0}, "data_format": {"s": "TkhXQw=="}, "padding": {"s": "U0FNRQ=="}, "strides": {"list": {"i": ["1", "1", "1", "1"]}}, "num_host_args": {"i": "0"}, "TArgs": {"list": {"type": ["DT_FLOAT"]}}, "fused_ops": {"list": {"s": ["Qmlhc0FkZA=="]}}, "use_cudnn_on_gpu": {"b": true}}}, {"name": "PartitionedCall/model/tf.math.sigmoid_42/Sigmoid", "op": "Sigmoid", "input": ["PartitionedCall/model/tf.math.add_50/Add"], "attr": {"T": {"type": "DT_FLOAT"}}}, {"name": "PartitionedCall/model/tf.math.multiply_140/Mul", "op": "Mul", "input": ["PartitionedCall/model/tf.math.add_50/Add", "PartitionedCall/model/tf.math.sigmoid_42/Sigmoid"], "attr": {"T": {"type": "DT_FLOAT"}}}, {"name": "PartitionedCall/model/tf.concat_11/concat", "op": "ConcatV2", "input": ["PartitionedCall/model/tf.strided_slice_12/StridedSlice", "PartitionedCall/model/tf.strided_slice_13/StridedSlice", "PartitionedCall/model/tf.math.multiply_140/Mul", "PartitionedCall/model/tf.concat_11/concat/axis"], "attr": {"N": {"i": "3"}, "T": {"type": "DT_FLOAT"}, "Tidx": {"type": "DT_INT32"}}}, {"name": "PartitionedCall/model/tf.math.add_51/Add", "op": "_FusedConv2D", "input": ["PartitionedCall/model/tf.concat_11/concat", "4095", "4097"], "device": "/device:CPU:0", "attr": {"leakyrelu_alpha": {"f": 0.2}, "T": {"type": "DT_FLOAT"}, "num_host_args": {"i": "0"}, "TArgs": {"list": {"type": ["DT_FLOAT"]}}, "strides": {"list": {"i": ["1", "1", "1", "1"]}}, "padding": {"s": "U0FNRQ=="}, "data_format": {"s": "TkhXQw=="}, "filter_format": {"s": "SFdJTw=="}, "fused_ops": {"list": {"s": ["Qmlhc0FkZA=="]}}, "epsilon": {"f": 0.0}, "num_args": {"i": "1"}, "use_cudnn_on_gpu": {"b": true}, "explicit_paddings": {"list": {}}, "dilations": {"list": {"i": ["1", "1", "1", "1"]}}}}, {"name": "PartitionedCall/model/tf.math.sigmoid_43/Sigmoid", "op": "Sigmoid", "input": ["PartitionedCall/model/tf.math.add_51/Add"], "attr": {"T": {"type": "DT_FLOAT"}}}, {"name": "PartitionedCall/model/tf.math.multiply_143/Mul", "op": "Mul", "input": ["PartitionedCall/model/tf.math.add_51/Add", "PartitionedCall/model/tf.math.sigmoid_43/Sigmoid"], "attr": {"T": {"type": "DT_FLOAT"}}}, {"name": "PartitionedCall/model/tf.math.add_53/Add", "op": "_FusedConv2D", "input": ["PartitionedCall/model/tf.math.multiply_143/Mul", "4135", "4147"], "device": "/device:CPU:0", "attr": {"explicit_paddings": {"list": {}}, "leakyrelu_alpha": {"f": 0.2}, "filter_format": {"s": "SFdJTw=="}, "num_args": {"i": "1"}, "padding": {"s": "U0FNRQ=="}, "strides": {"list": {"i": ["1", "1", "1", "1"]}}, "fused_ops": {"list": {"s": ["Qmlhc0FkZA=="]}}, "use_cudnn_on_gpu": {"b": true}, "dilations": {"list": {"i": ["1", "1", "1", "1"]}}, "TArgs": {"list": {"type": ["DT_FLOAT"]}}, "T": {"type": "DT_FLOAT"}, "epsilon": {"f": 0.0}, "num_host_args": {"i": "0"}, "data_format": {"s": "TkhXQw=="}}}, {"name": "PartitionedCall/model/tf.math.add_54/Add", "op": "_FusedConv2D", "input": ["PartitionedCall/model/tf.math.multiply_143/Mul", "4133", "4145"], "device": "/device:CPU:0", "attr": {"filter_format": {"s": "SFdJTw=="}, "strides": {"list": {"i": ["1", "1", "1", "1"]}}, "fused_ops": {"list": {"s": ["Qmlhc0FkZA=="]}}, "explicit_paddings": {"list": {}}, "leakyrelu_alpha": {"f": 0.2}, "epsilon": {"f": 0.0}, "TArgs": {"list": {"type": ["DT_FLOAT"]}}, "dilations": {"list": {"i": ["1", "1", "1", "1"]}}, "T": {"type": "DT_FLOAT"}, "data_format": {"s": "TkhXQw=="}, "padding": {"s": "U0FNRQ=="}, "num_host_args": {"i": "0"}, "use_cudnn_on_gpu": {"b": true}, "num_args": {"i": "1"}}}, {"name": "PartitionedCall/model/tf.compat.v1.pad_6/Pad", "op": "Pad", "input": ["PartitionedCall/model/tf.math.multiply_143/Mul", "4099"], "attr": {"T": {"type": "DT_FLOAT"}, "Tpaddings": {"type": "DT_INT32"}}}, {"name": "PartitionedCall/model/tf.math.sigmoid_45/Sigmoid", "op": "Sigmoid", "input": ["PartitionedCall/model/tf.math.add_53/Add"], "attr": {"T": {"type": "DT_FLOAT"}}}, {"name": "PartitionedCall/model/tf.math.sigmoid_46/Sigmoid", "op": "Sigmoid", "input": ["PartitionedCall/model/tf.math.add_54/Add"], "attr": {"T": {"type": "DT_FLOAT"}}}, {"name": "PartitionedCall/model/tf.math.add_52/Add", "op": "_FusedConv2D", "input": ["PartitionedCall/model/tf.compat.v1.pad_6/Pad", "4101", "4103"], "device": "/device:CPU:0", "attr": {"num_args": {"i": "1"}, "padding": {"s": "VkFMSUQ="}, "data_format": {"s": "TkhXQw=="}, "use_cudnn_on_gpu": {"b": true}, "num_host_args": {"i": "0"}, "T": {"type": "DT_FLOAT"}, "strides": {"list": {"i": ["1", "2", "2", "1"]}}, "filter_format": {"s": "SFdJTw=="}, "TArgs": {"list": {"type": ["DT_FLOAT"]}}, "fused_ops": {"list": {"s": ["Qmlhc0FkZA=="]}}, "leakyrelu_alpha": {"f": 0.2}, "explicit_paddings": {"list": {}}, "dilations": {"list": {"i": ["1", "1", "1", "1"]}}, "epsilon": {"f": 0.0}}}, {"name": "PartitionedCall/model/tf.math.multiply_149/Mul", "op": "Mul", "input": ["PartitionedCall/model/tf.math.add_53/Add", "PartitionedCall/model/tf.math.sigmoid_45/Sigmoid"], "attr": {"T": {"type": "DT_FLOAT"}}}, {"name": "PartitionedCall/model/tf.math.multiply_152/Mul", "op": "Mul", "input": ["PartitionedCall/model/tf.math.add_54/Add", "PartitionedCall/model/tf.math.sigmoid_46/Sigmoid"], "attr": {"T": {"type": "DT_FLOAT"}}}, {"name": "PartitionedCall/model/tf.math.sigmoid_44/Sigmoid", "op": "Sigmoid", "input": ["PartitionedCall/model/tf.math.add_52/Add"], "attr": {"T": {"type": "DT_FLOAT"}}}, {"name": "PartitionedCall/model/tf.math.add_55/Add", "op": "_FusedConv2D", "input": ["PartitionedCall/model/tf.math.multiply_149/Mul", "4159", "4171"], "device": "/device:CPU:0", "attr": {"explicit_paddings": {"list": {}}, "num_args": {"i": "1"}, "T": {"type": "DT_FLOAT"}, "fused_ops": {"list": {"s": ["Qmlhc0FkZA=="]}}, "TArgs": {"list": {"type": ["DT_FLOAT"]}}, "use_cudnn_on_gpu": {"b": true}, "padding": {"s": "U0FNRQ=="}, "leakyrelu_alpha": {"f": 0.2}, "num_host_args": {"i": "0"}, "strides": {"list": {"i": ["1", "1", "1", "1"]}}, "epsilon": {"f": 0.0}, "data_format": {"s": "TkhXQw=="}, "filter_format": {"s": "SFdJTw=="}, "dilations": {"list": {"i": ["1", "1", "1", "1"]}}}}, {"name": "PartitionedCall/model/tf.math.add_56/Add", "op": "_FusedConv2D", "input": ["PartitionedCall/model/tf.math.multiply_152/Mul", "4157", "4169"], "device": "/device:CPU:0", "attr": {"leakyrelu_alpha": {"f": 0.2}, "strides": {"list": {"i": ["1", "1", "1", "1"]}}, "dilations": {"list": {"i": ["1", "1", "1", "1"]}}, "epsilon": {"f": 0.0}, "filter_format": {"s": "SFdJTw=="}, "fused_ops": {"list": {"s": ["Qmlhc0FkZA=="]}}, "T": {"type": "DT_FLOAT"}, "data_format": {"s": "TkhXQw=="}, "num_args": {"i": "1"}, "explicit_paddings": {"list": {}}, "TArgs": {"list": {"type": ["DT_FLOAT"]}}, "num_host_args": {"i": "0"}, "padding": {"s": "U0FNRQ=="}, "use_cudnn_on_gpu": {"b": true}}}, {"name": "PartitionedCall/model/tf.math.multiply_146/Mul", "op": "Mul", "input": ["PartitionedCall/model/tf.math.add_52/Add", "PartitionedCall/model/tf.math.sigmoid_44/Sigmoid"], "attr": {"T": {"type": "DT_FLOAT"}}}, {"name": "PartitionedCall/model/tf.math.sigmoid_47/Sigmoid", "op": "Sigmoid", "input": ["PartitionedCall/model/tf.math.add_55/Add"], "attr": {"T": {"type": "DT_FLOAT"}}}, {"name": "PartitionedCall/model/tf.math.sigmoid_48/Sigmoid", "op": "Sigmoid", "input": ["PartitionedCall/model/tf.math.add_56/Add"], "attr": {"T": {"type": "DT_FLOAT"}}}, {"name": "PartitionedCall/model/tf.concat_12/concat", "op": "ConcatV2", "input": ["PartitionedCall/model/tf.math.multiply_146/Mul", "PartitionedCall/model/tf.math.multiply_92/Mul", "PartitionedCall/model/tf.concat_12/concat/axis"], "attr": {"T": {"type": "DT_FLOAT"}, "N": {"i": "2"}, "Tidx": {"type": "DT_INT32"}}}, {"name": "PartitionedCall/model/tf.math.multiply_155/Mul", "op": "Mul", "input": ["PartitionedCall/model/tf.math.add_55/Add", "PartitionedCall/model/tf.math.sigmoid_47/Sigmoid"], "attr": {"T": {"type": "DT_FLOAT"}}}, {"name": "PartitionedCall/model/tf.math.multiply_158/Mul", "op": "Mul", "input": ["PartitionedCall/model/tf.math.add_56/Add", "PartitionedCall/model/tf.math.sigmoid_48/Sigmoid"], "attr": {"T": {"type": "DT_FLOAT"}}}, {"name": "PartitionedCall/model/tf.math.add_57/Add", "op": "_FusedConv2D", "input": ["PartitionedCall/model/tf.concat_12/concat", "4105", "4107"], "device": "/device:CPU:0", "attr": {"padding": {"s": "U0FNRQ=="}, "use_cudnn_on_gpu": {"b": true}, "num_host_args": {"i": "0"}, "T": {"type": "DT_FLOAT"}, "data_format": {"s": "TkhXQw=="}, "num_args": {"i": "1"}, "fused_ops": {"list": {"s": ["Qmlhc0FkZA=="]}}, "filter_format": {"s": "SFdJTw=="}, "TArgs": {"list": {"type": ["DT_FLOAT"]}}, "leakyrelu_alpha": {"f": 0.2}, "dilations": {"list": {"i": ["1", "1", "1", "1"]}}, "epsilon": {"f": 0.0}, "strides": {"list": {"i": ["1", "1", "1", "1"]}}, "explicit_paddings": {"list": {}}}}, {"name": "PartitionedCall/model/tf.math.add_58/Add", "op": "_FusedConv2D", "input": ["PartitionedCall/model/tf.math.multiply_155/Mul", "4183", "4193"], "device": "/device:CPU:0", "attr": {"filter_format": {"s": "SFdJTw=="}, "use_cudnn_on_gpu": {"b": true}, "data_format": {"s": "TkhXQw=="}, "padding": {"s": "U0FNRQ=="}, "fused_ops": {"list": {"s": ["Qmlhc0FkZA=="]}}, "num_args": {"i": "1"}, "strides": {"list": {"i": ["1", "1", "1", "1"]}}, "dilations": {"list": {"i": ["1", "1", "1", "1"]}}, "leakyrelu_alpha": {"f": 0.2}, "epsilon": {"f": 0.0}, "T": {"type": "DT_FLOAT"}, "TArgs": {"list": {"type": ["DT_FLOAT"]}}, "num_host_args": {"i": "0"}, "explicit_paddings": {"list": {}}}}, {"name": "PartitionedCall/model/tf.math.add_59/Add", "op": "_FusedConv2D", "input": ["PartitionedCall/model/tf.math.multiply_158/Mul", "4181", "4195"], "device": "/device:CPU:0", "attr": {"use_cudnn_on_gpu": {"b": true}, "strides": {"list": {"i": ["1", "1", "1", "1"]}}, "T": {"type": "DT_FLOAT"}, "num_args": {"i": "1"}, "leakyrelu_alpha": {"f": 0.2}, "epsilon": {"f": 0.0}, "dilations": {"list": {"i": ["1", "1", "1", "1"]}}, "TArgs": {"list": {"type": ["DT_FLOAT"]}}, "explicit_paddings": {"list": {}}, "num_host_args": {"i": "0"}, "data_format": {"s": "TkhXQw=="}, "fused_ops": {"list": {"s": ["Qmlhc0FkZA=="]}}, "filter_format": {"s": "SFdJTw=="}, "padding": {"s": "U0FNRQ=="}}}, {"name": "PartitionedCall/model/tf.math.sigmoid_49/Sigmoid", "op": "Sigmoid", "input": ["PartitionedCall/model/tf.math.add_57/Add"], "attr": {"T": {"type": "DT_FLOAT"}}}, {"name": "PartitionedCall/model/tf.concat_13/concat", "op": "ConcatV2", "input": ["PartitionedCall/model/tf.math.add_58/Add", "PartitionedCall/model/tf.math.add_59/Add", "PartitionedCall/model/tf.concat_13/concat/axis"], "attr": {"T": {"type": "DT_FLOAT"}, "Tidx": {"type": "DT_INT32"}, "N": {"i": "2"}}}, {"name": "PartitionedCall/model/tf.math.multiply_161/Mul", "op": "Mul", "input": ["PartitionedCall/model/tf.math.add_57/Add", "PartitionedCall/model/tf.math.sigmoid_49/Sigmoid"], "attr": {"T": {"type": "DT_FLOAT"}}}, {"name": "PartitionedCall/model/tf.compat.v1.transpose_1/transpose", "op": "Transpose", "input": ["PartitionedCall/model/tf.concat_13/concat", "PartitionedCall/model/tf.compat.v1.transpose_1/transpose/perm"], "attr": {"Tperm": {"type": "DT_INT32"}, "T": {"type": "DT_FLOAT"}}}, {"name": "PartitionedCall/model/tf.strided_slice_14/StridedSlice", "op": "StridedSlice", "input": ["PartitionedCall/model/tf.math.multiply_161/Mul", "4121", "4123", "PartitionedCall/model/tf.strided_slice_14/ones_like"], "attr": {"T": {"type": "DT_FLOAT"}, "begin_mask": {"i": "15"}, "Index": {"type": "DT_INT64"}, "ellipsis_mask": {"i": "0"}, "new_axis_mask": {"i": "0"}, "shrink_axis_mask": {"i": "0"}, "end_mask": {"i": "7"}}}, {"name": "PartitionedCall/model/tf.strided_slice_15/StridedSlice", "op": "StridedSlice", "input": ["PartitionedCall/model/tf.math.multiply_161/Mul", "4109", "4111", "PartitionedCall/model/tf.strided_slice_15/ones_like"], "attr": {"begin_mask": {"i": "7"}, "Index": {"type": "DT_INT64"}, "shrink_axis_mask": {"i": "0"}, "T": {"type": "DT_FLOAT"}, "new_axis_mask": {"i": "0"}, "ellipsis_mask": {"i": "0"}, "end_mask": {"i": "7"}}}, {"name": "PartitionedCall/model/tf.reshape_1/Reshape", "op": "Reshape", "input": ["PartitionedCall/model/tf.compat.v1.transpose_1/transpose", "PartitionedCall/model/tf.reshape_1/Reshape/shape"], "attr": {"T": {"type": "DT_FLOAT"}, "Tshape": {"type": "DT_INT32"}}}, {"name": "PartitionedCall/model/tf.math.add_60/Add", "op": "_FusedConv2D", "input": ["PartitionedCall/model/tf.strided_slice_15/StridedSlice", "4113", "4115"], "device": "/device:CPU:0", "attr": {"epsilon": {"f": 0.0}, "strides": {"list": {"i": ["1", "1", "1", "1"]}}, "explicit_paddings": {"list": {}}, "dilations": {"list": {"i": ["1", "1", "1", "1"]}}, "leakyrelu_alpha": {"f": 0.2}, "padding": {"s": "U0FNRQ=="}, "TArgs": {"list": {"type": ["DT_FLOAT"]}}, "data_format": {"s": "TkhXQw=="}, "use_cudnn_on_gpu": {"b": true}, "num_args": {"i": "1"}, "fused_ops": {"list": {"s": ["Qmlhc0FkZA=="]}}, "T": {"type": "DT_FLOAT"}, "num_host_args": {"i": "0"}, "filter_format": {"s": "SFdJTw=="}}}, {"name": "PartitionedCall/model/tf.math.sigmoid_50/Sigmoid", "op": "Sigmoid", "input": ["PartitionedCall/model/tf.math.add_60/Add"], "attr": {"T": {"type": "DT_FLOAT"}}}, {"name": "PartitionedCall/model/tf.math.multiply_164/Mul", "op": "Mul", "input": ["PartitionedCall/model/tf.math.add_60/Add", "PartitionedCall/model/tf.math.sigmoid_50/Sigmoid"], "attr": {"T": {"type": "DT_FLOAT"}}}, {"name": "PartitionedCall/model/tf.math.add_61/Add", "op": "_FusedConv2D", "input": ["PartitionedCall/model/tf.math.multiply_164/Mul", "4117", "4119"], "device": "/device:CPU:0", "attr": {"explicit_paddings": {"list": {}}, "TArgs": {"list": {"type": ["DT_FLOAT"]}}, "epsilon": {"f": 0.0}, "strides": {"list": {"i": ["1", "1", "1", "1"]}}, "dilations": {"list": {"i": ["1", "1", "1", "1"]}}, "fused_ops": {"list": {"s": ["Qmlhc0FkZA=="]}}, "use_cudnn_on_gpu": {"b": true}, "num_args": {"i": "1"}, "filter_format": {"s": "SFdJTw=="}, "num_host_args": {"i": "0"}, "padding": {"s": "U0FNRQ=="}, "data_format": {"s": "TkhXQw=="}, "T": {"type": "DT_FLOAT"}, "leakyrelu_alpha": {"f": 0.2}}}, {"name": "PartitionedCall/model/tf.math.sigmoid_51/Sigmoid", "op": "Sigmoid", "input": ["PartitionedCall/model/tf.math.add_61/Add"], "attr": {"T": {"type": "DT_FLOAT"}}}, {"name": "PartitionedCall/model/tf.math.multiply_167/Mul", "op": "Mul", "input": ["PartitionedCall/model/tf.math.add_61/Add", "PartitionedCall/model/tf.math.sigmoid_51/Sigmoid"], "attr": {"T": {"type": "DT_FLOAT"}}}, {"name": "PartitionedCall/model/tf.concat_14/concat", "op": "ConcatV2", "input": ["PartitionedCall/model/tf.strided_slice_14/StridedSlice", "PartitionedCall/model/tf.strided_slice_15/StridedSlice", "PartitionedCall/model/tf.math.multiply_167/Mul", "PartitionedCall/model/tf.concat_14/concat/axis"], "attr": {"N": {"i": "3"}, "T": {"type": "DT_FLOAT"}, "Tidx": {"type": "DT_INT32"}}}, {"name": "PartitionedCall/model/tf.math.add_62/Add", "op": "_FusedConv2D", "input": ["PartitionedCall/model/tf.concat_14/concat", "4125", "4127"], "device": "/device:CPU:0", "attr": {"filter_format": {"s": "SFdJTw=="}, "data_format": {"s": "TkhXQw=="}, "TArgs": {"list": {"type": ["DT_FLOAT"]}}, "num_args": {"i": "1"}, "explicit_paddings": {"list": {}}, "leakyrelu_alpha": {"f": 0.2}, "T": {"type": "DT_FLOAT"}, "strides": {"list": {"i": ["1", "1", "1", "1"]}}, "use_cudnn_on_gpu": {"b": true}, "dilations": {"list": {"i": ["1", "1", "1", "1"]}}, "epsilon": {"f": 0.0}, "padding": {"s": "U0FNRQ=="}, "num_host_args": {"i": "0"}, "fused_ops": {"list": {"s": ["Qmlhc0FkZA=="]}}}}, {"name": "PartitionedCall/model/tf.math.sigmoid_52/Sigmoid", "op": "Sigmoid", "input": ["PartitionedCall/model/tf.math.add_62/Add"], "attr": {"T": {"type": "DT_FLOAT"}}}, {"name": "PartitionedCall/model/tf.math.multiply_170/Mul", "op": "Mul", "input": ["PartitionedCall/model/tf.math.add_62/Add", "PartitionedCall/model/tf.math.sigmoid_52/Sigmoid"], "attr": {"T": {"type": "DT_FLOAT"}}}, {"name": "PartitionedCall/model/tf.math.add_63/Add", "op": "_FusedConv2D", "input": ["PartitionedCall/model/tf.math.multiply_170/Mul", "4131", "4143"], "device": "/device:CPU:0", "attr": {"filter_format": {"s": "SFdJTw=="}, "T": {"type": "DT_FLOAT"}, "num_host_args": {"i": "0"}, "use_cudnn_on_gpu": {"b": true}, "TArgs": {"list": {"type": ["DT_FLOAT"]}}, "num_args": {"i": "1"}, "leakyrelu_alpha": {"f": 0.2}, "fused_ops": {"list": {"s": ["Qmlhc0FkZA=="]}}, "epsilon": {"f": 0.0}, "padding": {"s": "U0FNRQ=="}, "strides": {"list": {"i": ["1", "1", "1", "1"]}}, "dilations": {"list": {"i": ["1", "1", "1", "1"]}}, "data_format": {"s": "TkhXQw=="}, "explicit_paddings": {"list": {}}}}, {"name": "PartitionedCall/model/tf.math.add_64/Add", "op": "_FusedConv2D", "input": ["PartitionedCall/model/tf.math.multiply_170/Mul", "4129", "4141"], "device": "/device:CPU:0", "attr": {"strides": {"list": {"i": ["1", "1", "1", "1"]}}, "leakyrelu_alpha": {"f": 0.2}, "padding": {"s": "U0FNRQ=="}, "filter_format": {"s": "SFdJTw=="}, "T": {"type": "DT_FLOAT"}, "explicit_paddings": {"list": {}}, "TArgs": {"list": {"type": ["DT_FLOAT"]}}, "dilations": {"list": {"i": ["1", "1", "1", "1"]}}, "fused_ops": {"list": {"s": ["Qmlhc0FkZA=="]}}, "use_cudnn_on_gpu": {"b": true}, "epsilon": {"f": 0.0}, "num_host_args": {"i": "0"}, "num_args": {"i": "1"}, "data_format": {"s": "TkhXQw=="}}}, {"name": "PartitionedCall/model/tf.math.sigmoid_53/Sigmoid", "op": "Sigmoid", "input": ["PartitionedCall/model/tf.math.add_63/Add"], "attr": {"T": {"type": "DT_FLOAT"}}}, {"name": "PartitionedCall/model/tf.math.sigmoid_54/Sigmoid", "op": "Sigmoid", "input": ["PartitionedCall/model/tf.math.add_64/Add"], "attr": {"T": {"type": "DT_FLOAT"}}}, {"name": "PartitionedCall/model/tf.math.multiply_173/Mul", "op": "Mul", "input": ["PartitionedCall/model/tf.math.add_63/Add", "PartitionedCall/model/tf.math.sigmoid_53/Sigmoid"], "attr": {"T": {"type": "DT_FLOAT"}}}, {"name": "PartitionedCall/model/tf.math.multiply_176/Mul", "op": "Mul", "input": ["PartitionedCall/model/tf.math.add_64/Add", "PartitionedCall/model/tf.math.sigmoid_54/Sigmoid"], "attr": {"T": {"type": "DT_FLOAT"}}}, {"name": "PartitionedCall/model/tf.math.add_65/Add", "op": "_FusedConv2D", "input": ["PartitionedCall/model/tf.math.multiply_173/Mul", "4155", "4167"], "device": "/device:CPU:0", "attr": {"TArgs": {"list": {"type": ["DT_FLOAT"]}}, "epsilon": {"f": 0.0}, "T": {"type": "DT_FLOAT"}, "strides": {"list": {"i": ["1", "1", "1", "1"]}}, "fused_ops": {"list": {"s": ["Qmlhc0FkZA=="]}}, "data_format": {"s": "TkhXQw=="}, "padding": {"s": "U0FNRQ=="}, "use_cudnn_on_gpu": {"b": true}, "explicit_paddings": {"list": {}}, "dilations": {"list": {"i": ["1", "1", "1", "1"]}}, "num_host_args": {"i": "0"}, "leakyrelu_alpha": {"f": 0.2}, "filter_format": {"s": "SFdJTw=="}, "num_args": {"i": "1"}}}, {"name": "PartitionedCall/model/tf.math.add_66/Add", "op": "_FusedConv2D", "input": ["PartitionedCall/model/tf.math.multiply_176/Mul", "4153", "4165"], "device": "/device:CPU:0", "attr": {"dilations": {"list": {"i": ["1", "1", "1", "1"]}}, "epsilon": {"f": 0.0}, "num_host_args": {"i": "0"}, "leakyrelu_alpha": {"f": 0.2}, "filter_format": {"s": "SFdJTw=="}, "data_format": {"s": "TkhXQw=="}, "fused_ops": {"list": {"s": ["Qmlhc0FkZA=="]}}, "use_cudnn_on_gpu": {"b": true}, "explicit_paddings": {"list": {}}, "strides": {"list": {"i": ["1", "1", "1", "1"]}}, "T": {"type": "DT_FLOAT"}, "padding": {"s": "U0FNRQ=="}, "num_args": {"i": "1"}, "TArgs": {"list": {"type": ["DT_FLOAT"]}}}}, {"name": "PartitionedCall/model/tf.math.sigmoid_55/Sigmoid", "op": "Sigmoid", "input": ["PartitionedCall/model/tf.math.add_65/Add"], "attr": {"T": {"type": "DT_FLOAT"}}}, {"name": "PartitionedCall/model/tf.math.sigmoid_56/Sigmoid", "op": "Sigmoid", "input": ["PartitionedCall/model/tf.math.add_66/Add"], "attr": {"T": {"type": "DT_FLOAT"}}}, {"name": "PartitionedCall/model/tf.math.multiply_179/Mul", "op": "Mul", "input": ["PartitionedCall/model/tf.math.add_65/Add", "PartitionedCall/model/tf.math.sigmoid_55/Sigmoid"], "attr": {"T": {"type": "DT_FLOAT"}}}, {"name": "PartitionedCall/model/tf.math.multiply_182/Mul", "op": "Mul", "input": ["PartitionedCall/model/tf.math.add_66/Add", "PartitionedCall/model/tf.math.sigmoid_56/Sigmoid"], "attr": {"T": {"type": "DT_FLOAT"}}}, {"name": "PartitionedCall/model/tf.math.add_67/Add", "op": "_FusedConv2D", "input": ["PartitionedCall/model/tf.math.multiply_179/Mul", "4179", "4189"], "device": "/device:CPU:0", "attr": {"fused_ops": {"list": {"s": ["Qmlhc0FkZA=="]}}, "T": {"type": "DT_FLOAT"}, "TArgs": {"list": {"type": ["DT_FLOAT"]}}, "data_format": {"s": "TkhXQw=="}, "padding": {"s": "U0FNRQ=="}, "num_host_args": {"i": "0"}, "use_cudnn_on_gpu": {"b": true}, "leakyrelu_alpha": {"f": 0.2}, "explicit_paddings": {"list": {}}, "filter_format": {"s": "SFdJTw=="}, "epsilon": {"f": 0.0}, "dilations": {"list": {"i": ["1", "1", "1", "1"]}}, "num_args": {"i": "1"}, "strides": {"list": {"i": ["1", "1", "1", "1"]}}}}, {"name": "PartitionedCall/model/tf.math.add_68/Add", "op": "_FusedConv2D", "input": ["PartitionedCall/model/tf.math.multiply_182/Mul", "4177", "4191"], "device": "/device:CPU:0", "attr": {"dilations": {"list": {"i": ["1", "1", "1", "1"]}}, "TArgs": {"list": {"type": ["DT_FLOAT"]}}, "num_args": {"i": "1"}, "T": {"type": "DT_FLOAT"}, "num_host_args": {"i": "0"}, "leakyrelu_alpha": {"f": 0.2}, "data_format": {"s": "TkhXQw=="}, "fused_ops": {"list": {"s": ["Qmlhc0FkZA=="]}}, "padding": {"s": "U0FNRQ=="}, "explicit_paddings": {"list": {}}, "filter_format": {"s": "SFdJTw=="}, "strides": {"list": {"i": ["1", "1", "1", "1"]}}, "use_cudnn_on_gpu": {"b": true}, "epsilon": {"f": 0.0}}}, {"name": "PartitionedCall/model/tf.concat_15/concat", "op": "ConcatV2", "input": ["PartitionedCall/model/tf.math.add_67/Add", "PartitionedCall/model/tf.math.add_68/Add", "PartitionedCall/model/tf.concat_15/concat/axis"], "attr": {"T": {"type": "DT_FLOAT"}, "Tidx": {"type": "DT_INT32"}, "N": {"i": "2"}}}, {"name": "PartitionedCall/model/tf.compat.v1.transpose_2/transpose", "op": "Transpose", "input": ["PartitionedCall/model/tf.concat_15/concat", "PartitionedCall/model/tf.compat.v1.transpose_2/transpose/perm"], "attr": {"T": {"type": "DT_FLOAT"}, "Tperm": {"type": "DT_INT32"}}}, {"name": "PartitionedCall/model/tf.reshape_2/Reshape", "op": "Reshape", "input": ["PartitionedCall/model/tf.compat.v1.transpose_2/transpose", "PartitionedCall/model/tf.reshape_2/Reshape/shape"], "attr": {"T": {"type": "DT_FLOAT"}, "Tshape": {"type": "DT_INT32"}}}, {"name": "PartitionedCall/model/tf.concat_16/concat", "op": "ConcatV2", "input": ["PartitionedCall/model/tf.reshape/Reshape", "PartitionedCall/model/tf.reshape_1/Reshape", "PartitionedCall/model/tf.reshape_2/Reshape", "PartitionedCall/model/tf.concat_16/concat/axis"], "attr": {"N": {"i": "3"}, "Tidx": {"type": "DT_INT32"}, "T": {"type": "DT_FLOAT"}}}, {"name": "PartitionedCall/model/tf.strided_slice_17/StridedSlice", "op": "StridedSlice", "input": ["PartitionedCall/model/tf.concat_16/concat", "4221", "4223", "PartitionedCall/model/tf.strided_slice_17/StridedSlice/strides"], "attr": {"Index": {"type": "DT_INT64"}, "T": {"type": "DT_FLOAT"}, "begin_mask": {"i": "5"}, "new_axis_mask": {"i": "0"}, "ellipsis_mask": {"i": "0"}, "end_mask": {"i": "5"}, "shrink_axis_mask": {"i": "0"}}}, {"name": "PartitionedCall/model/tf.strided_slice_16/StridedSlice", "op": "StridedSlice", "input": ["PartitionedCall/model/tf.concat_16/concat", "4201", "4203", "PartitionedCall/model/tf.strided_slice_16/StridedSlice/strides"], "attr": {"Index": {"type": "DT_INT64"}, "ellipsis_mask": {"i": "0"}, "begin_mask": {"i": "7"}, "end_mask": {"i": "5"}, "T": {"type": "DT_FLOAT"}, "new_axis_mask": {"i": "0"}, "shrink_axis_mask": {"i": "0"}}}, {"name": "PartitionedCall/model/tf.math.sigmoid_57/Sigmoid", "op": "Sigmoid", "input": ["PartitionedCall/model/tf.strided_slice_17/StridedSlice"], "attr": {"T": {"type": "DT_FLOAT"}}}, {"name": "PartitionedCall/model/tf.reshape_3/Reshape", "op": "Reshape", "input": ["PartitionedCall/model/tf.strided_slice_16/StridedSlice", "PartitionedCall/model/tf.reshape_3/Reshape/shape"], "attr": {"Tshape": {"type": "DT_INT32"}, "T": {"type": "DT_FLOAT"}}}, {"name": "PartitionedCall/model/tf.compat.v1.transpose_4/transpose", "op": "Transpose", "input": ["PartitionedCall/model/tf.reshape_3/Reshape", "PartitionedCall/model/tf.compat.v1.transpose_4/transpose/perm"], "attr": {"Tperm": {"type": "DT_INT32"}, "T": {"type": "DT_FLOAT"}}}, {"name": "PartitionedCall/model/tf.compat.v1.transpose_5/transpose", "op": "Transpose", "input": ["PartitionedCall/model/tf.compat.v1.transpose_4/transpose", "PartitionedCall/model/tf.compat.v1.transpose_5/transpose/perm"], "attr": {"Tperm": {"type": "DT_INT32"}, "T": {"type": "DT_FLOAT"}}}, {"name": "PartitionedCall/model/tf.nn.softmax//model.22/dfl/Softmax", "op": "Softmax", "input": ["PartitionedCall/model/tf.compat.v1.transpose_5/transpose"], "attr": {"T": {"type": "DT_FLOAT"}}}, {"name": "PartitionedCall/model/tf.nn.convolution_63/convolution", "op": "Conv2D", "input": ["PartitionedCall/model/tf.nn.softmax//model.22/dfl/Softmax", "4205"], "device": "/device:CPU:0", "attr": {"explicit_paddings": {"list": {}}, "T": {"type": "DT_FLOAT"}, "padding": {"s": "U0FNRQ=="}, "data_format": {"s": "TkhXQw=="}, "strides": {"list": {"i": ["1", "1", "1", "1"]}}, "use_cudnn_on_gpu": {"b": true}, "dilations": {"list": {"i": ["1", "1", "1", "1"]}}}}, {"name": "PartitionedCall/model/tf.compat.v1.transpose_8/transpose", "op": "Transpose", "input": ["PartitionedCall/model/tf.nn.convolution_63/convolution", "PartitionedCall/model/tf.compat.v1.transpose_8/transpose/perm"], "attr": {"T": {"type": "DT_FLOAT"}, "Tperm": {"type": "DT_INT32"}}}, {"name": "PartitionedCall/model/tf.reshape_4/Reshape", "op": "Reshape", "input": ["PartitionedCall/model/tf.compat.v1.transpose_8/transpose", "PartitionedCall/model/tf.reshape_4/Reshape/shape"], "attr": {"Tshape": {"type": "DT_INT32"}, "T": {"type": "DT_FLOAT"}}}, {"name": "PartitionedCall/model/tf.strided_slice_19/StridedSlice", "op": "StridedSlice", "input": ["PartitionedCall/model/tf.reshape_4/Reshape", "4207", "4209", "PartitionedCall/model/tf.strided_slice_19/ones_like"], "attr": {"shrink_axis_mask": {"i": "0"}, "T": {"type": "DT_FLOAT"}, "begin_mask": {"i": "5"}, "end_mask": {"i": "5"}, "Index": {"type": "DT_INT64"}, "new_axis_mask": {"i": "0"}, "ellipsis_mask": {"i": "0"}}}, {"name": "PartitionedCall/model/tf.strided_slice_18/StridedSlice", "op": "StridedSlice", "input": ["PartitionedCall/model/tf.reshape_4/Reshape", "4211", "4213", "PartitionedCall/model/tf.strided_slice_18/ones_like"], "attr": {"begin_mask": {"i": "7"}, "end_mask": {"i": "5"}, "new_axis_mask": {"i": "0"}, "ellipsis_mask": {"i": "0"}, "T": {"type": "DT_FLOAT"}, "Index": {"type": "DT_INT64"}, "shrink_axis_mask": {"i": "0"}}}, {"name": "PartitionedCall/model/tf.math.add_69/Add", "op": "AddV2", "input": ["4215", "PartitionedCall/model/tf.strided_slice_19/StridedSlice"], "attr": {"T": {"type": "DT_FLOAT"}}}, {"name": "PartitionedCall/model/tf.math.subtract/Sub", "op": "Sub", "input": ["4217", "PartitionedCall/model/tf.strided_slice_18/StridedSlice"], "attr": {"T": {"type": "DT_FLOAT"}}}, {"name": "PartitionedCall/model/tf.math.add_70/Add", "op": "AddV2", "input": ["PartitionedCall/model/tf.math.subtract/Sub", "PartitionedCall/model/tf.math.add_69/Add"], "attr": {"T": {"type": "DT_FLOAT"}}}, {"name": "PartitionedCall/model/tf.math.subtract_1/Sub", "op": "Sub", "input": ["PartitionedCall/model/tf.math.add_69/Add", "PartitionedCall/model/tf.math.subtract/Sub"], "attr": {"T": {"type": "DT_FLOAT"}}}, {"name": "PartitionedCall/model/tf.math.divide/truediv", "op": "Mul", "input": ["PartitionedCall/model/tf.math.add_70/Add", "ConstantFolding/PartitionedCall/model/tf.math.divide/truediv_recip"], "attr": {"T": {"type": "DT_FLOAT"}}}, {"name": "PartitionedCall/model/tf.concat_17/concat", "op": "ConcatV2", "input": ["PartitionedCall/model/tf.math.divide/truediv", "PartitionedCall/model/tf.math.subtract_1/Sub", "PartitionedCall/model/tf.concat_17/concat/axis"], "attr": {"N": {"i": "2"}, "T": {"type": "DT_FLOAT"}, "Tidx": {"type": "DT_INT32"}}}, {"name": "PartitionedCall/model/tf.math.multiply_195/Mul", "op": "Mul", "input": ["PartitionedCall/model/tf.concat_17/concat", "PartitionedCall/model/tf.math.multiply_195/Mul/y"], "attr": {"T": {"type": "DT_FLOAT"}}}, {"name": "PartitionedCall/model/output0/concat", "op": "ConcatV2", "input": ["PartitionedCall/model/tf.math.multiply_195/Mul", "PartitionedCall/model/tf.math.sigmoid_57/Sigmoid", "PartitionedCall/model/output0/concat/axis"], "attr": {"N": {"i": "2"}, "Tidx": {"type": "DT_INT32"}, "T": {"type": "DT_FLOAT"}}}, {"name": "Identity", "op": "Identity", "input": ["PartitionedCall/model/output0/concat"], "attr": {"T": {"type": "DT_FLOAT"}}}], "library": {}, "versions": {"producer": 1482}}, "weightsManifest": [{"paths": ["group1-shard1of3.bin", "group1-shard2of3.bin", "group1-shard3of3.bin"], "weights": [{"name": "ConstantFolding/PartitionedCall/model/tf.math.divide/truediv_recip", "shape": [1, 1, 1], "dtype": "float32"}, {"name": "4215", "shape": [1, 2, 8400], "dtype": "float32"}, {"name": "4207", "shape": [3], "dtype": "int32"}, {"name": "4209", "shape": [3], "dtype": "int32"}, {"name": "PartitionedCall/model/tf.strided_slice_19/ones_like", "shape": [3], "dtype": "int32"}, {"name": "4217", "shape": [1, 2, 8400], "dtype": "float32"}, {"name": "4201", "shape": [3], "dtype": "int32"}, {"name": "4203", "shape": [3], "dtype": "int32"}, {"name": "PartitionedCall/model/tf.strided_slice_16/StridedSlice/strides", "shape": [3], "dtype": "int32"}, {"name": "PartitionedCall/model/tf.reshape_3/Reshape/shape", "shape": [4], "dtype": "int32"}, {"name": "PartitionedCall/model/tf.compat.v1.transpose_4/transpose/perm", "shape": [4], "dtype": "int32"}, {"name": "PartitionedCall/model/tf.compat.v1.transpose_5/transpose/perm", "shape": [4], "dtype": "int32"}, {"name": "4205", "shape": [1, 1, 16, 1], "dtype": "float32"}, {"name": "PartitionedCall/model/tf.compat.v1.transpose_8/transpose/perm", "shape": [4], "dtype": "int32"}, {"name": "PartitionedCall/model/tf.reshape_4/Reshape/shape", "shape": [3], "dtype": "int32"}, {"name": "4211", "shape": [3], "dtype": "int32"}, {"name": "4213", "shape": [3], "dtype": "int32"}, {"name": "PartitionedCall/model/tf.strided_slice_18/ones_like", "shape": [3], "dtype": "int32"}, {"name": "PartitionedCall/model/tf.concat_17/concat/axis", "shape": [], "dtype": "int32"}, {"name": "PartitionedCall/model/tf.math.multiply_195/Mul/y", "shape": [1, 1, 8400], "dtype": "float32"}, {"name": "4139", "shape": [3, 3, 64, 64], "dtype": "float32"}, {"name": "4151", "shape": [64], "dtype": "float32"}, {"name": "4163", "shape": [3, 3, 64, 64], "dtype": "float32"}, {"name": "4175", "shape": [64], "dtype": "float32"}, {"name": "4187", "shape": [1, 1, 64, 64], "dtype": "float32"}, {"name": "4197", "shape": [64], "dtype": "float32"}, {"name": "4137", "shape": [3, 3, 64, 64], "dtype": "float32"}, {"name": "4149", "shape": [64], "dtype": "float32"}, {"name": "4161", "shape": [3, 3, 64, 64], "dtype": "float32"}, {"name": "4173", "shape": [64], "dtype": "float32"}, {"name": "4185", "shape": [1, 1, 64, 3], "dtype": "float32"}, {"name": "4199", "shape": [3], "dtype": "float32"}, {"name": "PartitionedCall/model/tf.concat_10/concat/axis", "shape": [], "dtype": "int32"}, {"name": "PartitionedCall/model/tf.compat.v1.transpose/transpose/perm", "shape": [4], "dtype": "int32"}, {"name": "PartitionedCall/model/tf.reshape/Reshape/shape", "shape": [3], "dtype": "int32"}, {"name": "4135", "shape": [3, 3, 128, 64], "dtype": "float32"}, {"name": "4147", "shape": [64], "dtype": "float32"}, {"name": "4159", "shape": [3, 3, 64, 64], "dtype": "float32"}, {"name": "4171", "shape": [64], "dtype": "float32"}, {"name": "4183", "shape": [1, 1, 64, 64], "dtype": "float32"}, {"name": "4193", "shape": [64], "dtype": "float32"}, {"name": "4133", "shape": [3, 3, 128, 64], "dtype": "float32"}, {"name": "4145", "shape": [64], "dtype": "float32"}, {"name": "4157", "shape": [3, 3, 64, 64], "dtype": "float32"}, {"name": "4169", "shape": [64], "dtype": "float32"}, {"name": "4181", "shape": [1, 1, 64, 3], "dtype": "float32"}, {"name": "4195", "shape": [3], "dtype": "float32"}, {"name": "PartitionedCall/model/tf.concat_13/concat/axis", "shape": [], "dtype": "int32"}, {"name": "PartitionedCall/model/tf.compat.v1.transpose_1/transpose/perm", "shape": [4], "dtype": "int32"}, {"name": "PartitionedCall/model/tf.reshape_1/Reshape/shape", "shape": [3], "dtype": "int32"}, {"name": "4131", "shape": [3, 3, 256, 64], "dtype": "float32"}, {"name": "4143", "shape": [64], "dtype": "float32"}, {"name": "4155", "shape": [3, 3, 64, 64], "dtype": "float32"}, {"name": "4167", "shape": [64], "dtype": "float32"}, {"name": "4179", "shape": [1, 1, 64, 64], "dtype": "float32"}, {"name": "4189", "shape": [64], "dtype": "float32"}, {"name": "4121", "shape": [4], "dtype": "int32"}, {"name": "4123", "shape": [4], "dtype": "int32"}, {"name": "PartitionedCall/model/tf.strided_slice_14/ones_like", "shape": [4], "dtype": "int32"}, {"name": "4091", "shape": [4], "dtype": "int32"}, {"name": "4093", "shape": [4], "dtype": "int32"}, {"name": "PartitionedCall/model/tf.strided_slice_12/ones_like", "shape": [4], "dtype": "int32"}, {"name": "4061", "shape": [4], "dtype": "int32"}, {"name": "4063", "shape": [4], "dtype": "int32"}, {"name": "PartitionedCall/model/tf.strided_slice_10/ones_like", "shape": [4], "dtype": "int32"}, {"name": "PartitionedCall/model/lambda_1//model.13/Resize/size", "shape": [2], "dtype": "int32"}, {"name": "PartitionedCall/model/tf.concat_7/concat/axis", "shape": [], "dtype": "int32"}, {"name": "4045", "shape": [1, 1, 192, 64], "dtype": "float32"}, {"name": "4047", "shape": [64], "dtype": "float32"}, {"name": "4049", "shape": [4], "dtype": "int32"}, {"name": "4051", "shape": [4], "dtype": "int32"}, {"name": "PartitionedCall/model/tf.strided_slice_11/ones_like", "shape": [4], "dtype": "int32"}, {"name": "4053", "shape": [3, 3, 32, 32], "dtype": "float32"}, {"name": "4055", "shape": [32], "dtype": "float32"}, {"name": "4057", "shape": [3, 3, 32, 32], "dtype": "float32"}, {"name": "4059", "shape": [32], "dtype": "float32"}, {"name": "PartitionedCall/model/tf.concat_8/concat/axis", "shape": [], "dtype": "int32"}, {"name": "4065", "shape": [1, 1, 96, 64], "dtype": "float32"}, {"name": "4067", "shape": [64], "dtype": "float32"}, {"name": "4069", "shape": [4, 2], "dtype": "int32"}, {"name": "4071", "shape": [3, 3, 64, 64], "dtype": "float32"}, {"name": "4073", "shape": [64], "dtype": "float32"}, {"name": "4037", "shape": [4], "dtype": "int32"}, {"name": "4039", "shape": [4], "dtype": "int32"}, {"name": "PartitionedCall/model/tf.strided_slice_8/ones_like", "shape": [4], "dtype": "int32"}, {"name": "PartitionedCall/model/lambda//model.10/Resize/size", "shape": [2], "dtype": "int32"}, {"name": "PartitionedCall/model/tf.concat_5/concat/axis", "shape": [], "dtype": "int32"}, {"name": "4021", "shape": [1, 1, 384, 128], "dtype": "float32"}, {"name": "4023", "shape": [128], "dtype": "float32"}, {"name": "4025", "shape": [4], "dtype": "int32"}, {"name": "4027", "shape": [4], "dtype": "int32"}, {"name": "PartitionedCall/model/tf.strided_slice_9/ones_like", "shape": [4], "dtype": "int32"}, {"name": "4029", "shape": [3, 3, 64, 64], "dtype": "float32"}, {"name": "4031", "shape": [64], "dtype": "float32"}, {"name": "4033", "shape": [3, 3, 64, 64], "dtype": "float32"}, {"name": "4035", "shape": [64], "dtype": "float32"}, {"name": "PartitionedCall/model/tf.concat_6/concat/axis", "shape": [], "dtype": "int32"}, {"name": "4041", "shape": [1, 1, 192, 128], "dtype": "float32"}, {"name": "4043", "shape": [128], "dtype": "float32"}, {"name": "PartitionedCall/model/tf.concat_9/concat/axis", "shape": [], "dtype": "int32"}, {"name": "4075", "shape": [1, 1, 192, 128], "dtype": "float32"}, {"name": "4077", "shape": [128], "dtype": "float32"}, {"name": "4079", "shape": [4], "dtype": "int32"}, {"name": "4081", "shape": [4], "dtype": "int32"}, {"name": "PartitionedCall/model/tf.strided_slice_13/ones_like", "shape": [4], "dtype": "int32"}, {"name": "4083", "shape": [3, 3, 64, 64], "dtype": "float32"}, {"name": "4085", "shape": [64], "dtype": "float32"}, {"name": "4087", "shape": [3, 3, 64, 64], "dtype": "float32"}, {"name": "4089", "shape": [64], "dtype": "float32"}, {"name": "PartitionedCall/model/tf.concat_11/concat/axis", "shape": [], "dtype": "int32"}, {"name": "4095", "shape": [1, 1, 192, 128], "dtype": "float32"}, {"name": "4097", "shape": [128], "dtype": "float32"}, {"name": "4099", "shape": [4, 2], "dtype": "int32"}, {"name": "4101", "shape": [3, 3, 128, 128], "dtype": "float32"}, {"name": "4103", "shape": [128], "dtype": "float32"}, {"name": "4005", "shape": [4], "dtype": "int32"}, {"name": "4007", "shape": [4], "dtype": "int32"}, {"name": "PartitionedCall/model/tf.strided_slice_6/ones_like", "shape": [4], "dtype": "int32"}, {"name": "3975", "shape": [4], "dtype": "int32"}, {"name": "3977", "shape": [4], "dtype": "int32"}, {"name": "PartitionedCall/model/tf.strided_slice_4/ones_like", "shape": [4], "dtype": "int32"}, {"name": "3937", "shape": [4], "dtype": "int32"}, {"name": "3939", "shape": [4], "dtype": "int32"}, {"name": "PartitionedCall/model/tf.strided_slice_2/ones_like", "shape": [4], "dtype": "int32"}, {"name": "3899", "shape": [4], "dtype": "int32"}, {"name": "3901", "shape": [4], "dtype": "int32"}, {"name": "PartitionedCall/model/tf.strided_slice/ones_like", "shape": [4], "dtype": "int32"}, {"name": "3871", "shape": [4, 2], "dtype": "int32"}, {"name": "3873", "shape": [3, 3, 3, 16], "dtype": "float32"}, {"name": "3875", "shape": [16], "dtype": "float32"}, {"name": "3877", "shape": [4, 2], "dtype": "int32"}, {"name": "3879", "shape": [3, 3, 16, 32], "dtype": "float32"}, {"name": "3881", "shape": [32], "dtype": "float32"}, {"name": "3883", "shape": [1, 1, 32, 32], "dtype": "float32"}, {"name": "3885", "shape": [32], "dtype": "float32"}, {"name": "3887", "shape": [4], "dtype": "int32"}, {"name": "3889", "shape": [4], "dtype": "int32"}, {"name": "PartitionedCall/model/tf.strided_slice_1/ones_like", "shape": [4], "dtype": "int32"}, {"name": "3891", "shape": [3, 3, 16, 16], "dtype": "float32"}, {"name": "3893", "shape": [16], "dtype": "float32"}, {"name": "3895", "shape": [3, 3, 16, 16], "dtype": "float32"}, {"name": "3897", "shape": [16], "dtype": "float32"}, {"name": "PartitionedCall/model/tf.concat/concat/axis", "shape": [], "dtype": "int32"}, {"name": "3903", "shape": [1, 1, 48, 32], "dtype": "float32"}, {"name": "3905", "shape": [32], "dtype": "float32"}, {"name": "3907", "shape": [4, 2], "dtype": "int32"}, {"name": "3909", "shape": [3, 3, 32, 64], "dtype": "float32"}, {"name": "3911", "shape": [64], "dtype": "float32"}, {"name": "3913", "shape": [1, 1, 64, 64], "dtype": "float32"}, {"name": "3915", "shape": [64], "dtype": "float32"}, {"name": "3917", "shape": [4], "dtype": "int32"}, {"name": "3919", "shape": [4], "dtype": "int32"}, {"name": "PartitionedCall/model/tf.strided_slice_3/ones_like", "shape": [4], "dtype": "int32"}, {"name": "3921", "shape": [3, 3, 32, 32], "dtype": "float32"}, {"name": "3923", "shape": [32], "dtype": "float32"}, {"name": "3925", "shape": [3, 3, 32, 32], "dtype": "float32"}, {"name": "3927", "shape": [32], "dtype": "float32"}, {"name": "3929", "shape": [3, 3, 32, 32], "dtype": "float32"}, {"name": "3931", "shape": [32], "dtype": "float32"}, {"name": "3933", "shape": [3, 3, 32, 32], "dtype": "float32"}, {"name": "3935", "shape": [32], "dtype": "float32"}, {"name": "PartitionedCall/model/tf.concat_1/concat/axis", "shape": [], "dtype": "int32"}, {"name": "3941", "shape": [1, 1, 128, 64], "dtype": "float32"}, {"name": "3943", "shape": [64], "dtype": "float32"}, {"name": "3945", "shape": [4, 2], "dtype": "int32"}, {"name": "3947", "shape": [3, 3, 64, 128], "dtype": "float32"}, {"name": "3949", "shape": [128], "dtype": "float32"}, {"name": "3951", "shape": [1, 1, 128, 128], "dtype": "float32"}, {"name": "3953", "shape": [128], "dtype": "float32"}, {"name": "3955", "shape": [4], "dtype": "int32"}, {"name": "3957", "shape": [4], "dtype": "int32"}, {"name": "PartitionedCall/model/tf.strided_slice_5/ones_like", "shape": [4], "dtype": "int32"}, {"name": "3959", "shape": [3, 3, 64, 64], "dtype": "float32"}, {"name": "3961", "shape": [64], "dtype": "float32"}, {"name": "3963", "shape": [3, 3, 64, 64], "dtype": "float32"}, {"name": "3965", "shape": [64], "dtype": "float32"}, {"name": "3967", "shape": [3, 3, 64, 64], "dtype": "float32"}, {"name": "3969", "shape": [64], "dtype": "float32"}, {"name": "3971", "shape": [3, 3, 64, 64], "dtype": "float32"}, {"name": "3973", "shape": [64], "dtype": "float32"}, {"name": "PartitionedCall/model/tf.concat_2/concat/axis", "shape": [], "dtype": "int32"}, {"name": "3979", "shape": [1, 1, 256, 128], "dtype": "float32"}, {"name": "3981", "shape": [128], "dtype": "float32"}, {"name": "3983", "shape": [4, 2], "dtype": "int32"}, {"name": "3985", "shape": [3, 3, 128, 256], "dtype": "float32"}, {"name": "3987", "shape": [256], "dtype": "float32"}, {"name": "3989", "shape": [1, 1, 256, 256], "dtype": "float32"}, {"name": "3991", "shape": [256], "dtype": "float32"}, {"name": "3993", "shape": [4], "dtype": "int32"}, {"name": "3995", "shape": [4], "dtype": "int32"}, {"name": "PartitionedCall/model/tf.strided_slice_7/ones_like", "shape": [4], "dtype": "int32"}, {"name": "3997", "shape": [3, 3, 128, 128], "dtype": "float32"}, {"name": "3999", "shape": [128], "dtype": "float32"}, {"name": "4001", "shape": [3, 3, 128, 128], "dtype": "float32"}, {"name": "4003", "shape": [128], "dtype": "float32"}, {"name": "PartitionedCall/model/tf.concat_3/concat/axis", "shape": [], "dtype": "int32"}, {"name": "4009", "shape": [1, 1, 384, 256], "dtype": "float32"}, {"name": "4011", "shape": [256], "dtype": "float32"}, {"name": "4013", "shape": [1, 1, 256, 128], "dtype": "float32"}, {"name": "4015", "shape": [128], "dtype": "float32"}, {"name": "PartitionedCall/model/tf.concat_4/concat/axis", "shape": [], "dtype": "int32"}, {"name": "4017", "shape": [1, 1, 512, 256], "dtype": "float32"}, {"name": "4019", "shape": [256], "dtype": "float32"}, {"name": "PartitionedCall/model/tf.concat_12/concat/axis", "shape": [], "dtype": "int32"}, {"name": "4105", "shape": [1, 1, 384, 256], "dtype": "float32"}, {"name": "4107", "shape": [256], "dtype": "float32"}, {"name": "4109", "shape": [4], "dtype": "int32"}, {"name": "4111", "shape": [4], "dtype": "int32"}, {"name": "PartitionedCall/model/tf.strided_slice_15/ones_like", "shape": [4], "dtype": "int32"}, {"name": "4113", "shape": [3, 3, 128, 128], "dtype": "float32"}, {"name": "4115", "shape": [128], "dtype": "float32"}, {"name": "4117", "shape": [3, 3, 128, 128], "dtype": "float32"}, {"name": "4119", "shape": [128], "dtype": "float32"}, {"name": "PartitionedCall/model/tf.concat_14/concat/axis", "shape": [], "dtype": "int32"}, {"name": "4125", "shape": [1, 1, 384, 256], "dtype": "float32"}, {"name": "4127", "shape": [256], "dtype": "float32"}, {"name": "4129", "shape": [3, 3, 256, 64], "dtype": "float32"}, {"name": "4141", "shape": [64], "dtype": "float32"}, {"name": "4153", "shape": [3, 3, 64, 64], "dtype": "float32"}, {"name": "4165", "shape": [64], "dtype": "float32"}, {"name": "4177", "shape": [1, 1, 64, 3], "dtype": "float32"}, {"name": "4191", "shape": [3], "dtype": "float32"}, {"name": "PartitionedCall/model/tf.concat_15/concat/axis", "shape": [], "dtype": "int32"}, {"name": "PartitionedCall/model/tf.compat.v1.transpose_2/transpose/perm", "shape": [4], "dtype": "int32"}, {"name": "PartitionedCall/model/tf.reshape_2/Reshape/shape", "shape": [3], "dtype": "int32"}, {"name": "PartitionedCall/model/tf.concat_16/concat/axis", "shape": [], "dtype": "int32"}, {"name": "4221", "shape": [3], "dtype": "int32"}, {"name": "4223", "shape": [3], "dtype": "int32"}, {"name": "PartitionedCall/model/tf.strided_slice_17/StridedSlice/strides", "shape": [3], "dtype": "int32"}, {"name": "PartitionedCall/model/output0/concat/axis", "shape": [], "dtype": "int32"}]}]}