{
  "format": "graph-model",
  "generatedBy": "TensorFlow.js v2.10.1",
  "convertedBy": "TensorFlow.js Converter v3.21.0",
  "signature": {
    "outputs": {
      "Identity:0": {
        "name": "Identity:0"
      }
    }
  },
  "modelTopology": {
    "node": [
      {
        "name": "ConstantFolding/PartitionedCall/model/tf.math.divide/truediv_recip",
        "op": "Const",
        "attr": {
          "value": {
            "tensor": {
              "dtype": "DT_FLOAT",
              "tensorShape": {
                "dim": [
                  {
                    "size": "1"
                  },
                  {
                    "size": "1"
                  },
                  {
                    "size": "1"
                  }
                ]
              }
            }
          },
          "dtype": {
            "type": "DT_FLOAT"
          }
        }
      },
      {
        "name": "4218",
        "op": "Const",
        "attr": {
          "value": {
            "tensor": {
              "dtype": "DT_FLOAT",
              "tensorShape": {
                "dim": [
                  {
                    "size": "1"
                  },
                  {
                    "size": "2"
                  },
                  {
                    "size": "8400"
                  }
                ]
              }
            }
          },
          "dtype": {
            "type": "DT_FLOAT"
          }
        }
      },
      {
        "name": "4210",
        "op": "Const",
        "attr": {
          "dtype": {
            "type": "DT_INT64"
          },
          "value": {
            "tensor": {
              "dtype": "DT_INT64",
              "tensorShape": {
                "dim": [
                  {
                    "size": "3"
                  }
                ]
              }
            }
          }
        }
      },
      {
        "name": "4212",
        "op": "Const",
        "attr": {
          "value": {
            "tensor": {
              "dtype": "DT_INT64",
              "tensorShape": {
                "dim": [
                  {
                    "size": "3"
                  }
                ]
              }
            }
          },
          "dtype": {
            "type": "DT_INT64"
          }
        }
      },
      {
        "name": "PartitionedCall/model/tf.strided_slice_19/ones_like",
        "op": "Const",
        "attr": {
          "value": {
            "tensor": {
              "dtype": "DT_INT64",
              "tensorShape": {
                "dim": [
                  {
                    "size": "3"
                  }
                ]
              }
            }
          },
          "dtype": {
            "type": "DT_INT64"
          }
        }
      },
      {
        "name": "4220",
        "op": "Const",
        "attr": {
          "dtype": {
            "type": "DT_FLOAT"
          },
          "value": {
            "tensor": {
              "dtype": "DT_FLOAT",
              "tensorShape": {
                "dim": [
                  {
                    "size": "1"
                  },
                  {
                    "size": "2"
                  },
                  {
                    "size": "8400"
                  }
                ]
              }
            }
          }
        }
      },
      {
        "name": "4204",
        "op": "Const",
        "attr": {
          "dtype": {
            "type": "DT_INT64"
          },
          "value": {
            "tensor": {
              "dtype": "DT_INT64",
              "tensorShape": {
                "dim": [
                  {
                    "size": "3"
                  }
                ]
              }
            }
          }
        }
      },
      {
        "name": "4206",
        "op": "Const",
        "attr": {
          "value": {
            "tensor": {
              "dtype": "DT_INT64",
              "tensorShape": {
                "dim": [
                  {
                    "size": "3"
                  }
                ]
              }
            }
          },
          "dtype": {
            "type": "DT_INT64"
          }
        }
      },
      {
        "name": "PartitionedCall/model/tf.strided_slice_16/StridedSlice/strides",
        "op": "Const",
        "attr": {
          "value": {
            "tensor": {
              "dtype": "DT_INT64",
              "tensorShape": {
                "dim": [
                  {
                    "size": "3"
                  }
                ]
              }
            }
          },
          "dtype": {
            "type": "DT_INT64"
          }
        }
      },
      {
        "name": "PartitionedCall/model/tf.reshape_3/Reshape/shape",
        "op": "Const",
        "attr": {
          "value": {
            "tensor": {
              "dtype": "DT_INT32",
              "tensorShape": {
                "dim": [
                  {
                    "size": "4"
                  }
                ]
              }
            }
          },
          "dtype": {
            "type": "DT_INT32"
          }
        }
      },
      {
        "name": "PartitionedCall/model/tf.compat.v1.transpose_4/transpose/perm",
        "op": "Const",
        "attr": {
          "value": {
            "tensor": {
              "dtype": "DT_INT32",
              "tensorShape": {
                "dim": [
                  {
                    "size": "4"
                  }
                ]
              }
            }
          },
          "dtype": {
            "type": "DT_INT32"
          }
        }
      },
      {
        "name": "PartitionedCall/model/tf.compat.v1.transpose_5/transpose/perm",
        "op": "Const",
        "attr": {
          "value": {
            "tensor": {
              "dtype": "DT_INT32",
              "tensorShape": {
                "dim": [
                  {
                    "size": "4"
                  }
                ]
              }
            }
          },
          "dtype": {
            "type": "DT_INT32"
          }
        }
      },
      {
        "name": "4208",
        "op": "Const",
        "attr": {
          "dtype": {
            "type": "DT_FLOAT"
          },
          "value": {
            "tensor": {
              "dtype": "DT_FLOAT",
              "tensorShape": {
                "dim": [
                  {
                    "size": "1"
                  },
                  {
                    "size": "1"
                  },
                  {
                    "size": "16"
                  },
                  {
                    "size": "1"
                  }
                ]
              }
            }
          }
        }
      },
      {
        "name": "PartitionedCall/model/tf.compat.v1.transpose_8/transpose/perm",
        "op": "Const",
        "attr": {
          "dtype": {
            "type": "DT_INT32"
          },
          "value": {
            "tensor": {
              "dtype": "DT_INT32",
              "tensorShape": {
                "dim": [
                  {
                    "size": "4"
                  }
                ]
              }
            }
          }
        }
      },
      {
        "name": "PartitionedCall/model/tf.reshape_4/Reshape/shape",
        "op": "Const",
        "attr": {
          "dtype": {
            "type": "DT_INT32"
          },
          "value": {
            "tensor": {
              "dtype": "DT_INT32",
              "tensorShape": {
                "dim": [
                  {
                    "size": "3"
                  }
                ]
              }
            }
          }
        }
      },
      {
        "name": "4214",
        "op": "Const",
        "attr": {
          "value": {
            "tensor": {
              "dtype": "DT_INT64",
              "tensorShape": {
                "dim": [
                  {
                    "size": "3"
                  }
                ]
              }
            }
          },
          "dtype": {
            "type": "DT_INT64"
          }
        }
      },
      {
        "name": "4216",
        "op": "Const",
        "attr": {
          "value": {
            "tensor": {
              "dtype": "DT_INT64",
              "tensorShape": {
                "dim": [
                  {
                    "size": "3"
                  }
                ]
              }
            }
          },
          "dtype": {
            "type": "DT_INT64"
          }
        }
      },
      {
        "name": "PartitionedCall/model/tf.strided_slice_18/ones_like",
        "op": "Const",
        "attr": {
          "value": {
            "tensor": {
              "dtype": "DT_INT64",
              "tensorShape": {
                "dim": [
                  {
                    "size": "3"
                  }
                ]
              }
            }
          },
          "dtype": {
            "type": "DT_INT64"
          }
        }
      },
      {
        "name": "PartitionedCall/model/tf.concat_17/concat/axis",
        "op": "Const",
        "attr": {
          "value": {
            "tensor": {
              "dtype": "DT_INT32",
              "tensorShape": {}
            }
          },
          "dtype": {
            "type": "DT_INT32"
          }
        }
      },
      {
        "name": "PartitionedCall/model/tf.math.multiply_195/Mul/y",
        "op": "Const",
        "attr": {
          "dtype": {
            "type": "DT_FLOAT"
          },
          "value": {
            "tensor": {
              "dtype": "DT_FLOAT",
              "tensorShape": {
                "dim": [
                  {
                    "size": "1"
                  },
                  {
                    "size": "1"
                  },
                  {
                    "size": "8400"
                  }
                ]
              }
            }
          }
        }
      },
      {
        "name": "4142",
        "op": "Const",
        "attr": {
          "value": {
            "tensor": {
              "dtype": "DT_FLOAT",
              "tensorShape": {
                "dim": [
                  {
                    "size": "3"
                  },
                  {
                    "size": "3"
                  },
                  {
                    "size": "64"
                  },
                  {
                    "size": "64"
                  }
                ]
              }
            }
          },
          "dtype": {
            "type": "DT_FLOAT"
          }
        }
      },
      {
        "name": "4154",
        "op": "Const",
        "attr": {
          "dtype": {
            "type": "DT_FLOAT"
          },
          "value": {
            "tensor": {
              "dtype": "DT_FLOAT",
              "tensorShape": {
                "dim": [
                  {
                    "size": "64"
                  }
                ]
              }
            }
          }
        }
      },
      {
        "name": "4166",
        "op": "Const",
        "attr": {
          "value": {
            "tensor": {
              "dtype": "DT_FLOAT",
              "tensorShape": {
                "dim": [
                  {
                    "size": "3"
                  },
                  {
                    "size": "3"
                  },
                  {
                    "size": "64"
                  },
                  {
                    "size": "64"
                  }
                ]
              }
            }
          },
          "dtype": {
            "type": "DT_FLOAT"
          }
        }
      },
      {
        "name": "4178",
        "op": "Const",
        "attr": {
          "value": {
            "tensor": {
              "dtype": "DT_FLOAT",
              "tensorShape": {
                "dim": [
                  {
                    "size": "64"
                  }
                ]
              }
            }
          },
          "dtype": {
            "type": "DT_FLOAT"
          }
        }
      },
      {
        "name": "4190",
        "op": "Const",
        "attr": {
          "value": {
            "tensor": {
              "dtype": "DT_FLOAT",
              "tensorShape": {
                "dim": [
                  {
                    "size": "1"
                  },
                  {
                    "size": "1"
                  },
                  {
                    "size": "64"
                  },
                  {
                    "size": "64"
                  }
                ]
              }
            }
          },
          "dtype": {
            "type": "DT_FLOAT"
          }
        }
      },
      {
        "name": "4200",
        "op": "Const",
        "attr": {
          "dtype": {
            "type": "DT_FLOAT"
          },
          "value": {
            "tensor": {
              "dtype": "DT_FLOAT",
              "tensorShape": {
                "dim": [
                  {
                    "size": "64"
                  }
                ]
              }
            }
          }
        }
      },
      {
        "name": "4140",
        "op": "Const",
        "attr": {
          "value": {
            "tensor": {
              "dtype": "DT_FLOAT",
              "tensorShape": {
                "dim": [
                  {
                    "size": "3"
                  },
                  {
                    "size": "3"
                  },
                  {
                    "size": "64"
                  },
                  {
                    "size": "64"
                  }
                ]
              }
            }
          },
          "dtype": {
            "type": "DT_FLOAT"
          }
        }
      },
      {
        "name": "4152",
        "op": "Const",
        "attr": {
          "dtype": {
            "type": "DT_FLOAT"
          },
          "value": {
            "tensor": {
              "dtype": "DT_FLOAT",
              "tensorShape": {
                "dim": [
                  {
                    "size": "64"
                  }
                ]
              }
            }
          }
        }
      },
      {
        "name": "4164",
        "op": "Const",
        "attr": {
          "dtype": {
            "type": "DT_FLOAT"
          },
          "value": {
            "tensor": {
              "dtype": "DT_FLOAT",
              "tensorShape": {
                "dim": [
                  {
                    "size": "3"
                  },
                  {
                    "size": "3"
                  },
                  {
                    "size": "64"
                  },
                  {
                    "size": "64"
                  }
                ]
              }
            }
          }
        }
      },
      {
        "name": "4176",
        "op": "Const",
        "attr": {
          "value": {
            "tensor": {
              "dtype": "DT_FLOAT",
              "tensorShape": {
                "dim": [
                  {
                    "size": "64"
                  }
                ]
              }
            }
          },
          "dtype": {
            "type": "DT_FLOAT"
          }
        }
      },
      {
        "name": "4188",
        "op": "Const",
        "attr": {
          "dtype": {
            "type": "DT_FLOAT"
          },
          "value": {
            "tensor": {
              "dtype": "DT_FLOAT",
              "tensorShape": {
                "dim": [
                  {
                    "size": "1"
                  },
                  {
                    "size": "1"
                  },
                  {
                    "size": "64"
                  },
                  {
                    "size": "5"
                  }
                ]
              }
            }
          }
        }
      },
      {
        "name": "4202",
        "op": "Const",
        "attr": {
          "value": {
            "tensor": {
              "dtype": "DT_FLOAT",
              "tensorShape": {
                "dim": [
                  {
                    "size": "5"
                  }
                ]
              }
            }
          },
          "dtype": {
            "type": "DT_FLOAT"
          }
        }
      },
      {
        "name": "PartitionedCall/model/tf.concat_10/concat/axis",
        "op": "Const",
        "attr": {
          "value": {
            "tensor": {
              "dtype": "DT_INT32",
              "tensorShape": {}
            }
          },
          "dtype": {
            "type": "DT_INT32"
          }
        }
      },
      {
        "name": "PartitionedCall/model/tf.compat.v1.transpose/transpose/perm",
        "op": "Const",
        "attr": {
          "dtype": {
            "type": "DT_INT32"
          },
          "value": {
            "tensor": {
              "dtype": "DT_INT32",
              "tensorShape": {
                "dim": [
                  {
                    "size": "4"
                  }
                ]
              }
            }
          }
        }
      },
      {
        "name": "PartitionedCall/model/tf.reshape/Reshape/shape",
        "op": "Const",
        "attr": {
          "value": {
            "tensor": {
              "dtype": "DT_INT32",
              "tensorShape": {
                "dim": [
                  {
                    "size": "3"
                  }
                ]
              }
            }
          },
          "dtype": {
            "type": "DT_INT32"
          }
        }
      },
      {
        "name": "4138",
        "op": "Const",
        "attr": {
          "dtype": {
            "type": "DT_FLOAT"
          },
          "value": {
            "tensor": {
              "dtype": "DT_FLOAT",
              "tensorShape": {
                "dim": [
                  {
                    "size": "3"
                  },
                  {
                    "size": "3"
                  },
                  {
                    "size": "128"
                  },
                  {
                    "size": "64"
                  }
                ]
              }
            }
          }
        }
      },
      {
        "name": "4150",
        "op": "Const",
        "attr": {
          "dtype": {
            "type": "DT_FLOAT"
          },
          "value": {
            "tensor": {
              "dtype": "DT_FLOAT",
              "tensorShape": {
                "dim": [
                  {
                    "size": "64"
                  }
                ]
              }
            }
          }
        }
      },
      {
        "name": "4162",
        "op": "Const",
        "attr": {
          "value": {
            "tensor": {
              "dtype": "DT_FLOAT",
              "tensorShape": {
                "dim": [
                  {
                    "size": "3"
                  },
                  {
                    "size": "3"
                  },
                  {
                    "size": "64"
                  },
                  {
                    "size": "64"
                  }
                ]
              }
            }
          },
          "dtype": {
            "type": "DT_FLOAT"
          }
        }
      },
      {
        "name": "4174",
        "op": "Const",
        "attr": {
          "dtype": {
            "type": "DT_FLOAT"
          },
          "value": {
            "tensor": {
              "dtype": "DT_FLOAT",
              "tensorShape": {
                "dim": [
                  {
                    "size": "64"
                  }
                ]
              }
            }
          }
        }
      },
      {
        "name": "4186",
        "op": "Const",
        "attr": {
          "dtype": {
            "type": "DT_FLOAT"
          },
          "value": {
            "tensor": {
              "dtype": "DT_FLOAT",
              "tensorShape": {
                "dim": [
                  {
                    "size": "1"
                  },
                  {
                    "size": "1"
                  },
                  {
                    "size": "64"
                  },
                  {
                    "size": "64"
                  }
                ]
              }
            }
          }
        }
      },
      {
        "name": "4196",
        "op": "Const",
        "attr": {
          "dtype": {
            "type": "DT_FLOAT"
          },
          "value": {
            "tensor": {
              "dtype": "DT_FLOAT",
              "tensorShape": {
                "dim": [
                  {
                    "size": "64"
                  }
                ]
              }
            }
          }
        }
      },
      {
        "name": "4136",
        "op": "Const",
        "attr": {
          "value": {
            "tensor": {
              "dtype": "DT_FLOAT",
              "tensorShape": {
                "dim": [
                  {
                    "size": "3"
                  },
                  {
                    "size": "3"
                  },
                  {
                    "size": "128"
                  },
                  {
                    "size": "64"
                  }
                ]
              }
            }
          },
          "dtype": {
            "type": "DT_FLOAT"
          }
        }
      },
      {
        "name": "4148",
        "op": "Const",
        "attr": {
          "dtype": {
            "type": "DT_FLOAT"
          },
          "value": {
            "tensor": {
              "dtype": "DT_FLOAT",
              "tensorShape": {
                "dim": [
                  {
                    "size": "64"
                  }
                ]
              }
            }
          }
        }
      },
      {
        "name": "4160",
        "op": "Const",
        "attr": {
          "dtype": {
            "type": "DT_FLOAT"
          },
          "value": {
            "tensor": {
              "dtype": "DT_FLOAT",
              "tensorShape": {
                "dim": [
                  {
                    "size": "3"
                  },
                  {
                    "size": "3"
                  },
                  {
                    "size": "64"
                  },
                  {
                    "size": "64"
                  }
                ]
              }
            }
          }
        }
      },
      {
        "name": "4172",
        "op": "Const",
        "attr": {
          "value": {
            "tensor": {
              "dtype": "DT_FLOAT",
              "tensorShape": {
                "dim": [
                  {
                    "size": "64"
                  }
                ]
              }
            }
          },
          "dtype": {
            "type": "DT_FLOAT"
          }
        }
      },
      {
        "name": "4184",
        "op": "Const",
        "attr": {
          "dtype": {
            "type": "DT_FLOAT"
          },
          "value": {
            "tensor": {
              "dtype": "DT_FLOAT",
              "tensorShape": {
                "dim": [
                  {
                    "size": "1"
                  },
                  {
                    "size": "1"
                  },
                  {
                    "size": "64"
                  },
                  {
                    "size": "5"
                  }
                ]
              }
            }
          }
        }
      },
      {
        "name": "4198",
        "op": "Const",
        "attr": {
          "value": {
            "tensor": {
              "dtype": "DT_FLOAT",
              "tensorShape": {
                "dim": [
                  {
                    "size": "5"
                  }
                ]
              }
            }
          },
          "dtype": {
            "type": "DT_FLOAT"
          }
        }
      },
      {
        "name": "PartitionedCall/model/tf.concat_13/concat/axis",
        "op": "Const",
        "attr": {
          "value": {
            "tensor": {
              "dtype": "DT_INT32",
              "tensorShape": {}
            }
          },
          "dtype": {
            "type": "DT_INT32"
          }
        }
      },
      {
        "name": "PartitionedCall/model/tf.compat.v1.transpose_1/transpose/perm",
        "op": "Const",
        "attr": {
          "dtype": {
            "type": "DT_INT32"
          },
          "value": {
            "tensor": {
              "dtype": "DT_INT32",
              "tensorShape": {
                "dim": [
                  {
                    "size": "4"
                  }
                ]
              }
            }
          }
        }
      },
      {
        "name": "PartitionedCall/model/tf.reshape_1/Reshape/shape",
        "op": "Const",
        "attr": {
          "value": {
            "tensor": {
              "dtype": "DT_INT32",
              "tensorShape": {
                "dim": [
                  {
                    "size": "3"
                  }
                ]
              }
            }
          },
          "dtype": {
            "type": "DT_INT32"
          }
        }
      },
      {
        "name": "4134",
        "op": "Const",
        "attr": {
          "value": {
            "tensor": {
              "dtype": "DT_FLOAT",
              "tensorShape": {
                "dim": [
                  {
                    "size": "3"
                  },
                  {
                    "size": "3"
                  },
                  {
                    "size": "256"
                  },
                  {
                    "size": "64"
                  }
                ]
              }
            }
          },
          "dtype": {
            "type": "DT_FLOAT"
          }
        }
      },
      {
        "name": "4146",
        "op": "Const",
        "attr": {
          "value": {
            "tensor": {
              "dtype": "DT_FLOAT",
              "tensorShape": {
                "dim": [
                  {
                    "size": "64"
                  }
                ]
              }
            }
          },
          "dtype": {
            "type": "DT_FLOAT"
          }
        }
      },
      {
        "name": "4158",
        "op": "Const",
        "attr": {
          "dtype": {
            "type": "DT_FLOAT"
          },
          "value": {
            "tensor": {
              "dtype": "DT_FLOAT",
              "tensorShape": {
                "dim": [
                  {
                    "size": "3"
                  },
                  {
                    "size": "3"
                  },
                  {
                    "size": "64"
                  },
                  {
                    "size": "64"
                  }
                ]
              }
            }
          }
        }
      },
      {
        "name": "4170",
        "op": "Const",
        "attr": {
          "dtype": {
            "type": "DT_FLOAT"
          },
          "value": {
            "tensor": {
              "dtype": "DT_FLOAT",
              "tensorShape": {
                "dim": [
                  {
                    "size": "64"
                  }
                ]
              }
            }
          }
        }
      },
      {
        "name": "4182",
        "op": "Const",
        "attr": {
          "dtype": {
            "type": "DT_FLOAT"
          },
          "value": {
            "tensor": {
              "dtype": "DT_FLOAT",
              "tensorShape": {
                "dim": [
                  {
                    "size": "1"
                  },
                  {
                    "size": "1"
                  },
                  {
                    "size": "64"
                  },
                  {
                    "size": "64"
                  }
                ]
              }
            }
          }
        }
      },
      {
        "name": "4192",
        "op": "Const",
        "attr": {
          "value": {
            "tensor": {
              "dtype": "DT_FLOAT",
              "tensorShape": {
                "dim": [
                  {
                    "size": "64"
                  }
                ]
              }
            }
          },
          "dtype": {
            "type": "DT_FLOAT"
          }
        }
      },
      {
        "name": "4124",
        "op": "Const",
        "attr": {
          "value": {
            "tensor": {
              "dtype": "DT_INT64",
              "tensorShape": {
                "dim": [
                  {
                    "size": "4"
                  }
                ]
              }
            }
          },
          "dtype": {
            "type": "DT_INT64"
          }
        }
      },
      {
        "name": "4126",
        "op": "Const",
        "attr": {
          "dtype": {
            "type": "DT_INT64"
          },
          "value": {
            "tensor": {
              "dtype": "DT_INT64",
              "tensorShape": {
                "dim": [
                  {
                    "size": "4"
                  }
                ]
              }
            }
          }
        }
      },
      {
        "name": "PartitionedCall/model/tf.strided_slice_14/ones_like",
        "op": "Const",
        "attr": {
          "value": {
            "tensor": {
              "dtype": "DT_INT64",
              "tensorShape": {
                "dim": [
                  {
                    "size": "4"
                  }
                ]
              }
            }
          },
          "dtype": {
            "type": "DT_INT64"
          }
        }
      },
      {
        "name": "4094",
        "op": "Const",
        "attr": {
          "dtype": {
            "type": "DT_INT64"
          },
          "value": {
            "tensor": {
              "dtype": "DT_INT64",
              "tensorShape": {
                "dim": [
                  {
                    "size": "4"
                  }
                ]
              }
            }
          }
        }
      },
      {
        "name": "4096",
        "op": "Const",
        "attr": {
          "dtype": {
            "type": "DT_INT64"
          },
          "value": {
            "tensor": {
              "dtype": "DT_INT64",
              "tensorShape": {
                "dim": [
                  {
                    "size": "4"
                  }
                ]
              }
            }
          }
        }
      },
      {
        "name": "PartitionedCall/model/tf.strided_slice_12/ones_like",
        "op": "Const",
        "attr": {
          "dtype": {
            "type": "DT_INT64"
          },
          "value": {
            "tensor": {
              "dtype": "DT_INT64",
              "tensorShape": {
                "dim": [
                  {
                    "size": "4"
                  }
                ]
              }
            }
          }
        }
      },
      {
        "name": "4064",
        "op": "Const",
        "attr": {
          "dtype": {
            "type": "DT_INT64"
          },
          "value": {
            "tensor": {
              "dtype": "DT_INT64",
              "tensorShape": {
                "dim": [
                  {
                    "size": "4"
                  }
                ]
              }
            }
          }
        }
      },
      {
        "name": "4066",
        "op": "Const",
        "attr": {
          "dtype": {
            "type": "DT_INT64"
          },
          "value": {
            "tensor": {
              "dtype": "DT_INT64",
              "tensorShape": {
                "dim": [
                  {
                    "size": "4"
                  }
                ]
              }
            }
          }
        }
      },
      {
        "name": "PartitionedCall/model/tf.strided_slice_10/ones_like",
        "op": "Const",
        "attr": {
          "dtype": {
            "type": "DT_INT64"
          },
          "value": {
            "tensor": {
              "dtype": "DT_INT64",
              "tensorShape": {
                "dim": [
                  {
                    "size": "4"
                  }
                ]
              }
            }
          }
        }
      },
      {
        "name": "PartitionedCall/model/lambda_1//model.13/Resize/size",
        "op": "Const",
        "attr": {
          "value": {
            "tensor": {
              "dtype": "DT_INT32",
              "tensorShape": {
                "dim": [
                  {
                    "size": "2"
                  }
                ]
              }
            }
          },
          "dtype": {
            "type": "DT_INT32"
          }
        }
      },
      {
        "name": "PartitionedCall/model/tf.concat_7/concat/axis",
        "op": "Const",
        "attr": {
          "dtype": {
            "type": "DT_INT32"
          },
          "value": {
            "tensor": {
              "dtype": "DT_INT32",
              "tensorShape": {}
            }
          }
        }
      },
      {
        "name": "4048",
        "op": "Const",
        "attr": {
          "dtype": {
            "type": "DT_FLOAT"
          },
          "value": {
            "tensor": {
              "dtype": "DT_FLOAT",
              "tensorShape": {
                "dim": [
                  {
                    "size": "1"
                  },
                  {
                    "size": "1"
                  },
                  {
                    "size": "192"
                  },
                  {
                    "size": "64"
                  }
                ]
              }
            }
          }
        }
      },
      {
        "name": "4050",
        "op": "Const",
        "attr": {
          "dtype": {
            "type": "DT_FLOAT"
          },
          "value": {
            "tensor": {
              "dtype": "DT_FLOAT",
              "tensorShape": {
                "dim": [
                  {
                    "size": "64"
                  }
                ]
              }
            }
          }
        }
      },
      {
        "name": "4052",
        "op": "Const",
        "attr": {
          "value": {
            "tensor": {
              "dtype": "DT_INT64",
              "tensorShape": {
                "dim": [
                  {
                    "size": "4"
                  }
                ]
              }
            }
          },
          "dtype": {
            "type": "DT_INT64"
          }
        }
      },
      {
        "name": "4054",
        "op": "Const",
        "attr": {
          "dtype": {
            "type": "DT_INT64"
          },
          "value": {
            "tensor": {
              "dtype": "DT_INT64",
              "tensorShape": {
                "dim": [
                  {
                    "size": "4"
                  }
                ]
              }
            }
          }
        }
      },
      {
        "name": "PartitionedCall/model/tf.strided_slice_11/ones_like",
        "op": "Const",
        "attr": {
          "dtype": {
            "type": "DT_INT64"
          },
          "value": {
            "tensor": {
              "dtype": "DT_INT64",
              "tensorShape": {
                "dim": [
                  {
                    "size": "4"
                  }
                ]
              }
            }
          }
        }
      },
      {
        "name": "4056",
        "op": "Const",
        "attr": {
          "dtype": {
            "type": "DT_FLOAT"
          },
          "value": {
            "tensor": {
              "dtype": "DT_FLOAT",
              "tensorShape": {
                "dim": [
                  {
                    "size": "3"
                  },
                  {
                    "size": "3"
                  },
                  {
                    "size": "32"
                  },
                  {
                    "size": "32"
                  }
                ]
              }
            }
          }
        }
      },
      {
        "name": "4058",
        "op": "Const",
        "attr": {
          "dtype": {
            "type": "DT_FLOAT"
          },
          "value": {
            "tensor": {
              "dtype": "DT_FLOAT",
              "tensorShape": {
                "dim": [
                  {
                    "size": "32"
                  }
                ]
              }
            }
          }
        }
      },
      {
        "name": "4060",
        "op": "Const",
        "attr": {
          "dtype": {
            "type": "DT_FLOAT"
          },
          "value": {
            "tensor": {
              "dtype": "DT_FLOAT",
              "tensorShape": {
                "dim": [
                  {
                    "size": "3"
                  },
                  {
                    "size": "3"
                  },
                  {
                    "size": "32"
                  },
                  {
                    "size": "32"
                  }
                ]
              }
            }
          }
        }
      },
      {
        "name": "4062",
        "op": "Const",
        "attr": {
          "value": {
            "tensor": {
              "dtype": "DT_FLOAT",
              "tensorShape": {
                "dim": [
                  {
                    "size": "32"
                  }
                ]
              }
            }
          },
          "dtype": {
            "type": "DT_FLOAT"
          }
        }
      },
      {
        "name": "PartitionedCall/model/tf.concat_8/concat/axis",
        "op": "Const",
        "attr": {
          "value": {
            "tensor": {
              "dtype": "DT_INT32",
              "tensorShape": {}
            }
          },
          "dtype": {
            "type": "DT_INT32"
          }
        }
      },
      {
        "name": "4068",
        "op": "Const",
        "attr": {
          "value": {
            "tensor": {
              "dtype": "DT_FLOAT",
              "tensorShape": {
                "dim": [
                  {
                    "size": "1"
                  },
                  {
                    "size": "1"
                  },
                  {
                    "size": "96"
                  },
                  {
                    "size": "64"
                  }
                ]
              }
            }
          },
          "dtype": {
            "type": "DT_FLOAT"
          }
        }
      },
      {
        "name": "4070",
        "op": "Const",
        "attr": {
          "dtype": {
            "type": "DT_FLOAT"
          },
          "value": {
            "tensor": {
              "dtype": "DT_FLOAT",
              "tensorShape": {
                "dim": [
                  {
                    "size": "64"
                  }
                ]
              }
            }
          }
        }
      },
      {
        "name": "4072",
        "op": "Const",
        "attr": {
          "dtype": {
            "type": "DT_INT32"
          },
          "value": {
            "tensor": {
              "dtype": "DT_INT32",
              "tensorShape": {
                "dim": [
                  {
                    "size": "4"
                  },
                  {
                    "size": "2"
                  }
                ]
              }
            }
          }
        }
      },
      {
        "name": "4074",
        "op": "Const",
        "attr": {
          "value": {
            "tensor": {
              "dtype": "DT_FLOAT",
              "tensorShape": {
                "dim": [
                  {
                    "size": "3"
                  },
                  {
                    "size": "3"
                  },
                  {
                    "size": "64"
                  },
                  {
                    "size": "64"
                  }
                ]
              }
            }
          },
          "dtype": {
            "type": "DT_FLOAT"
          }
        }
      },
      {
        "name": "4076",
        "op": "Const",
        "attr": {
          "dtype": {
            "type": "DT_FLOAT"
          },
          "value": {
            "tensor": {
              "dtype": "DT_FLOAT",
              "tensorShape": {
                "dim": [
                  {
                    "size": "64"
                  }
                ]
              }
            }
          }
        }
      },
      {
        "name": "4040",
        "op": "Const",
        "attr": {
          "dtype": {
            "type": "DT_INT64"
          },
          "value": {
            "tensor": {
              "dtype": "DT_INT64",
              "tensorShape": {
                "dim": [
                  {
                    "size": "4"
                  }
                ]
              }
            }
          }
        }
      },
      {
        "name": "4042",
        "op": "Const",
        "attr": {
          "value": {
            "tensor": {
              "dtype": "DT_INT64",
              "tensorShape": {
                "dim": [
                  {
                    "size": "4"
                  }
                ]
              }
            }
          },
          "dtype": {
            "type": "DT_INT64"
          }
        }
      },
      {
        "name": "PartitionedCall/model/tf.strided_slice_8/ones_like",
        "op": "Const",
        "attr": {
          "value": {
            "tensor": {
              "dtype": "DT_INT64",
              "tensorShape": {
                "dim": [
                  {
                    "size": "4"
                  }
                ]
              }
            }
          },
          "dtype": {
            "type": "DT_INT64"
          }
        }
      },
      {
        "name": "PartitionedCall/model/lambda//model.10/Resize/size",
        "op": "Const",
        "attr": {
          "value": {
            "tensor": {
              "dtype": "DT_INT32",
              "tensorShape": {
                "dim": [
                  {
                    "size": "2"
                  }
                ]
              }
            }
          },
          "dtype": {
            "type": "DT_INT32"
          }
        }
      },
      {
        "name": "PartitionedCall/model/tf.concat_5/concat/axis",
        "op": "Const",
        "attr": {
          "dtype": {
            "type": "DT_INT32"
          },
          "value": {
            "tensor": {
              "dtype": "DT_INT32",
              "tensorShape": {}
            }
          }
        }
      },
      {
        "name": "4024",
        "op": "Const",
        "attr": {
          "value": {
            "tensor": {
              "dtype": "DT_FLOAT",
              "tensorShape": {
                "dim": [
                  {
                    "size": "1"
                  },
                  {
                    "size": "1"
                  },
                  {
                    "size": "384"
                  },
                  {
                    "size": "128"
                  }
                ]
              }
            }
          },
          "dtype": {
            "type": "DT_FLOAT"
          }
        }
      },
      {
        "name": "4026",
        "op": "Const",
        "attr": {
          "value": {
            "tensor": {
              "dtype": "DT_FLOAT",
              "tensorShape": {
                "dim": [
                  {
                    "size": "128"
                  }
                ]
              }
            }
          },
          "dtype": {
            "type": "DT_FLOAT"
          }
        }
      },
      {
        "name": "4028",
        "op": "Const",
        "attr": {
          "dtype": {
            "type": "DT_INT64"
          },
          "value": {
            "tensor": {
              "dtype": "DT_INT64",
              "tensorShape": {
                "dim": [
                  {
                    "size": "4"
                  }
                ]
              }
            }
          }
        }
      },
      {
        "name": "4030",
        "op": "Const",
        "attr": {
          "dtype": {
            "type": "DT_INT64"
          },
          "value": {
            "tensor": {
              "dtype": "DT_INT64",
              "tensorShape": {
                "dim": [
                  {
                    "size": "4"
                  }
                ]
              }
            }
          }
        }
      },
      {
        "name": "PartitionedCall/model/tf.strided_slice_9/ones_like",
        "op": "Const",
        "attr": {
          "value": {
            "tensor": {
              "dtype": "DT_INT64",
              "tensorShape": {
                "dim": [
                  {
                    "size": "4"
                  }
                ]
              }
            }
          },
          "dtype": {
            "type": "DT_INT64"
          }
        }
      },
      {
        "name": "4032",
        "op": "Const",
        "attr": {
          "value": {
            "tensor": {
              "dtype": "DT_FLOAT",
              "tensorShape": {
                "dim": [
                  {
                    "size": "3"
                  },
                  {
                    "size": "3"
                  },
                  {
                    "size": "64"
                  },
                  {
                    "size": "64"
                  }
                ]
              }
            }
          },
          "dtype": {
            "type": "DT_FLOAT"
          }
        }
      },
      {
        "name": "4034",
        "op": "Const",
        "attr": {
          "value": {
            "tensor": {
              "dtype": "DT_FLOAT",
              "tensorShape": {
                "dim": [
                  {
                    "size": "64"
                  }
                ]
              }
            }
          },
          "dtype": {
            "type": "DT_FLOAT"
          }
        }
      },
      {
        "name": "4036",
        "op": "Const",
        "attr": {
          "dtype": {
            "type": "DT_FLOAT"
          },
          "value": {
            "tensor": {
              "dtype": "DT_FLOAT",
              "tensorShape": {
                "dim": [
                  {
                    "size": "3"
                  },
                  {
                    "size": "3"
                  },
                  {
                    "size": "64"
                  },
                  {
                    "size": "64"
                  }
                ]
              }
            }
          }
        }
      },
      {
        "name": "4038",
        "op": "Const",
        "attr": {
          "dtype": {
            "type": "DT_FLOAT"
          },
          "value": {
            "tensor": {
              "dtype": "DT_FLOAT",
              "tensorShape": {
                "dim": [
                  {
                    "size": "64"
                  }
                ]
              }
            }
          }
        }
      },
      {
        "name": "PartitionedCall/model/tf.concat_6/concat/axis",
        "op": "Const",
        "attr": {
          "dtype": {
            "type": "DT_INT32"
          },
          "value": {
            "tensor": {
              "dtype": "DT_INT32",
              "tensorShape": {}
            }
          }
        }
      },
      {
        "name": "4044",
        "op": "Const",
        "attr": {
          "dtype": {
            "type": "DT_FLOAT"
          },
          "value": {
            "tensor": {
              "dtype": "DT_FLOAT",
              "tensorShape": {
                "dim": [
                  {
                    "size": "1"
                  },
                  {
                    "size": "1"
                  },
                  {
                    "size": "192"
                  },
                  {
                    "size": "128"
                  }
                ]
              }
            }
          }
        }
      },
      {
        "name": "4046",
        "op": "Const",
        "attr": {
          "dtype": {
            "type": "DT_FLOAT"
          },
          "value": {
            "tensor": {
              "dtype": "DT_FLOAT",
              "tensorShape": {
                "dim": [
                  {
                    "size": "128"
                  }
                ]
              }
            }
          }
        }
      },
      {
        "name": "PartitionedCall/model/tf.concat_9/concat/axis",
        "op": "Const",
        "attr": {
          "value": {
            "tensor": {
              "dtype": "DT_INT32",
              "tensorShape": {}
            }
          },
          "dtype": {
            "type": "DT_INT32"
          }
        }
      },
      {
        "name": "4078",
        "op": "Const",
        "attr": {
          "value": {
            "tensor": {
              "dtype": "DT_FLOAT",
              "tensorShape": {
                "dim": [
                  {
                    "size": "1"
                  },
                  {
                    "size": "1"
                  },
                  {
                    "size": "192"
                  },
                  {
                    "size": "128"
                  }
                ]
              }
            }
          },
          "dtype": {
            "type": "DT_FLOAT"
          }
        }
      },
      {
        "name": "4080",
        "op": "Const",
        "attr": {
          "dtype": {
            "type": "DT_FLOAT"
          },
          "value": {
            "tensor": {
              "dtype": "DT_FLOAT",
              "tensorShape": {
                "dim": [
                  {
                    "size": "128"
                  }
                ]
              }
            }
          }
        }
      },
      {
        "name": "4082",
        "op": "Const",
        "attr": {
          "dtype": {
            "type": "DT_INT64"
          },
          "value": {
            "tensor": {
              "dtype": "DT_INT64",
              "tensorShape": {
                "dim": [
                  {
                    "size": "4"
                  }
                ]
              }
            }
          }
        }
      },
      {
        "name": "4084",
        "op": "Const",
        "attr": {
          "dtype": {
            "type": "DT_INT64"
          },
          "value": {
            "tensor": {
              "dtype": "DT_INT64",
              "tensorShape": {
                "dim": [
                  {
                    "size": "4"
                  }
                ]
              }
            }
          }
        }
      },
      {
        "name": "PartitionedCall/model/tf.strided_slice_13/ones_like",
        "op": "Const",
        "attr": {
          "value": {
            "tensor": {
              "dtype": "DT_INT64",
              "tensorShape": {
                "dim": [
                  {
                    "size": "4"
                  }
                ]
              }
            }
          },
          "dtype": {
            "type": "DT_INT64"
          }
        }
      },
      {
        "name": "4086",
        "op": "Const",
        "attr": {
          "value": {
            "tensor": {
              "dtype": "DT_FLOAT",
              "tensorShape": {
                "dim": [
                  {
                    "size": "3"
                  },
                  {
                    "size": "3"
                  },
                  {
                    "size": "64"
                  },
                  {
                    "size": "64"
                  }
                ]
              }
            }
          },
          "dtype": {
            "type": "DT_FLOAT"
          }
        }
      },
      {
        "name": "4088",
        "op": "Const",
        "attr": {
          "dtype": {
            "type": "DT_FLOAT"
          },
          "value": {
            "tensor": {
              "dtype": "DT_FLOAT",
              "tensorShape": {
                "dim": [
                  {
                    "size": "64"
                  }
                ]
              }
            }
          }
        }
      },
      {
        "name": "4090",
        "op": "Const",
        "attr": {
          "value": {
            "tensor": {
              "dtype": "DT_FLOAT",
              "tensorShape": {
                "dim": [
                  {
                    "size": "3"
                  },
                  {
                    "size": "3"
                  },
                  {
                    "size": "64"
                  },
                  {
                    "size": "64"
                  }
                ]
              }
            }
          },
          "dtype": {
            "type": "DT_FLOAT"
          }
        }
      },
      {
        "name": "4092",
        "op": "Const",
        "attr": {
          "value": {
            "tensor": {
              "dtype": "DT_FLOAT",
              "tensorShape": {
                "dim": [
                  {
                    "size": "64"
                  }
                ]
              }
            }
          },
          "dtype": {
            "type": "DT_FLOAT"
          }
        }
      },
      {
        "name": "PartitionedCall/model/tf.concat_11/concat/axis",
        "op": "Const",
        "attr": {
          "value": {
            "tensor": {
              "dtype": "DT_INT32",
              "tensorShape": {}
            }
          },
          "dtype": {
            "type": "DT_INT32"
          }
        }
      },
      {
        "name": "4098",
        "op": "Const",
        "attr": {
          "dtype": {
            "type": "DT_FLOAT"
          },
          "value": {
            "tensor": {
              "dtype": "DT_FLOAT",
              "tensorShape": {
                "dim": [
                  {
                    "size": "1"
                  },
                  {
                    "size": "1"
                  },
                  {
                    "size": "192"
                  },
                  {
                    "size": "128"
                  }
                ]
              }
            }
          }
        }
      },
      {
        "name": "4100",
        "op": "Const",
        "attr": {
          "dtype": {
            "type": "DT_FLOAT"
          },
          "value": {
            "tensor": {
              "dtype": "DT_FLOAT",
              "tensorShape": {
                "dim": [
                  {
                    "size": "128"
                  }
                ]
              }
            }
          }
        }
      },
      {
        "name": "4102",
        "op": "Const",
        "attr": {
          "dtype": {
            "type": "DT_INT32"
          },
          "value": {
            "tensor": {
              "dtype": "DT_INT32",
              "tensorShape": {
                "dim": [
                  {
                    "size": "4"
                  },
                  {
                    "size": "2"
                  }
                ]
              }
            }
          }
        }
      },
      {
        "name": "4104",
        "op": "Const",
        "attr": {
          "value": {
            "tensor": {
              "dtype": "DT_FLOAT",
              "tensorShape": {
                "dim": [
                  {
                    "size": "3"
                  },
                  {
                    "size": "3"
                  },
                  {
                    "size": "128"
                  },
                  {
                    "size": "128"
                  }
                ]
              }
            }
          },
          "dtype": {
            "type": "DT_FLOAT"
          }
        }
      },
      {
        "name": "4106",
        "op": "Const",
        "attr": {
          "dtype": {
            "type": "DT_FLOAT"
          },
          "value": {
            "tensor": {
              "dtype": "DT_FLOAT",
              "tensorShape": {
                "dim": [
                  {
                    "size": "128"
                  }
                ]
              }
            }
          }
        }
      },
      {
        "name": "4008",
        "op": "Const",
        "attr": {
          "dtype": {
            "type": "DT_INT64"
          },
          "value": {
            "tensor": {
              "dtype": "DT_INT64",
              "tensorShape": {
                "dim": [
                  {
                    "size": "4"
                  }
                ]
              }
            }
          }
        }
      },
      {
        "name": "4010",
        "op": "Const",
        "attr": {
          "dtype": {
            "type": "DT_INT64"
          },
          "value": {
            "tensor": {
              "dtype": "DT_INT64",
              "tensorShape": {
                "dim": [
                  {
                    "size": "4"
                  }
                ]
              }
            }
          }
        }
      },
      {
        "name": "PartitionedCall/model/tf.strided_slice_6/ones_like",
        "op": "Const",
        "attr": {
          "value": {
            "tensor": {
              "dtype": "DT_INT64",
              "tensorShape": {
                "dim": [
                  {
                    "size": "4"
                  }
                ]
              }
            }
          },
          "dtype": {
            "type": "DT_INT64"
          }
        }
      },
      {
        "name": "3978",
        "op": "Const",
        "attr": {
          "dtype": {
            "type": "DT_INT64"
          },
          "value": {
            "tensor": {
              "dtype": "DT_INT64",
              "tensorShape": {
                "dim": [
                  {
                    "size": "4"
                  }
                ]
              }
            }
          }
        }
      },
      {
        "name": "3980",
        "op": "Const",
        "attr": {
          "dtype": {
            "type": "DT_INT64"
          },
          "value": {
            "tensor": {
              "dtype": "DT_INT64",
              "tensorShape": {
                "dim": [
                  {
                    "size": "4"
                  }
                ]
              }
            }
          }
        }
      },
      {
        "name": "PartitionedCall/model/tf.strided_slice_4/ones_like",
        "op": "Const",
        "attr": {
          "dtype": {
            "type": "DT_INT64"
          },
          "value": {
            "tensor": {
              "dtype": "DT_INT64",
              "tensorShape": {
                "dim": [
                  {
                    "size": "4"
                  }
                ]
              }
            }
          }
        }
      },
      {
        "name": "3940",
        "op": "Const",
        "attr": {
          "dtype": {
            "type": "DT_INT64"
          },
          "value": {
            "tensor": {
              "dtype": "DT_INT64",
              "tensorShape": {
                "dim": [
                  {
                    "size": "4"
                  }
                ]
              }
            }
          }
        }
      },
      {
        "name": "3942",
        "op": "Const",
        "attr": {
          "dtype": {
            "type": "DT_INT64"
          },
          "value": {
            "tensor": {
              "dtype": "DT_INT64",
              "tensorShape": {
                "dim": [
                  {
                    "size": "4"
                  }
                ]
              }
            }
          }
        }
      },
      {
        "name": "PartitionedCall/model/tf.strided_slice_2/ones_like",
        "op": "Const",
        "attr": {
          "value": {
            "tensor": {
              "dtype": "DT_INT64",
              "tensorShape": {
                "dim": [
                  {
                    "size": "4"
                  }
                ]
              }
            }
          },
          "dtype": {
            "type": "DT_INT64"
          }
        }
      },
      {
        "name": "3902",
        "op": "Const",
        "attr": {
          "dtype": {
            "type": "DT_INT64"
          },
          "value": {
            "tensor": {
              "dtype": "DT_INT64",
              "tensorShape": {
                "dim": [
                  {
                    "size": "4"
                  }
                ]
              }
            }
          }
        }
      },
      {
        "name": "3904",
        "op": "Const",
        "attr": {
          "dtype": {
            "type": "DT_INT64"
          },
          "value": {
            "tensor": {
              "dtype": "DT_INT64",
              "tensorShape": {
                "dim": [
                  {
                    "size": "4"
                  }
                ]
              }
            }
          }
        }
      },
      {
        "name": "PartitionedCall/model/tf.strided_slice/ones_like",
        "op": "Const",
        "attr": {
          "dtype": {
            "type": "DT_INT64"
          },
          "value": {
            "tensor": {
              "dtype": "DT_INT64",
              "tensorShape": {
                "dim": [
                  {
                    "size": "4"
                  }
                ]
              }
            }
          }
        }
      },
      {
        "name": "3874",
        "op": "Const",
        "attr": {
          "dtype": {
            "type": "DT_INT32"
          },
          "value": {
            "tensor": {
              "dtype": "DT_INT32",
              "tensorShape": {
                "dim": [
                  {
                    "size": "4"
                  },
                  {
                    "size": "2"
                  }
                ]
              }
            }
          }
        }
      },
      {
        "name": "3876",
        "op": "Const",
        "attr": {
          "value": {
            "tensor": {
              "dtype": "DT_FLOAT",
              "tensorShape": {
                "dim": [
                  {
                    "size": "3"
                  },
                  {
                    "size": "3"
                  },
                  {
                    "size": "3"
                  },
                  {
                    "size": "16"
                  }
                ]
              }
            }
          },
          "dtype": {
            "type": "DT_FLOAT"
          }
        }
      },
      {
        "name": "3878",
        "op": "Const",
        "attr": {
          "dtype": {
            "type": "DT_FLOAT"
          },
          "value": {
            "tensor": {
              "dtype": "DT_FLOAT",
              "tensorShape": {
                "dim": [
                  {
                    "size": "16"
                  }
                ]
              }
            }
          }
        }
      },
      {
        "name": "3880",
        "op": "Const",
        "attr": {
          "dtype": {
            "type": "DT_INT32"
          },
          "value": {
            "tensor": {
              "dtype": "DT_INT32",
              "tensorShape": {
                "dim": [
                  {
                    "size": "4"
                  },
                  {
                    "size": "2"
                  }
                ]
              }
            }
          }
        }
      },
      {
        "name": "3882",
        "op": "Const",
        "attr": {
          "value": {
            "tensor": {
              "dtype": "DT_FLOAT",
              "tensorShape": {
                "dim": [
                  {
                    "size": "3"
                  },
                  {
                    "size": "3"
                  },
                  {
                    "size": "16"
                  },
                  {
                    "size": "32"
                  }
                ]
              }
            }
          },
          "dtype": {
            "type": "DT_FLOAT"
          }
        }
      },
      {
        "name": "3884",
        "op": "Const",
        "attr": {
          "dtype": {
            "type": "DT_FLOAT"
          },
          "value": {
            "tensor": {
              "dtype": "DT_FLOAT",
              "tensorShape": {
                "dim": [
                  {
                    "size": "32"
                  }
                ]
              }
            }
          }
        }
      },
      {
        "name": "3886",
        "op": "Const",
        "attr": {
          "dtype": {
            "type": "DT_FLOAT"
          },
          "value": {
            "tensor": {
              "dtype": "DT_FLOAT",
              "tensorShape": {
                "dim": [
                  {
                    "size": "1"
                  },
                  {
                    "size": "1"
                  },
                  {
                    "size": "32"
                  },
                  {
                    "size": "32"
                  }
                ]
              }
            }
          }
        }
      },
      {
        "name": "3888",
        "op": "Const",
        "attr": {
          "dtype": {
            "type": "DT_FLOAT"
          },
          "value": {
            "tensor": {
              "dtype": "DT_FLOAT",
              "tensorShape": {
                "dim": [
                  {
                    "size": "32"
                  }
                ]
              }
            }
          }
        }
      },
      {
        "name": "3890",
        "op": "Const",
        "attr": {
          "dtype": {
            "type": "DT_INT64"
          },
          "value": {
            "tensor": {
              "dtype": "DT_INT64",
              "tensorShape": {
                "dim": [
                  {
                    "size": "4"
                  }
                ]
              }
            }
          }
        }
      },
      {
        "name": "3892",
        "op": "Const",
        "attr": {
          "value": {
            "tensor": {
              "dtype": "DT_INT64",
              "tensorShape": {
                "dim": [
                  {
                    "size": "4"
                  }
                ]
              }
            }
          },
          "dtype": {
            "type": "DT_INT64"
          }
        }
      },
      {
        "name": "PartitionedCall/model/tf.strided_slice_1/ones_like",
        "op": "Const",
        "attr": {
          "dtype": {
            "type": "DT_INT64"
          },
          "value": {
            "tensor": {
              "dtype": "DT_INT64",
              "tensorShape": {
                "dim": [
                  {
                    "size": "4"
                  }
                ]
              }
            }
          }
        }
      },
      {
        "name": "3894",
        "op": "Const",
        "attr": {
          "dtype": {
            "type": "DT_FLOAT"
          },
          "value": {
            "tensor": {
              "dtype": "DT_FLOAT",
              "tensorShape": {
                "dim": [
                  {
                    "size": "3"
                  },
                  {
                    "size": "3"
                  },
                  {
                    "size": "16"
                  },
                  {
                    "size": "16"
                  }
                ]
              }
            }
          }
        }
      },
      {
        "name": "3896",
        "op": "Const",
        "attr": {
          "value": {
            "tensor": {
              "dtype": "DT_FLOAT",
              "tensorShape": {
                "dim": [
                  {
                    "size": "16"
                  }
                ]
              }
            }
          },
          "dtype": {
            "type": "DT_FLOAT"
          }
        }
      },
      {
        "name": "3898",
        "op": "Const",
        "attr": {
          "dtype": {
            "type": "DT_FLOAT"
          },
          "value": {
            "tensor": {
              "dtype": "DT_FLOAT",
              "tensorShape": {
                "dim": [
                  {
                    "size": "3"
                  },
                  {
                    "size": "3"
                  },
                  {
                    "size": "16"
                  },
                  {
                    "size": "16"
                  }
                ]
              }
            }
          }
        }
      },
      {
        "name": "3900",
        "op": "Const",
        "attr": {
          "dtype": {
            "type": "DT_FLOAT"
          },
          "value": {
            "tensor": {
              "dtype": "DT_FLOAT",
              "tensorShape": {
                "dim": [
                  {
                    "size": "16"
                  }
                ]
              }
            }
          }
        }
      },
      {
        "name": "PartitionedCall/model/tf.concat/concat/axis",
        "op": "Const",
        "attr": {
          "dtype": {
            "type": "DT_INT32"
          },
          "value": {
            "tensor": {
              "dtype": "DT_INT32",
              "tensorShape": {}
            }
          }
        }
      },
      {
        "name": "3906",
        "op": "Const",
        "attr": {
          "dtype": {
            "type": "DT_FLOAT"
          },
          "value": {
            "tensor": {
              "dtype": "DT_FLOAT",
              "tensorShape": {
                "dim": [
                  {
                    "size": "1"
                  },
                  {
                    "size": "1"
                  },
                  {
                    "size": "48"
                  },
                  {
                    "size": "32"
                  }
                ]
              }
            }
          }
        }
      },
      {
        "name": "3908",
        "op": "Const",
        "attr": {
          "dtype": {
            "type": "DT_FLOAT"
          },
          "value": {
            "tensor": {
              "dtype": "DT_FLOAT",
              "tensorShape": {
                "dim": [
                  {
                    "size": "32"
                  }
                ]
              }
            }
          }
        }
      },
      {
        "name": "3910",
        "op": "Const",
        "attr": {
          "dtype": {
            "type": "DT_INT32"
          },
          "value": {
            "tensor": {
              "dtype": "DT_INT32",
              "tensorShape": {
                "dim": [
                  {
                    "size": "4"
                  },
                  {
                    "size": "2"
                  }
                ]
              }
            }
          }
        }
      },
      {
        "name": "3912",
        "op": "Const",
        "attr": {
          "value": {
            "tensor": {
              "dtype": "DT_FLOAT",
              "tensorShape": {
                "dim": [
                  {
                    "size": "3"
                  },
                  {
                    "size": "3"
                  },
                  {
                    "size": "32"
                  },
                  {
                    "size": "64"
                  }
                ]
              }
            }
          },
          "dtype": {
            "type": "DT_FLOAT"
          }
        }
      },
      {
        "name": "3914",
        "op": "Const",
        "attr": {
          "dtype": {
            "type": "DT_FLOAT"
          },
          "value": {
            "tensor": {
              "dtype": "DT_FLOAT",
              "tensorShape": {
                "dim": [
                  {
                    "size": "64"
                  }
                ]
              }
            }
          }
        }
      },
      {
        "name": "3916",
        "op": "Const",
        "attr": {
          "dtype": {
            "type": "DT_FLOAT"
          },
          "value": {
            "tensor": {
              "dtype": "DT_FLOAT",
              "tensorShape": {
                "dim": [
                  {
                    "size": "1"
                  },
                  {
                    "size": "1"
                  },
                  {
                    "size": "64"
                  },
                  {
                    "size": "64"
                  }
                ]
              }
            }
          }
        }
      },
      {
        "name": "3918",
        "op": "Const",
        "attr": {
          "value": {
            "tensor": {
              "dtype": "DT_FLOAT",
              "tensorShape": {
                "dim": [
                  {
                    "size": "64"
                  }
                ]
              }
            }
          },
          "dtype": {
            "type": "DT_FLOAT"
          }
        }
      },
      {
        "name": "3920",
        "op": "Const",
        "attr": {
          "dtype": {
            "type": "DT_INT64"
          },
          "value": {
            "tensor": {
              "dtype": "DT_INT64",
              "tensorShape": {
                "dim": [
                  {
                    "size": "4"
                  }
                ]
              }
            }
          }
        }
      },
      {
        "name": "3922",
        "op": "Const",
        "attr": {
          "dtype": {
            "type": "DT_INT64"
          },
          "value": {
            "tensor": {
              "dtype": "DT_INT64",
              "tensorShape": {
                "dim": [
                  {
                    "size": "4"
                  }
                ]
              }
            }
          }
        }
      },
      {
        "name": "PartitionedCall/model/tf.strided_slice_3/ones_like",
        "op": "Const",
        "attr": {
          "dtype": {
            "type": "DT_INT64"
          },
          "value": {
            "tensor": {
              "dtype": "DT_INT64",
              "tensorShape": {
                "dim": [
                  {
                    "size": "4"
                  }
                ]
              }
            }
          }
        }
      },
      {
        "name": "3924",
        "op": "Const",
        "attr": {
          "value": {
            "tensor": {
              "dtype": "DT_FLOAT",
              "tensorShape": {
                "dim": [
                  {
                    "size": "3"
                  },
                  {
                    "size": "3"
                  },
                  {
                    "size": "32"
                  },
                  {
                    "size": "32"
                  }
                ]
              }
            }
          },
          "dtype": {
            "type": "DT_FLOAT"
          }
        }
      },
      {
        "name": "3926",
        "op": "Const",
        "attr": {
          "value": {
            "tensor": {
              "dtype": "DT_FLOAT",
              "tensorShape": {
                "dim": [
                  {
                    "size": "32"
                  }
                ]
              }
            }
          },
          "dtype": {
            "type": "DT_FLOAT"
          }
        }
      },
      {
        "name": "3928",
        "op": "Const",
        "attr": {
          "value": {
            "tensor": {
              "dtype": "DT_FLOAT",
              "tensorShape": {
                "dim": [
                  {
                    "size": "3"
                  },
                  {
                    "size": "3"
                  },
                  {
                    "size": "32"
                  },
                  {
                    "size": "32"
                  }
                ]
              }
            }
          },
          "dtype": {
            "type": "DT_FLOAT"
          }
        }
      },
      {
        "name": "3930",
        "op": "Const",
        "attr": {
          "dtype": {
            "type": "DT_FLOAT"
          },
          "value": {
            "tensor": {
              "dtype": "DT_FLOAT",
              "tensorShape": {
                "dim": [
                  {
                    "size": "32"
                  }
                ]
              }
            }
          }
        }
      },
      {
        "name": "3932",
        "op": "Const",
        "attr": {
          "value": {
            "tensor": {
              "dtype": "DT_FLOAT",
              "tensorShape": {
                "dim": [
                  {
                    "size": "3"
                  },
                  {
                    "size": "3"
                  },
                  {
                    "size": "32"
                  },
                  {
                    "size": "32"
                  }
                ]
              }
            }
          },
          "dtype": {
            "type": "DT_FLOAT"
          }
        }
      },
      {
        "name": "3934",
        "op": "Const",
        "attr": {
          "value": {
            "tensor": {
              "dtype": "DT_FLOAT",
              "tensorShape": {
                "dim": [
                  {
                    "size": "32"
                  }
                ]
              }
            }
          },
          "dtype": {
            "type": "DT_FLOAT"
          }
        }
      },
      {
        "name": "3936",
        "op": "Const",
        "attr": {
          "value": {
            "tensor": {
              "dtype": "DT_FLOAT",
              "tensorShape": {
                "dim": [
                  {
                    "size": "3"
                  },
                  {
                    "size": "3"
                  },
                  {
                    "size": "32"
                  },
                  {
                    "size": "32"
                  }
                ]
              }
            }
          },
          "dtype": {
            "type": "DT_FLOAT"
          }
        }
      },
      {
        "name": "3938",
        "op": "Const",
        "attr": {
          "value": {
            "tensor": {
              "dtype": "DT_FLOAT",
              "tensorShape": {
                "dim": [
                  {
                    "size": "32"
                  }
                ]
              }
            }
          },
          "dtype": {
            "type": "DT_FLOAT"
          }
        }
      },
      {
        "name": "PartitionedCall/model/tf.concat_1/concat/axis",
        "op": "Const",
        "attr": {
          "value": {
            "tensor": {
              "dtype": "DT_INT32",
              "tensorShape": {}
            }
          },
          "dtype": {
            "type": "DT_INT32"
          }
        }
      },
      {
        "name": "3944",
        "op": "Const",
        "attr": {
          "value": {
            "tensor": {
              "dtype": "DT_FLOAT",
              "tensorShape": {
                "dim": [
                  {
                    "size": "1"
                  },
                  {
                    "size": "1"
                  },
                  {
                    "size": "128"
                  },
                  {
                    "size": "64"
                  }
                ]
              }
            }
          },
          "dtype": {
            "type": "DT_FLOAT"
          }
        }
      },
      {
        "name": "3946",
        "op": "Const",
        "attr": {
          "dtype": {
            "type": "DT_FLOAT"
          },
          "value": {
            "tensor": {
              "dtype": "DT_FLOAT",
              "tensorShape": {
                "dim": [
                  {
                    "size": "64"
                  }
                ]
              }
            }
          }
        }
      },
      {
        "name": "3948",
        "op": "Const",
        "attr": {
          "dtype": {
            "type": "DT_INT32"
          },
          "value": {
            "tensor": {
              "dtype": "DT_INT32",
              "tensorShape": {
                "dim": [
                  {
                    "size": "4"
                  },
                  {
                    "size": "2"
                  }
                ]
              }
            }
          }
        }
      },
      {
        "name": "3950",
        "op": "Const",
        "attr": {
          "value": {
            "tensor": {
              "dtype": "DT_FLOAT",
              "tensorShape": {
                "dim": [
                  {
                    "size": "3"
                  },
                  {
                    "size": "3"
                  },
                  {
                    "size": "64"
                  },
                  {
                    "size": "128"
                  }
                ]
              }
            }
          },
          "dtype": {
            "type": "DT_FLOAT"
          }
        }
      },
      {
        "name": "3952",
        "op": "Const",
        "attr": {
          "dtype": {
            "type": "DT_FLOAT"
          },
          "value": {
            "tensor": {
              "dtype": "DT_FLOAT",
              "tensorShape": {
                "dim": [
                  {
                    "size": "128"
                  }
                ]
              }
            }
          }
        }
      },
      {
        "name": "3954",
        "op": "Const",
        "attr": {
          "value": {
            "tensor": {
              "dtype": "DT_FLOAT",
              "tensorShape": {
                "dim": [
                  {
                    "size": "1"
                  },
                  {
                    "size": "1"
                  },
                  {
                    "size": "128"
                  },
                  {
                    "size": "128"
                  }
                ]
              }
            }
          },
          "dtype": {
            "type": "DT_FLOAT"
          }
        }
      },
      {
        "name": "3956",
        "op": "Const",
        "attr": {
          "dtype": {
            "type": "DT_FLOAT"
          },
          "value": {
            "tensor": {
              "dtype": "DT_FLOAT",
              "tensorShape": {
                "dim": [
                  {
                    "size": "128"
                  }
                ]
              }
            }
          }
        }
      },
      {
        "name": "3958",
        "op": "Const",
        "attr": {
          "value": {
            "tensor": {
              "dtype": "DT_INT64",
              "tensorShape": {
                "dim": [
                  {
                    "size": "4"
                  }
                ]
              }
            }
          },
          "dtype": {
            "type": "DT_INT64"
          }
        }
      },
      {
        "name": "3960",
        "op": "Const",
        "attr": {
          "value": {
            "tensor": {
              "dtype": "DT_INT64",
              "tensorShape": {
                "dim": [
                  {
                    "size": "4"
                  }
                ]
              }
            }
          },
          "dtype": {
            "type": "DT_INT64"
          }
        }
      },
      {
        "name": "PartitionedCall/model/tf.strided_slice_5/ones_like",
        "op": "Const",
        "attr": {
          "dtype": {
            "type": "DT_INT64"
          },
          "value": {
            "tensor": {
              "dtype": "DT_INT64",
              "tensorShape": {
                "dim": [
                  {
                    "size": "4"
                  }
                ]
              }
            }
          }
        }
      },
      {
        "name": "3962",
        "op": "Const",
        "attr": {
          "dtype": {
            "type": "DT_FLOAT"
          },
          "value": {
            "tensor": {
              "dtype": "DT_FLOAT",
              "tensorShape": {
                "dim": [
                  {
                    "size": "3"
                  },
                  {
                    "size": "3"
                  },
                  {
                    "size": "64"
                  },
                  {
                    "size": "64"
                  }
                ]
              }
            }
          }
        }
      },
      {
        "name": "3964",
        "op": "Const",
        "attr": {
          "dtype": {
            "type": "DT_FLOAT"
          },
          "value": {
            "tensor": {
              "dtype": "DT_FLOAT",
              "tensorShape": {
                "dim": [
                  {
                    "size": "64"
                  }
                ]
              }
            }
          }
        }
      },
      {
        "name": "3966",
        "op": "Const",
        "attr": {
          "value": {
            "tensor": {
              "dtype": "DT_FLOAT",
              "tensorShape": {
                "dim": [
                  {
                    "size": "3"
                  },
                  {
                    "size": "3"
                  },
                  {
                    "size": "64"
                  },
                  {
                    "size": "64"
                  }
                ]
              }
            }
          },
          "dtype": {
            "type": "DT_FLOAT"
          }
        }
      },
      {
        "name": "3968",
        "op": "Const",
        "attr": {
          "dtype": {
            "type": "DT_FLOAT"
          },
          "value": {
            "tensor": {
              "dtype": "DT_FLOAT",
              "tensorShape": {
                "dim": [
                  {
                    "size": "64"
                  }
                ]
              }
            }
          }
        }
      },
      {
        "name": "3970",
        "op": "Const",
        "attr": {
          "dtype": {
            "type": "DT_FLOAT"
          },
          "value": {
            "tensor": {
              "dtype": "DT_FLOAT",
              "tensorShape": {
                "dim": [
                  {
                    "size": "3"
                  },
                  {
                    "size": "3"
                  },
                  {
                    "size": "64"
                  },
                  {
                    "size": "64"
                  }
                ]
              }
            }
          }
        }
      },
      {
        "name": "3972",
        "op": "Const",
        "attr": {
          "value": {
            "tensor": {
              "dtype": "DT_FLOAT",
              "tensorShape": {
                "dim": [
                  {
                    "size": "64"
                  }
                ]
              }
            }
          },
          "dtype": {
            "type": "DT_FLOAT"
          }
        }
      },
      {
        "name": "3974",
        "op": "Const",
        "attr": {
          "value": {
            "tensor": {
              "dtype": "DT_FLOAT",
              "tensorShape": {
                "dim": [
                  {
                    "size": "3"
                  },
                  {
                    "size": "3"
                  },
                  {
                    "size": "64"
                  },
                  {
                    "size": "64"
                  }
                ]
              }
            }
          },
          "dtype": {
            "type": "DT_FLOAT"
          }
        }
      },
      {
        "name": "3976",
        "op": "Const",
        "attr": {
          "dtype": {
            "type": "DT_FLOAT"
          },
          "value": {
            "tensor": {
              "dtype": "DT_FLOAT",
              "tensorShape": {
                "dim": [
                  {
                    "size": "64"
                  }
                ]
              }
            }
          }
        }
      },
      {
        "name": "PartitionedCall/model/tf.concat_2/concat/axis",
        "op": "Const",
        "attr": {
          "value": {
            "tensor": {
              "dtype": "DT_INT32",
              "tensorShape": {}
            }
          },
          "dtype": {
            "type": "DT_INT32"
          }
        }
      },
      {
        "name": "3982",
        "op": "Const",
        "attr": {
          "value": {
            "tensor": {
              "dtype": "DT_FLOAT",
              "tensorShape": {
                "dim": [
                  {
                    "size": "1"
                  },
                  {
                    "size": "1"
                  },
                  {
                    "size": "256"
                  },
                  {
                    "size": "128"
                  }
                ]
              }
            }
          },
          "dtype": {
            "type": "DT_FLOAT"
          }
        }
      },
      {
        "name": "3984",
        "op": "Const",
        "attr": {
          "dtype": {
            "type": "DT_FLOAT"
          },
          "value": {
            "tensor": {
              "dtype": "DT_FLOAT",
              "tensorShape": {
                "dim": [
                  {
                    "size": "128"
                  }
                ]
              }
            }
          }
        }
      },
      {
        "name": "3986",
        "op": "Const",
        "attr": {
          "dtype": {
            "type": "DT_INT32"
          },
          "value": {
            "tensor": {
              "dtype": "DT_INT32",
              "tensorShape": {
                "dim": [
                  {
                    "size": "4"
                  },
                  {
                    "size": "2"
                  }
                ]
              }
            }
          }
        }
      },
      {
        "name": "3988",
        "op": "Const",
        "attr": {
          "value": {
            "tensor": {
              "dtype": "DT_FLOAT",
              "tensorShape": {
                "dim": [
                  {
                    "size": "3"
                  },
                  {
                    "size": "3"
                  },
                  {
                    "size": "128"
                  },
                  {
                    "size": "256"
                  }
                ]
              }
            }
          },
          "dtype": {
            "type": "DT_FLOAT"
          }
        }
      },
      {
        "name": "3990",
        "op": "Const",
        "attr": {
          "value": {
            "tensor": {
              "dtype": "DT_FLOAT",
              "tensorShape": {
                "dim": [
                  {
                    "size": "256"
                  }
                ]
              }
            }
          },
          "dtype": {
            "type": "DT_FLOAT"
          }
        }
      },
      {
        "name": "3992",
        "op": "Const",
        "attr": {
          "dtype": {
            "type": "DT_FLOAT"
          },
          "value": {
            "tensor": {
              "dtype": "DT_FLOAT",
              "tensorShape": {
                "dim": [
                  {
                    "size": "1"
                  },
                  {
                    "size": "1"
                  },
                  {
                    "size": "256"
                  },
                  {
                    "size": "256"
                  }
                ]
              }
            }
          }
        }
      },
      {
        "name": "3994",
        "op": "Const",
        "attr": {
          "value": {
            "tensor": {
              "dtype": "DT_FLOAT",
              "tensorShape": {
                "dim": [
                  {
                    "size": "256"
                  }
                ]
              }
            }
          },
          "dtype": {
            "type": "DT_FLOAT"
          }
        }
      },
      {
        "name": "3996",
        "op": "Const",
        "attr": {
          "dtype": {
            "type": "DT_INT64"
          },
          "value": {
            "tensor": {
              "dtype": "DT_INT64",
              "tensorShape": {
                "dim": [
                  {
                    "size": "4"
                  }
                ]
              }
            }
          }
        }
      },
      {
        "name": "3998",
        "op": "Const",
        "attr": {
          "value": {
            "tensor": {
              "dtype": "DT_INT64",
              "tensorShape": {
                "dim": [
                  {
                    "size": "4"
                  }
                ]
              }
            }
          },
          "dtype": {
            "type": "DT_INT64"
          }
        }
      },
      {
        "name": "PartitionedCall/model/tf.strided_slice_7/ones_like",
        "op": "Const",
        "attr": {
          "value": {
            "tensor": {
              "dtype": "DT_INT64",
              "tensorShape": {
                "dim": [
                  {
                    "size": "4"
                  }
                ]
              }
            }
          },
          "dtype": {
            "type": "DT_INT64"
          }
        }
      },
      {
        "name": "4000",
        "op": "Const",
        "attr": {
          "dtype": {
            "type": "DT_FLOAT"
          },
          "value": {
            "tensor": {
              "dtype": "DT_FLOAT",
              "tensorShape": {
                "dim": [
                  {
                    "size": "3"
                  },
                  {
                    "size": "3"
                  },
                  {
                    "size": "128"
                  },
                  {
                    "size": "128"
                  }
                ]
              }
            }
          }
        }
      },
      {
        "name": "4002",
        "op": "Const",
        "attr": {
          "value": {
            "tensor": {
              "dtype": "DT_FLOAT",
              "tensorShape": {
                "dim": [
                  {
                    "size": "128"
                  }
                ]
              }
            }
          },
          "dtype": {
            "type": "DT_FLOAT"
          }
        }
      },
      {
        "name": "4004",
        "op": "Const",
        "attr": {
          "dtype": {
            "type": "DT_FLOAT"
          },
          "value": {
            "tensor": {
              "dtype": "DT_FLOAT",
              "tensorShape": {
                "dim": [
                  {
                    "size": "3"
                  },
                  {
                    "size": "3"
                  },
                  {
                    "size": "128"
                  },
                  {
                    "size": "128"
                  }
                ]
              }
            }
          }
        }
      },
      {
        "name": "4006",
        "op": "Const",
        "attr": {
          "dtype": {
            "type": "DT_FLOAT"
          },
          "value": {
            "tensor": {
              "dtype": "DT_FLOAT",
              "tensorShape": {
                "dim": [
                  {
                    "size": "128"
                  }
                ]
              }
            }
          }
        }
      },
      {
        "name": "PartitionedCall/model/tf.concat_3/concat/axis",
        "op": "Const",
        "attr": {
          "value": {
            "tensor": {
              "dtype": "DT_INT32",
              "tensorShape": {}
            }
          },
          "dtype": {
            "type": "DT_INT32"
          }
        }
      },
      {
        "name": "4012",
        "op": "Const",
        "attr": {
          "value": {
            "tensor": {
              "dtype": "DT_FLOAT",
              "tensorShape": {
                "dim": [
                  {
                    "size": "1"
                  },
                  {
                    "size": "1"
                  },
                  {
                    "size": "384"
                  },
                  {
                    "size": "256"
                  }
                ]
              }
            }
          },
          "dtype": {
            "type": "DT_FLOAT"
          }
        }
      },
      {
        "name": "4014",
        "op": "Const",
        "attr": {
          "dtype": {
            "type": "DT_FLOAT"
          },
          "value": {
            "tensor": {
              "dtype": "DT_FLOAT",
              "tensorShape": {
                "dim": [
                  {
                    "size": "256"
                  }
                ]
              }
            }
          }
        }
      },
      {
        "name": "4016",
        "op": "Const",
        "attr": {
          "value": {
            "tensor": {
              "dtype": "DT_FLOAT",
              "tensorShape": {
                "dim": [
                  {
                    "size": "1"
                  },
                  {
                    "size": "1"
                  },
                  {
                    "size": "256"
                  },
                  {
                    "size": "128"
                  }
                ]
              }
            }
          },
          "dtype": {
            "type": "DT_FLOAT"
          }
        }
      },
      {
        "name": "4018",
        "op": "Const",
        "attr": {
          "dtype": {
            "type": "DT_FLOAT"
          },
          "value": {
            "tensor": {
              "dtype": "DT_FLOAT",
              "tensorShape": {
                "dim": [
                  {
                    "size": "128"
                  }
                ]
              }
            }
          }
        }
      },
      {
        "name": "PartitionedCall/model/tf.concat_4/concat/axis",
        "op": "Const",
        "attr": {
          "dtype": {
            "type": "DT_INT32"
          },
          "value": {
            "tensor": {
              "dtype": "DT_INT32",
              "tensorShape": {}
            }
          }
        }
      },
      {
        "name": "4020",
        "op": "Const",
        "attr": {
          "dtype": {
            "type": "DT_FLOAT"
          },
          "value": {
            "tensor": {
              "dtype": "DT_FLOAT",
              "tensorShape": {
                "dim": [
                  {
                    "size": "1"
                  },
                  {
                    "size": "1"
                  },
                  {
                    "size": "512"
                  },
                  {
                    "size": "256"
                  }
                ]
              }
            }
          }
        }
      },
      {
        "name": "4022",
        "op": "Const",
        "attr": {
          "dtype": {
            "type": "DT_FLOAT"
          },
          "value": {
            "tensor": {
              "dtype": "DT_FLOAT",
              "tensorShape": {
                "dim": [
                  {
                    "size": "256"
                  }
                ]
              }
            }
          }
        }
      },
      {
        "name": "PartitionedCall/model/tf.concat_12/concat/axis",
        "op": "Const",
        "attr": {
          "dtype": {
            "type": "DT_INT32"
          },
          "value": {
            "tensor": {
              "dtype": "DT_INT32",
              "tensorShape": {}
            }
          }
        }
      },
      {
        "name": "4108",
        "op": "Const",
        "attr": {
          "value": {
            "tensor": {
              "dtype": "DT_FLOAT",
              "tensorShape": {
                "dim": [
                  {
                    "size": "1"
                  },
                  {
                    "size": "1"
                  },
                  {
                    "size": "384"
                  },
                  {
                    "size": "256"
                  }
                ]
              }
            }
          },
          "dtype": {
            "type": "DT_FLOAT"
          }
        }
      },
      {
        "name": "4110",
        "op": "Const",
        "attr": {
          "value": {
            "tensor": {
              "dtype": "DT_FLOAT",
              "tensorShape": {
                "dim": [
                  {
                    "size": "256"
                  }
                ]
              }
            }
          },
          "dtype": {
            "type": "DT_FLOAT"
          }
        }
      },
      {
        "name": "4112",
        "op": "Const",
        "attr": {
          "dtype": {
            "type": "DT_INT64"
          },
          "value": {
            "tensor": {
              "dtype": "DT_INT64",
              "tensorShape": {
                "dim": [
                  {
                    "size": "4"
                  }
                ]
              }
            }
          }
        }
      },
      {
        "name": "4114",
        "op": "Const",
        "attr": {
          "value": {
            "tensor": {
              "dtype": "DT_INT64",
              "tensorShape": {
                "dim": [
                  {
                    "size": "4"
                  }
                ]
              }
            }
          },
          "dtype": {
            "type": "DT_INT64"
          }
        }
      },
      {
        "name": "PartitionedCall/model/tf.strided_slice_15/ones_like",
        "op": "Const",
        "attr": {
          "value": {
            "tensor": {
              "dtype": "DT_INT64",
              "tensorShape": {
                "dim": [
                  {
                    "size": "4"
                  }
                ]
              }
            }
          },
          "dtype": {
            "type": "DT_INT64"
          }
        }
      },
      {
        "name": "4116",
        "op": "Const",
        "attr": {
          "value": {
            "tensor": {
              "dtype": "DT_FLOAT",
              "tensorShape": {
                "dim": [
                  {
                    "size": "3"
                  },
                  {
                    "size": "3"
                  },
                  {
                    "size": "128"
                  },
                  {
                    "size": "128"
                  }
                ]
              }
            }
          },
          "dtype": {
            "type": "DT_FLOAT"
          }
        }
      },
      {
        "name": "4118",
        "op": "Const",
        "attr": {
          "value": {
            "tensor": {
              "dtype": "DT_FLOAT",
              "tensorShape": {
                "dim": [
                  {
                    "size": "128"
                  }
                ]
              }
            }
          },
          "dtype": {
            "type": "DT_FLOAT"
          }
        }
      },
      {
        "name": "4120",
        "op": "Const",
        "attr": {
          "value": {
            "tensor": {
              "dtype": "DT_FLOAT",
              "tensorShape": {
                "dim": [
                  {
                    "size": "3"
                  },
                  {
                    "size": "3"
                  },
                  {
                    "size": "128"
                  },
                  {
                    "size": "128"
                  }
                ]
              }
            }
          },
          "dtype": {
            "type": "DT_FLOAT"
          }
        }
      },
      {
        "name": "4122",
        "op": "Const",
        "attr": {
          "dtype": {
            "type": "DT_FLOAT"
          },
          "value": {
            "tensor": {
              "dtype": "DT_FLOAT",
              "tensorShape": {
                "dim": [
                  {
                    "size": "128"
                  }
                ]
              }
            }
          }
        }
      },
      {
        "name": "PartitionedCall/model/tf.concat_14/concat/axis",
        "op": "Const",
        "attr": {
          "value": {
            "tensor": {
              "dtype": "DT_INT32",
              "tensorShape": {}
            }
          },
          "dtype": {
            "type": "DT_INT32"
          }
        }
      },
      {
        "name": "4128",
        "op": "Const",
        "attr": {
          "value": {
            "tensor": {
              "dtype": "DT_FLOAT",
              "tensorShape": {
                "dim": [
                  {
                    "size": "1"
                  },
                  {
                    "size": "1"
                  },
                  {
                    "size": "384"
                  },
                  {
                    "size": "256"
                  }
                ]
              }
            }
          },
          "dtype": {
            "type": "DT_FLOAT"
          }
        }
      },
      {
        "name": "4130",
        "op": "Const",
        "attr": {
          "value": {
            "tensor": {
              "dtype": "DT_FLOAT",
              "tensorShape": {
                "dim": [
                  {
                    "size": "256"
                  }
                ]
              }
            }
          },
          "dtype": {
            "type": "DT_FLOAT"
          }
        }
      },
      {
        "name": "4132",
        "op": "Const",
        "attr": {
          "value": {
            "tensor": {
              "dtype": "DT_FLOAT",
              "tensorShape": {
                "dim": [
                  {
                    "size": "3"
                  },
                  {
                    "size": "3"
                  },
                  {
                    "size": "256"
                  },
                  {
                    "size": "64"
                  }
                ]
              }
            }
          },
          "dtype": {
            "type": "DT_FLOAT"
          }
        }
      },
      {
        "name": "4144",
        "op": "Const",
        "attr": {
          "value": {
            "tensor": {
              "dtype": "DT_FLOAT",
              "tensorShape": {
                "dim": [
                  {
                    "size": "64"
                  }
                ]
              }
            }
          },
          "dtype": {
            "type": "DT_FLOAT"
          }
        }
      },
      {
        "name": "4156",
        "op": "Const",
        "attr": {
          "dtype": {
            "type": "DT_FLOAT"
          },
          "value": {
            "tensor": {
              "dtype": "DT_FLOAT",
              "tensorShape": {
                "dim": [
                  {
                    "size": "3"
                  },
                  {
                    "size": "3"
                  },
                  {
                    "size": "64"
                  },
                  {
                    "size": "64"
                  }
                ]
              }
            }
          }
        }
      },
      {
        "name": "4168",
        "op": "Const",
        "attr": {
          "value": {
            "tensor": {
              "dtype": "DT_FLOAT",
              "tensorShape": {
                "dim": [
                  {
                    "size": "64"
                  }
                ]
              }
            }
          },
          "dtype": {
            "type": "DT_FLOAT"
          }
        }
      },
      {
        "name": "4180",
        "op": "Const",
        "attr": {
          "value": {
            "tensor": {
              "dtype": "DT_FLOAT",
              "tensorShape": {
                "dim": [
                  {
                    "size": "1"
                  },
                  {
                    "size": "1"
                  },
                  {
                    "size": "64"
                  },
                  {
                    "size": "5"
                  }
                ]
              }
            }
          },
          "dtype": {
            "type": "DT_FLOAT"
          }
        }
      },
      {
        "name": "4194",
        "op": "Const",
        "attr": {
          "dtype": {
            "type": "DT_FLOAT"
          },
          "value": {
            "tensor": {
              "dtype": "DT_FLOAT",
              "tensorShape": {
                "dim": [
                  {
                    "size": "5"
                  }
                ]
              }
            }
          }
        }
      },
      {
        "name": "PartitionedCall/model/tf.concat_15/concat/axis",
        "op": "Const",
        "attr": {
          "dtype": {
            "type": "DT_INT32"
          },
          "value": {
            "tensor": {
              "dtype": "DT_INT32",
              "tensorShape": {}
            }
          }
        }
      },
      {
        "name": "PartitionedCall/model/tf.compat.v1.transpose_2/transpose/perm",
        "op": "Const",
        "attr": {
          "value": {
            "tensor": {
              "dtype": "DT_INT32",
              "tensorShape": {
                "dim": [
                  {
                    "size": "4"
                  }
                ]
              }
            }
          },
          "dtype": {
            "type": "DT_INT32"
          }
        }
      },
      {
        "name": "PartitionedCall/model/tf.reshape_2/Reshape/shape",
        "op": "Const",
        "attr": {
          "dtype": {
            "type": "DT_INT32"
          },
          "value": {
            "tensor": {
              "dtype": "DT_INT32",
              "tensorShape": {
                "dim": [
                  {
                    "size": "3"
                  }
                ]
              }
            }
          }
        }
      },
      {
        "name": "PartitionedCall/model/tf.concat_16/concat/axis",
        "op": "Const",
        "attr": {
          "dtype": {
            "type": "DT_INT32"
          },
          "value": {
            "tensor": {
              "dtype": "DT_INT32",
              "tensorShape": {}
            }
          }
        }
      },
      {
        "name": "4224",
        "op": "Const",
        "attr": {
          "dtype": {
            "type": "DT_INT64"
          },
          "value": {
            "tensor": {
              "dtype": "DT_INT64",
              "tensorShape": {
                "dim": [
                  {
                    "size": "3"
                  }
                ]
              }
            }
          }
        }
      },
      {
        "name": "4226",
        "op": "Const",
        "attr": {
          "value": {
            "tensor": {
              "dtype": "DT_INT64",
              "tensorShape": {
                "dim": [
                  {
                    "size": "3"
                  }
                ]
              }
            }
          },
          "dtype": {
            "type": "DT_INT64"
          }
        }
      },
      {
        "name": "PartitionedCall/model/tf.strided_slice_17/StridedSlice/strides",
        "op": "Const",
        "attr": {
          "value": {
            "tensor": {
              "dtype": "DT_INT64",
              "tensorShape": {
                "dim": [
                  {
                    "size": "3"
                  }
                ]
              }
            }
          },
          "dtype": {
            "type": "DT_INT64"
          }
        }
      },
      {
        "name": "PartitionedCall/model/output0/concat/axis",
        "op": "Const",
        "attr": {
          "value": {
            "tensor": {
              "dtype": "DT_INT32",
              "tensorShape": {}
            }
          },
          "dtype": {
            "type": "DT_INT32"
          }
        }
      },
      {
        "name": "x",
        "op": "Placeholder",
        "attr": {
          "dtype": {
            "type": "DT_FLOAT"
          },
          "shape": {
            "shape": {
              "dim": [
                {
                  "size": "1"
                },
                {
                  "size": "640"
                },
                {
                  "size": "640"
                },
                {
                  "size": "3"
                }
              ]
            }
          }
        }
      },
      {
        "name": "PartitionedCall/model/tf.compat.v1.pad/Pad",
        "op": "Pad",
        "input": [
          "x",
          "3874"
        ],
        "attr": {
          "Tpaddings": {
            "type": "DT_INT32"
          },
          "T": {
            "type": "DT_FLOAT"
          }
        }
      },
      {
        "name": "PartitionedCall/model/tf.nn.convolution/convolution",
        "op": "Conv2D",
        "input": [
          "PartitionedCall/model/tf.compat.v1.pad/Pad",
          "3876"
        ],
        "device": "/device:CPU:0",
        "attr": {
          "strides": {
            "list": {
              "i": [
                "1",
                "2",
                "2",
                "1"
              ]
            }
          },
          "data_format": {
            "s": "TkhXQw=="
          },
          "padding": {
            "s": "VkFMSUQ="
          },
          "explicit_paddings": {
            "list": {}
          },
          "use_cudnn_on_gpu": {
            "b": true
          },
          "T": {
            "type": "DT_FLOAT"
          },
          "dilations": {
            "list": {
              "i": [
                "1",
                "1",
                "1",
                "1"
              ]
            }
          }
        }
      },
      {
        "name": "PartitionedCall/model/tf.math.add/Add",
        "op": "AddV2",
        "input": [
          "PartitionedCall/model/tf.nn.convolution/convolution",
          "3878"
        ],
        "attr": {
          "T": {
            "type": "DT_FLOAT"
          }
        }
      },
      {
        "name": "PartitionedCall/model/tf.math.sigmoid/Sigmoid",
        "op": "Sigmoid",
        "input": [
          "PartitionedCall/model/tf.math.add/Add"
        ],
        "attr": {
          "T": {
            "type": "DT_FLOAT"
          }
        }
      },
      {
        "name": "PartitionedCall/model/tf.math.multiply_2/Mul",
        "op": "Mul",
        "input": [
          "PartitionedCall/model/tf.math.add/Add",
          "PartitionedCall/model/tf.math.sigmoid/Sigmoid"
        ],
        "attr": {
          "T": {
            "type": "DT_FLOAT"
          }
        }
      },
      {
        "name": "PartitionedCall/model/tf.compat.v1.pad_1/Pad",
        "op": "Pad",
        "input": [
          "PartitionedCall/model/tf.math.multiply_2/Mul",
          "3880"
        ],
        "attr": {
          "T": {
            "type": "DT_FLOAT"
          },
          "Tpaddings": {
            "type": "DT_INT32"
          }
        }
      },
      {
        "name": "PartitionedCall/model/tf.nn.convolution_1/convolution",
        "op": "Conv2D",
        "input": [
          "PartitionedCall/model/tf.compat.v1.pad_1/Pad",
          "3882"
        ],
        "device": "/device:CPU:0",
        "attr": {
          "data_format": {
            "s": "TkhXQw=="
          },
          "explicit_paddings": {
            "list": {}
          },
          "padding": {
            "s": "VkFMSUQ="
          },
          "use_cudnn_on_gpu": {
            "b": true
          },
          "dilations": {
            "list": {
              "i": [
                "1",
                "1",
                "1",
                "1"
              ]
            }
          },
          "strides": {
            "list": {
              "i": [
                "1",
                "2",
                "2",
                "1"
              ]
            }
          },
          "T": {
            "type": "DT_FLOAT"
          }
        }
      },
      {
        "name": "PartitionedCall/model/tf.math.add_1/Add",
        "op": "AddV2",
        "input": [
          "PartitionedCall/model/tf.nn.convolution_1/convolution",
          "3884"
        ],
        "attr": {
          "T": {
            "type": "DT_FLOAT"
          }
        }
      },
      {
        "name": "PartitionedCall/model/tf.math.sigmoid_1/Sigmoid",
        "op": "Sigmoid",
        "input": [
          "PartitionedCall/model/tf.math.add_1/Add"
        ],
        "attr": {
          "T": {
            "type": "DT_FLOAT"
          }
        }
      },
      {
        "name": "PartitionedCall/model/tf.math.multiply_5/Mul",
        "op": "Mul",
        "input": [
          "PartitionedCall/model/tf.math.add_1/Add",
          "PartitionedCall/model/tf.math.sigmoid_1/Sigmoid"
        ],
        "attr": {
          "T": {
            "type": "DT_FLOAT"
          }
        }
      },
      {
        "name": "PartitionedCall/model/tf.nn.convolution_2/convolution",
        "op": "Conv2D",
        "input": [
          "PartitionedCall/model/tf.math.multiply_5/Mul",
          "3886"
        ],
        "device": "/device:CPU:0",
        "attr": {
          "padding": {
            "s": "U0FNRQ=="
          },
          "dilations": {
            "list": {
              "i": [
                "1",
                "1",
                "1",
                "1"
              ]
            }
          },
          "T": {
            "type": "DT_FLOAT"
          },
          "data_format": {
            "s": "TkhXQw=="
          },
          "explicit_paddings": {
            "list": {}
          },
          "strides": {
            "list": {
              "i": [
                "1",
                "1",
                "1",
                "1"
              ]
            }
          },
          "use_cudnn_on_gpu": {
            "b": true
          }
        }
      },
      {
        "name": "PartitionedCall/model/tf.math.add_2/Add",
        "op": "AddV2",
        "input": [
          "PartitionedCall/model/tf.nn.convolution_2/convolution",
          "3888"
        ],
        "attr": {
          "T": {
            "type": "DT_FLOAT"
          }
        }
      },
      {
        "name": "PartitionedCall/model/tf.math.sigmoid_2/Sigmoid",
        "op": "Sigmoid",
        "input": [
          "PartitionedCall/model/tf.math.add_2/Add"
        ],
        "attr": {
          "T": {
            "type": "DT_FLOAT"
          }
        }
      },
      {
        "name": "PartitionedCall/model/tf.math.multiply_8/Mul",
        "op": "Mul",
        "input": [
          "PartitionedCall/model/tf.math.add_2/Add",
          "PartitionedCall/model/tf.math.sigmoid_2/Sigmoid"
        ],
        "attr": {
          "T": {
            "type": "DT_FLOAT"
          }
        }
      },
      {
        "name": "PartitionedCall/model/tf.strided_slice/StridedSlice",
        "op": "StridedSlice",
        "input": [
          "PartitionedCall/model/tf.math.multiply_8/Mul",
          "3902",
          "3904",
          "PartitionedCall/model/tf.strided_slice/ones_like"
        ],
        "attr": {
          "Index": {
            "type": "DT_INT64"
          },
          "shrink_axis_mask": {
            "i": "0"
          },
          "end_mask": {
            "i": "7"
          },
          "new_axis_mask": {
            "i": "0"
          },
          "T": {
            "type": "DT_FLOAT"
          },
          "ellipsis_mask": {
            "i": "0"
          },
          "begin_mask": {
            "i": "15"
          }
        }
      },
      {
        "name": "PartitionedCall/model/tf.strided_slice_1/StridedSlice",
        "op": "StridedSlice",
        "input": [
          "PartitionedCall/model/tf.math.multiply_8/Mul",
          "3890",
          "3892",
          "PartitionedCall/model/tf.strided_slice_1/ones_like"
        ],
        "attr": {
          "end_mask": {
            "i": "7"
          },
          "new_axis_mask": {
            "i": "0"
          },
          "shrink_axis_mask": {
            "i": "0"
          },
          "T": {
            "type": "DT_FLOAT"
          },
          "ellipsis_mask": {
            "i": "0"
          },
          "begin_mask": {
            "i": "7"
          },
          "Index": {
            "type": "DT_INT64"
          }
        }
      },
      {
        "name": "PartitionedCall/model/tf.nn.convolution_3/convolution",
        "op": "Conv2D",
        "input": [
          "PartitionedCall/model/tf.strided_slice_1/StridedSlice",
          "3894"
        ],
        "device": "/device:CPU:0",
        "attr": {
          "strides": {
            "list": {
              "i": [
                "1",
                "1",
                "1",
                "1"
              ]
            }
          },
          "data_format": {
            "s": "TkhXQw=="
          },
          "padding": {
            "s": "U0FNRQ=="
          },
          "explicit_paddings": {
            "list": {}
          },
          "use_cudnn_on_gpu": {
            "b": true
          },
          "T": {
            "type": "DT_FLOAT"
          },
          "dilations": {
            "list": {
              "i": [
                "1",
                "1",
                "1",
                "1"
              ]
            }
          }
        }
      },
      {
        "name": "PartitionedCall/model/tf.math.add_3/Add",
        "op": "AddV2",
        "input": [
          "PartitionedCall/model/tf.nn.convolution_3/convolution",
          "3896"
        ],
        "attr": {
          "T": {
            "type": "DT_FLOAT"
          }
        }
      },
      {
        "name": "PartitionedCall/model/tf.math.sigmoid_3/Sigmoid",
        "op": "Sigmoid",
        "input": [
          "PartitionedCall/model/tf.math.add_3/Add"
        ],
        "attr": {
          "T": {
            "type": "DT_FLOAT"
          }
        }
      },
      {
        "name": "PartitionedCall/model/tf.math.multiply_11/Mul",
        "op": "Mul",
        "input": [
          "PartitionedCall/model/tf.math.add_3/Add",
          "PartitionedCall/model/tf.math.sigmoid_3/Sigmoid"
        ],
        "attr": {
          "T": {
            "type": "DT_FLOAT"
          }
        }
      },
      {
        "name": "PartitionedCall/model/tf.nn.convolution_4/convolution",
        "op": "Conv2D",
        "input": [
          "PartitionedCall/model/tf.math.multiply_11/Mul",
          "3898"
        ],
        "device": "/device:CPU:0",
        "attr": {
          "strides": {
            "list": {
              "i": [
                "1",
                "1",
                "1",
                "1"
              ]
            }
          },
          "padding": {
            "s": "U0FNRQ=="
          },
          "explicit_paddings": {
            "list": {}
          },
          "dilations": {
            "list": {
              "i": [
                "1",
                "1",
                "1",
                "1"
              ]
            }
          },
          "use_cudnn_on_gpu": {
            "b": true
          },
          "data_format": {
            "s": "TkhXQw=="
          },
          "T": {
            "type": "DT_FLOAT"
          }
        }
      },
      {
        "name": "PartitionedCall/model/tf.math.add_4/Add",
        "op": "AddV2",
        "input": [
          "PartitionedCall/model/tf.nn.convolution_4/convolution",
          "3900"
        ],
        "attr": {
          "T": {
            "type": "DT_FLOAT"
          }
        }
      },
      {
        "name": "PartitionedCall/model/tf.math.sigmoid_4/Sigmoid",
        "op": "Sigmoid",
        "input": [
          "PartitionedCall/model/tf.math.add_4/Add"
        ],
        "attr": {
          "T": {
            "type": "DT_FLOAT"
          }
        }
      },
      {
        "name": "PartitionedCall/model/tf.math.multiply_14/Mul",
        "op": "Mul",
        "input": [
          "PartitionedCall/model/tf.math.add_4/Add",
          "PartitionedCall/model/tf.math.sigmoid_4/Sigmoid"
        ],
        "attr": {
          "T": {
            "type": "DT_FLOAT"
          }
        }
      },
      {
        "name": "PartitionedCall/model/tf.math.add_5/Add",
        "op": "AddV2",
        "input": [
          "PartitionedCall/model/tf.strided_slice_1/StridedSlice",
          "PartitionedCall/model/tf.math.multiply_14/Mul"
        ],
        "attr": {
          "T": {
            "type": "DT_FLOAT"
          }
        }
      },
      {
        "name": "PartitionedCall/model/tf.concat/concat",
        "op": "ConcatV2",
        "input": [
          "PartitionedCall/model/tf.strided_slice/StridedSlice",
          "PartitionedCall/model/tf.strided_slice_1/StridedSlice",
          "PartitionedCall/model/tf.math.add_5/Add",
          "PartitionedCall/model/tf.concat/concat/axis"
        ],
        "attr": {
          "N": {
            "i": "3"
          },
          "T": {
            "type": "DT_FLOAT"
          },
          "Tidx": {
            "type": "DT_INT32"
          }
        }
      },
      {
        "name": "PartitionedCall/model/tf.nn.convolution_5/convolution",
        "op": "Conv2D",
        "input": [
          "PartitionedCall/model/tf.concat/concat",
          "3906"
        ],
        "device": "/device:CPU:0",
        "attr": {
          "padding": {
            "s": "U0FNRQ=="
          },
          "data_format": {
            "s": "TkhXQw=="
          },
          "explicit_paddings": {
            "list": {}
          },
          "T": {
            "type": "DT_FLOAT"
          },
          "use_cudnn_on_gpu": {
            "b": true
          },
          "dilations": {
            "list": {
              "i": [
                "1",
                "1",
                "1",
                "1"
              ]
            }
          },
          "strides": {
            "list": {
              "i": [
                "1",
                "1",
                "1",
                "1"
              ]
            }
          }
        }
      },
      {
        "name": "PartitionedCall/model/tf.math.add_6/Add",
        "op": "AddV2",
        "input": [
          "PartitionedCall/model/tf.nn.convolution_5/convolution",
          "3908"
        ],
        "attr": {
          "T": {
            "type": "DT_FLOAT"
          }
        }
      },
      {
        "name": "PartitionedCall/model/tf.math.sigmoid_5/Sigmoid",
        "op": "Sigmoid",
        "input": [
          "PartitionedCall/model/tf.math.add_6/Add"
        ],
        "attr": {
          "T": {
            "type": "DT_FLOAT"
          }
        }
      },
      {
        "name": "PartitionedCall/model/tf.math.multiply_19/Mul",
        "op": "Mul",
        "input": [
          "PartitionedCall/model/tf.math.add_6/Add",
          "PartitionedCall/model/tf.math.sigmoid_5/Sigmoid"
        ],
        "attr": {
          "T": {
            "type": "DT_FLOAT"
          }
        }
      },
      {
        "name": "PartitionedCall/model/tf.compat.v1.pad_2/Pad",
        "op": "Pad",
        "input": [
          "PartitionedCall/model/tf.math.multiply_19/Mul",
          "3910"
        ],
        "attr": {
          "T": {
            "type": "DT_FLOAT"
          },
          "Tpaddings": {
            "type": "DT_INT32"
          }
        }
      },
      {
        "name": "PartitionedCall/model/tf.nn.convolution_6/convolution",
        "op": "Conv2D",
        "input": [
          "PartitionedCall/model/tf.compat.v1.pad_2/Pad",
          "3912"
        ],
        "device": "/device:CPU:0",
        "attr": {
          "explicit_paddings": {
            "list": {}
          },
          "dilations": {
            "list": {
              "i": [
                "1",
                "1",
                "1",
                "1"
              ]
            }
          },
          "T": {
            "type": "DT_FLOAT"
          },
          "use_cudnn_on_gpu": {
            "b": true
          },
          "strides": {
            "list": {
              "i": [
                "1",
                "2",
                "2",
                "1"
              ]
            }
          },
          "data_format": {
            "s": "TkhXQw=="
          },
          "padding": {
            "s": "VkFMSUQ="
          }
        }
      },
      {
        "name": "PartitionedCall/model/tf.math.add_7/Add",
        "op": "AddV2",
        "input": [
          "PartitionedCall/model/tf.nn.convolution_6/convolution",
          "3914"
        ],
        "attr": {
          "T": {
            "type": "DT_FLOAT"
          }
        }
      },
      {
        "name": "PartitionedCall/model/tf.math.sigmoid_6/Sigmoid",
        "op": "Sigmoid",
        "input": [
          "PartitionedCall/model/tf.math.add_7/Add"
        ],
        "attr": {
          "T": {
            "type": "DT_FLOAT"
          }
        }
      },
      {
        "name": "PartitionedCall/model/tf.math.multiply_22/Mul",
        "op": "Mul",
        "input": [
          "PartitionedCall/model/tf.math.add_7/Add",
          "PartitionedCall/model/tf.math.sigmoid_6/Sigmoid"
        ],
        "attr": {
          "T": {
            "type": "DT_FLOAT"
          }
        }
      },
      {
        "name": "PartitionedCall/model/tf.nn.convolution_7/convolution",
        "op": "Conv2D",
        "input": [
          "PartitionedCall/model/tf.math.multiply_22/Mul",
          "3916"
        ],
        "device": "/device:CPU:0",
        "attr": {
          "use_cudnn_on_gpu": {
            "b": true
          },
          "dilations": {
            "list": {
              "i": [
                "1",
                "1",
                "1",
                "1"
              ]
            }
          },
          "strides": {
            "list": {
              "i": [
                "1",
                "1",
                "1",
                "1"
              ]
            }
          },
          "padding": {
            "s": "U0FNRQ=="
          },
          "T": {
            "type": "DT_FLOAT"
          },
          "data_format": {
            "s": "TkhXQw=="
          },
          "explicit_paddings": {
            "list": {}
          }
        }
      },
      {
        "name": "PartitionedCall/model/tf.math.add_8/Add",
        "op": "AddV2",
        "input": [
          "PartitionedCall/model/tf.nn.convolution_7/convolution",
          "3918"
        ],
        "attr": {
          "T": {
            "type": "DT_FLOAT"
          }
        }
      },
      {
        "name": "PartitionedCall/model/tf.math.sigmoid_7/Sigmoid",
        "op": "Sigmoid",
        "input": [
          "PartitionedCall/model/tf.math.add_8/Add"
        ],
        "attr": {
          "T": {
            "type": "DT_FLOAT"
          }
        }
      },
      {
        "name": "PartitionedCall/model/tf.math.multiply_25/Mul",
        "op": "Mul",
        "input": [
          "PartitionedCall/model/tf.math.add_8/Add",
          "PartitionedCall/model/tf.math.sigmoid_7/Sigmoid"
        ],
        "attr": {
          "T": {
            "type": "DT_FLOAT"
          }
        }
      },
      {
        "name": "PartitionedCall/model/tf.strided_slice_2/StridedSlice",
        "op": "StridedSlice",
        "input": [
          "PartitionedCall/model/tf.math.multiply_25/Mul",
          "3940",
          "3942",
          "PartitionedCall/model/tf.strided_slice_2/ones_like"
        ],
        "attr": {
          "new_axis_mask": {
            "i": "0"
          },
          "T": {
            "type": "DT_FLOAT"
          },
          "ellipsis_mask": {
            "i": "0"
          },
          "Index": {
            "type": "DT_INT64"
          },
          "shrink_axis_mask": {
            "i": "0"
          },
          "begin_mask": {
            "i": "15"
          },
          "end_mask": {
            "i": "7"
          }
        }
      },
      {
        "name": "PartitionedCall/model/tf.strided_slice_3/StridedSlice",
        "op": "StridedSlice",
        "input": [
          "PartitionedCall/model/tf.math.multiply_25/Mul",
          "3920",
          "3922",
          "PartitionedCall/model/tf.strided_slice_3/ones_like"
        ],
        "attr": {
          "end_mask": {
            "i": "7"
          },
          "new_axis_mask": {
            "i": "0"
          },
          "shrink_axis_mask": {
            "i": "0"
          },
          "Index": {
            "type": "DT_INT64"
          },
          "T": {
            "type": "DT_FLOAT"
          },
          "ellipsis_mask": {
            "i": "0"
          },
          "begin_mask": {
            "i": "7"
          }
        }
      },
      {
        "name": "PartitionedCall/model/tf.nn.convolution_8/convolution",
        "op": "Conv2D",
        "input": [
          "PartitionedCall/model/tf.strided_slice_3/StridedSlice",
          "3924"
        ],
        "device": "/device:CPU:0",
        "attr": {
          "use_cudnn_on_gpu": {
            "b": true
          },
          "dilations": {
            "list": {
              "i": [
                "1",
                "1",
                "1",
                "1"
              ]
            }
          },
          "T": {
            "type": "DT_FLOAT"
          },
          "padding": {
            "s": "U0FNRQ=="
          },
          "data_format": {
            "s": "TkhXQw=="
          },
          "strides": {
            "list": {
              "i": [
                "1",
                "1",
                "1",
                "1"
              ]
            }
          },
          "explicit_paddings": {
            "list": {}
          }
        }
      },
      {
        "name": "PartitionedCall/model/tf.math.add_9/Add",
        "op": "AddV2",
        "input": [
          "PartitionedCall/model/tf.nn.convolution_8/convolution",
          "3926"
        ],
        "attr": {
          "T": {
            "type": "DT_FLOAT"
          }
        }
      },
      {
        "name": "PartitionedCall/model/tf.math.sigmoid_8/Sigmoid",
        "op": "Sigmoid",
        "input": [
          "PartitionedCall/model/tf.math.add_9/Add"
        ],
        "attr": {
          "T": {
            "type": "DT_FLOAT"
          }
        }
      },
      {
        "name": "PartitionedCall/model/tf.math.multiply_28/Mul",
        "op": "Mul",
        "input": [
          "PartitionedCall/model/tf.math.add_9/Add",
          "PartitionedCall/model/tf.math.sigmoid_8/Sigmoid"
        ],
        "attr": {
          "T": {
            "type": "DT_FLOAT"
          }
        }
      },
      {
        "name": "PartitionedCall/model/tf.nn.convolution_9/convolution",
        "op": "Conv2D",
        "input": [
          "PartitionedCall/model/tf.math.multiply_28/Mul",
          "3928"
        ],
        "device": "/device:CPU:0",
        "attr": {
          "explicit_paddings": {
            "list": {}
          },
          "padding": {
            "s": "U0FNRQ=="
          },
          "use_cudnn_on_gpu": {
            "b": true
          },
          "dilations": {
            "list": {
              "i": [
                "1",
                "1",
                "1",
                "1"
              ]
            }
          },
          "T": {
            "type": "DT_FLOAT"
          },
          "strides": {
            "list": {
              "i": [
                "1",
                "1",
                "1",
                "1"
              ]
            }
          },
          "data_format": {
            "s": "TkhXQw=="
          }
        }
      },
      {
        "name": "PartitionedCall/model/tf.math.add_10/Add",
        "op": "AddV2",
        "input": [
          "PartitionedCall/model/tf.nn.convolution_9/convolution",
          "3930"
        ],
        "attr": {
          "T": {
            "type": "DT_FLOAT"
          }
        }
      },
      {
        "name": "PartitionedCall/model/tf.math.sigmoid_9/Sigmoid",
        "op": "Sigmoid",
        "input": [
          "PartitionedCall/model/tf.math.add_10/Add"
        ],
        "attr": {
          "T": {
            "type": "DT_FLOAT"
          }
        }
      },
      {
        "name": "PartitionedCall/model/tf.math.multiply_31/Mul",
        "op": "Mul",
        "input": [
          "PartitionedCall/model/tf.math.add_10/Add",
          "PartitionedCall/model/tf.math.sigmoid_9/Sigmoid"
        ],
        "attr": {
          "T": {
            "type": "DT_FLOAT"
          }
        }
      },
      {
        "name": "PartitionedCall/model/tf.math.add_11/Add",
        "op": "AddV2",
        "input": [
          "PartitionedCall/model/tf.strided_slice_3/StridedSlice",
          "PartitionedCall/model/tf.math.multiply_31/Mul"
        ],
        "attr": {
          "T": {
            "type": "DT_FLOAT"
          }
        }
      },
      {
        "name": "PartitionedCall/model/tf.nn.convolution_10/convolution",
        "op": "Conv2D",
        "input": [
          "PartitionedCall/model/tf.math.add_11/Add",
          "3932"
        ],
        "device": "/device:CPU:0",
        "attr": {
          "use_cudnn_on_gpu": {
            "b": true
          },
          "T": {
            "type": "DT_FLOAT"
          },
          "dilations": {
            "list": {
              "i": [
                "1",
                "1",
                "1",
                "1"
              ]
            }
          },
          "strides": {
            "list": {
              "i": [
                "1",
                "1",
                "1",
                "1"
              ]
            }
          },
          "padding": {
            "s": "U0FNRQ=="
          },
          "data_format": {
            "s": "TkhXQw=="
          },
          "explicit_paddings": {
            "list": {}
          }
        }
      },
      {
        "name": "PartitionedCall/model/tf.math.add_12/Add",
        "op": "AddV2",
        "input": [
          "PartitionedCall/model/tf.nn.convolution_10/convolution",
          "3934"
        ],
        "attr": {
          "T": {
            "type": "DT_FLOAT"
          }
        }
      },
      {
        "name": "PartitionedCall/model/tf.math.sigmoid_10/Sigmoid",
        "op": "Sigmoid",
        "input": [
          "PartitionedCall/model/tf.math.add_12/Add"
        ],
        "attr": {
          "T": {
            "type": "DT_FLOAT"
          }
        }
      },
      {
        "name": "PartitionedCall/model/tf.math.multiply_36/Mul",
        "op": "Mul",
        "input": [
          "PartitionedCall/model/tf.math.add_12/Add",
          "PartitionedCall/model/tf.math.sigmoid_10/Sigmoid"
        ],
        "attr": {
          "T": {
            "type": "DT_FLOAT"
          }
        }
      },
      {
        "name": "PartitionedCall/model/tf.nn.convolution_11/convolution",
        "op": "Conv2D",
        "input": [
          "PartitionedCall/model/tf.math.multiply_36/Mul",
          "3936"
        ],
        "device": "/device:CPU:0",
        "attr": {
          "use_cudnn_on_gpu": {
            "b": true
          },
          "data_format": {
            "s": "TkhXQw=="
          },
          "T": {
            "type": "DT_FLOAT"
          },
          "explicit_paddings": {
            "list": {}
          },
          "strides": {
            "list": {
              "i": [
                "1",
                "1",
                "1",
                "1"
              ]
            }
          },
          "padding": {
            "s": "U0FNRQ=="
          },
          "dilations": {
            "list": {
              "i": [
                "1",
                "1",
                "1",
                "1"
              ]
            }
          }
        }
      },
      {
        "name": "PartitionedCall/model/tf.math.add_13/Add",
        "op": "AddV2",
        "input": [
          "PartitionedCall/model/tf.nn.convolution_11/convolution",
          "3938"
        ],
        "attr": {
          "T": {
            "type": "DT_FLOAT"
          }
        }
      },
      {
        "name": "PartitionedCall/model/tf.math.sigmoid_11/Sigmoid",
        "op": "Sigmoid",
        "input": [
          "PartitionedCall/model/tf.math.add_13/Add"
        ],
        "attr": {
          "T": {
            "type": "DT_FLOAT"
          }
        }
      },
      {
        "name": "PartitionedCall/model/tf.math.multiply_39/Mul",
        "op": "Mul",
        "input": [
          "PartitionedCall/model/tf.math.add_13/Add",
          "PartitionedCall/model/tf.math.sigmoid_11/Sigmoid"
        ],
        "attr": {
          "T": {
            "type": "DT_FLOAT"
          }
        }
      },
      {
        "name": "PartitionedCall/model/tf.math.add_14/Add",
        "op": "AddV2",
        "input": [
          "PartitionedCall/model/tf.math.add_11/Add",
          "PartitionedCall/model/tf.math.multiply_39/Mul"
        ],
        "attr": {
          "T": {
            "type": "DT_FLOAT"
          }
        }
      },
      {
        "name": "PartitionedCall/model/tf.concat_1/concat",
        "op": "ConcatV2",
        "input": [
          "PartitionedCall/model/tf.strided_slice_2/StridedSlice",
          "PartitionedCall/model/tf.strided_slice_3/StridedSlice",
          "PartitionedCall/model/tf.math.add_11/Add",
          "PartitionedCall/model/tf.math.add_14/Add",
          "PartitionedCall/model/tf.concat_1/concat/axis"
        ],
        "attr": {
          "N": {
            "i": "4"
          },
          "Tidx": {
            "type": "DT_INT32"
          },
          "T": {
            "type": "DT_FLOAT"
          }
        }
      },
      {
        "name": "PartitionedCall/model/tf.nn.convolution_12/convolution",
        "op": "Conv2D",
        "input": [
          "PartitionedCall/model/tf.concat_1/concat",
          "3944"
        ],
        "device": "/device:CPU:0",
        "attr": {
          "use_cudnn_on_gpu": {
            "b": true
          },
          "data_format": {
            "s": "TkhXQw=="
          },
          "explicit_paddings": {
            "list": {}
          },
          "strides": {
            "list": {
              "i": [
                "1",
                "1",
                "1",
                "1"
              ]
            }
          },
          "T": {
            "type": "DT_FLOAT"
          },
          "padding": {
            "s": "U0FNRQ=="
          },
          "dilations": {
            "list": {
              "i": [
                "1",
                "1",
                "1",
                "1"
              ]
            }
          }
        }
      },
      {
        "name": "PartitionedCall/model/tf.math.add_15/Add",
        "op": "AddV2",
        "input": [
          "PartitionedCall/model/tf.nn.convolution_12/convolution",
          "3946"
        ],
        "attr": {
          "T": {
            "type": "DT_FLOAT"
          }
        }
      },
      {
        "name": "PartitionedCall/model/tf.math.sigmoid_12/Sigmoid",
        "op": "Sigmoid",
        "input": [
          "PartitionedCall/model/tf.math.add_15/Add"
        ],
        "attr": {
          "T": {
            "type": "DT_FLOAT"
          }
        }
      },
      {
        "name": "PartitionedCall/model/tf.math.multiply_44/Mul",
        "op": "Mul",
        "input": [
          "PartitionedCall/model/tf.math.add_15/Add",
          "PartitionedCall/model/tf.math.sigmoid_12/Sigmoid"
        ],
        "attr": {
          "T": {
            "type": "DT_FLOAT"
          }
        }
      },
      {
        "name": "PartitionedCall/model/tf.compat.v1.pad_3/Pad",
        "op": "Pad",
        "input": [
          "PartitionedCall/model/tf.math.multiply_44/Mul",
          "3948"
        ],
        "attr": {
          "T": {
            "type": "DT_FLOAT"
          },
          "Tpaddings": {
            "type": "DT_INT32"
          }
        }
      },
      {
        "name": "PartitionedCall/model/tf.nn.convolution_13/convolution",
        "op": "Conv2D",
        "input": [
          "PartitionedCall/model/tf.compat.v1.pad_3/Pad",
          "3950"
        ],
        "device": "/device:CPU:0",
        "attr": {
          "data_format": {
            "s": "TkhXQw=="
          },
          "explicit_paddings": {
            "list": {}
          },
          "padding": {
            "s": "VkFMSUQ="
          },
          "T": {
            "type": "DT_FLOAT"
          },
          "dilations": {
            "list": {
              "i": [
                "1",
                "1",
                "1",
                "1"
              ]
            }
          },
          "strides": {
            "list": {
              "i": [
                "1",
                "2",
                "2",
                "1"
              ]
            }
          },
          "use_cudnn_on_gpu": {
            "b": true
          }
        }
      },
      {
        "name": "PartitionedCall/model/tf.math.add_16/Add",
        "op": "AddV2",
        "input": [
          "PartitionedCall/model/tf.nn.convolution_13/convolution",
          "3952"
        ],
        "attr": {
          "T": {
            "type": "DT_FLOAT"
          }
        }
      },
      {
        "name": "PartitionedCall/model/tf.math.sigmoid_13/Sigmoid",
        "op": "Sigmoid",
        "input": [
          "PartitionedCall/model/tf.math.add_16/Add"
        ],
        "attr": {
          "T": {
            "type": "DT_FLOAT"
          }
        }
      },
      {
        "name": "PartitionedCall/model/tf.math.multiply_47/Mul",
        "op": "Mul",
        "input": [
          "PartitionedCall/model/tf.math.add_16/Add",
          "PartitionedCall/model/tf.math.sigmoid_13/Sigmoid"
        ],
        "attr": {
          "T": {
            "type": "DT_FLOAT"
          }
        }
      },
      {
        "name": "PartitionedCall/model/tf.nn.convolution_14/convolution",
        "op": "Conv2D",
        "input": [
          "PartitionedCall/model/tf.math.multiply_47/Mul",
          "3954"
        ],
        "device": "/device:CPU:0",
        "attr": {
          "data_format": {
            "s": "TkhXQw=="
          },
          "explicit_paddings": {
            "list": {}
          },
          "strides": {
            "list": {
              "i": [
                "1",
                "1",
                "1",
                "1"
              ]
            }
          },
          "padding": {
            "s": "U0FNRQ=="
          },
          "dilations": {
            "list": {
              "i": [
                "1",
                "1",
                "1",
                "1"
              ]
            }
          },
          "T": {
            "type": "DT_FLOAT"
          },
          "use_cudnn_on_gpu": {
            "b": true
          }
        }
      },
      {
        "name": "PartitionedCall/model/tf.math.add_17/Add",
        "op": "AddV2",
        "input": [
          "PartitionedCall/model/tf.nn.convolution_14/convolution",
          "3956"
        ],
        "attr": {
          "T": {
            "type": "DT_FLOAT"
          }
        }
      },
      {
        "name": "PartitionedCall/model/tf.math.sigmoid_14/Sigmoid",
        "op": "Sigmoid",
        "input": [
          "PartitionedCall/model/tf.math.add_17/Add"
        ],
        "attr": {
          "T": {
            "type": "DT_FLOAT"
          }
        }
      },
      {
        "name": "PartitionedCall/model/tf.math.multiply_50/Mul",
        "op": "Mul",
        "input": [
          "PartitionedCall/model/tf.math.add_17/Add",
          "PartitionedCall/model/tf.math.sigmoid_14/Sigmoid"
        ],
        "attr": {
          "T": {
            "type": "DT_FLOAT"
          }
        }
      },
      {
        "name": "PartitionedCall/model/tf.strided_slice_4/StridedSlice",
        "op": "StridedSlice",
        "input": [
          "PartitionedCall/model/tf.math.multiply_50/Mul",
          "3978",
          "3980",
          "PartitionedCall/model/tf.strided_slice_4/ones_like"
        ],
        "attr": {
          "Index": {
            "type": "DT_INT64"
          },
          "ellipsis_mask": {
            "i": "0"
          },
          "T": {
            "type": "DT_FLOAT"
          },
          "new_axis_mask": {
            "i": "0"
          },
          "begin_mask": {
            "i": "15"
          },
          "shrink_axis_mask": {
…
        "input": [
          "PartitionedCall/model/tf.nn.convolution_60/convolution",
          "4168"
        ],
        "attr": {
          "T": {
            "type": "DT_FLOAT"
          }
        }
      },
      {
        "name": "PartitionedCall/model/tf.math.sigmoid_55/Sigmoid",
        "op": "Sigmoid",
        "input": [
          "PartitionedCall/model/tf.math.add_65/Add"
        ],
        "attr": {
          "T": {
            "type": "DT_FLOAT"
          }
        }
      },
      {
        "name": "PartitionedCall/model/tf.math.sigmoid_56/Sigmoid",
        "op": "Sigmoid",
        "input": [
          "PartitionedCall/model/tf.math.add_66/Add"
        ],
        "attr": {
          "T": {
            "type": "DT_FLOAT"
          }
        }
      },
      {
        "name": "PartitionedCall/model/tf.math.multiply_179/Mul",
        "op": "Mul",
        "input": [
          "PartitionedCall/model/tf.math.add_65/Add",
          "PartitionedCall/model/tf.math.sigmoid_55/Sigmoid"
        ],
        "attr": {
          "T": {
            "type": "DT_FLOAT"
          }
        }
      },
      {
        "name": "PartitionedCall/model/tf.math.multiply_182/Mul",
        "op": "Mul",
        "input": [
          "PartitionedCall/model/tf.math.add_66/Add",
          "PartitionedCall/model/tf.math.sigmoid_56/Sigmoid"
        ],
        "attr": {
          "T": {
            "type": "DT_FLOAT"
          }
        }
      },
      {
        "name": "PartitionedCall/model/tf.nn.convolution_61/convolution",
        "op": "Conv2D",
        "input": [
          "PartitionedCall/model/tf.math.multiply_179/Mul",
          "4182"
        ],
        "device": "/device:CPU:0",
        "attr": {
          "use_cudnn_on_gpu": {
            "b": true
          },
          "dilations": {
            "list": {
              "i": [
                "1",
                "1",
                "1",
                "1"
              ]
            }
          },
          "data_format": {
            "s": "TkhXQw=="
          },
          "padding": {
            "s": "U0FNRQ=="
          },
          "strides": {
            "list": {
              "i": [
                "1",
                "1",
                "1",
                "1"
              ]
            }
          },
          "T": {
            "type": "DT_FLOAT"
          },
          "explicit_paddings": {
            "list": {}
          }
        }
      },
      {
        "name": "PartitionedCall/model/tf.nn.convolution_62/convolution",
        "op": "Conv2D",
        "input": [
          "PartitionedCall/model/tf.math.multiply_182/Mul",
          "4180"
        ],
        "device": "/device:CPU:0",
        "attr": {
          "T": {
            "type": "DT_FLOAT"
          },
          "padding": {
            "s": "U0FNRQ=="
          },
          "strides": {
            "list": {
              "i": [
                "1",
                "1",
                "1",
                "1"
              ]
            }
          },
          "explicit_paddings": {
            "list": {}
          },
          "dilations": {
            "list": {
              "i": [
                "1",
                "1",
                "1",
                "1"
              ]
            }
          },
          "use_cudnn_on_gpu": {
            "b": true
          },
          "data_format": {
            "s": "TkhXQw=="
          }
        }
      },
      {
        "name": "PartitionedCall/model/tf.math.add_67/Add",
        "op": "AddV2",
        "input": [
          "PartitionedCall/model/tf.nn.convolution_61/convolution",
          "4192"
        ],
        "attr": {
          "T": {
            "type": "DT_FLOAT"
          }
        }
      },
      {
        "name": "PartitionedCall/model/tf.math.add_68/Add",
        "op": "AddV2",
        "input": [
          "PartitionedCall/model/tf.nn.convolution_62/convolution",
          "4194"
        ],
        "attr": {
          "T": {
            "type": "DT_FLOAT"
          }
        }
      },
      {
        "name": "PartitionedCall/model/tf.concat_15/concat",
        "op": "ConcatV2",
        "input": [
          "PartitionedCall/model/tf.math.add_67/Add",
          "PartitionedCall/model/tf.math.add_68/Add",
          "PartitionedCall/model/tf.concat_15/concat/axis"
        ],
        "attr": {
          "T": {
            "type": "DT_FLOAT"
          },
          "N": {
            "i": "2"
          },
          "Tidx": {
            "type": "DT_INT32"
          }
        }
      },
      {
        "name": "PartitionedCall/model/tf.compat.v1.transpose_2/transpose",
        "op": "Transpose",
        "input": [
          "PartitionedCall/model/tf.concat_15/concat",
          "PartitionedCall/model/tf.compat.v1.transpose_2/transpose/perm"
        ],
        "attr": {
          "Tperm": {
            "type": "DT_INT32"
          },
          "T": {
            "type": "DT_FLOAT"
          }
        }
      },
      {
        "name": "PartitionedCall/model/tf.reshape_2/Reshape",
        "op": "Reshape",
        "input": [
          "PartitionedCall/model/tf.compat.v1.transpose_2/transpose",
          "PartitionedCall/model/tf.reshape_2/Reshape/shape"
        ],
        "attr": {
          "Tshape": {
            "type": "DT_INT32"
          },
          "T": {
            "type": "DT_FLOAT"
          }
        }
      },
      {
        "name": "PartitionedCall/model/tf.concat_16/concat",
        "op": "ConcatV2",
        "input": [
          "PartitionedCall/model/tf.reshape/Reshape",
          "PartitionedCall/model/tf.reshape_1/Reshape",
          "PartitionedCall/model/tf.reshape_2/Reshape",
          "PartitionedCall/model/tf.concat_16/concat/axis"
        ],
        "attr": {
          "T": {
            "type": "DT_FLOAT"
          },
          "Tidx": {
            "type": "DT_INT32"
          },
          "N": {
            "i": "3"
          }
        }
      },
      {
        "name": "PartitionedCall/model/tf.strided_slice_16/StridedSlice",
        "op": "StridedSlice",
        "input": [
          "PartitionedCall/model/tf.concat_16/concat",
          "4204",
          "4206",
          "PartitionedCall/model/tf.strided_slice_16/StridedSlice/strides"
        ],
        "attr": {
          "new_axis_mask": {
            "i": "0"
          },
          "begin_mask": {
            "i": "7"
          },
          "Index": {
            "type": "DT_INT64"
          },
          "T": {
            "type": "DT_FLOAT"
          },
          "shrink_axis_mask": {
            "i": "0"
          },
          "ellipsis_mask": {
            "i": "0"
          },
          "end_mask": {
            "i": "5"
          }
        }
      },
      {
        "name": "PartitionedCall/model/tf.strided_slice_17/StridedSlice",
        "op": "StridedSlice",
        "input": [
          "PartitionedCall/model/tf.concat_16/concat",
          "4224",
          "4226",
          "PartitionedCall/model/tf.strided_slice_17/StridedSlice/strides"
        ],
        "attr": {
          "shrink_axis_mask": {
            "i": "0"
          },
          "new_axis_mask": {
            "i": "0"
          },
          "ellipsis_mask": {
            "i": "0"
          },
          "Index": {
            "type": "DT_INT64"
          },
          "end_mask": {
            "i": "5"
          },
          "T": {
            "type": "DT_FLOAT"
          },
          "begin_mask": {
            "i": "5"
          }
        }
      },
      {
        "name": "PartitionedCall/model/tf.reshape_3/Reshape",
        "op": "Reshape",
        "input": [
          "PartitionedCall/model/tf.strided_slice_16/StridedSlice",
          "PartitionedCall/model/tf.reshape_3/Reshape/shape"
        ],
        "attr": {
          "Tshape": {
            "type": "DT_INT32"
          },
          "T": {
            "type": "DT_FLOAT"
          }
        }
      },
      {
        "name": "PartitionedCall/model/tf.math.sigmoid_57/Sigmoid",
        "op": "Sigmoid",
        "input": [
          "PartitionedCall/model/tf.strided_slice_17/StridedSlice"
        ],
        "attr": {
          "T": {
            "type": "DT_FLOAT"
          }
        }
      },
      {
        "name": "PartitionedCall/model/tf.compat.v1.transpose_4/transpose",
        "op": "Transpose",
        "input": [
          "PartitionedCall/model/tf.reshape_3/Reshape",
          "PartitionedCall/model/tf.compat.v1.transpose_4/transpose/perm"
        ],
        "attr": {
          "T": {
            "type": "DT_FLOAT"
          },
          "Tperm": {
            "type": "DT_INT32"
          }
        }
      },
      {
        "name": "PartitionedCall/model/tf.compat.v1.transpose_5/transpose",
        "op": "Transpose",
        "input": [
          "PartitionedCall/model/tf.compat.v1.transpose_4/transpose",
          "PartitionedCall/model/tf.compat.v1.transpose_5/transpose/perm"
        ],
        "attr": {
          "Tperm": {
            "type": "DT_INT32"
          },
          "T": {
            "type": "DT_FLOAT"
          }
        }
      },
      {
        "name": "PartitionedCall/model/tf.nn.softmax//model.22/dfl/Softmax",
        "op": "Softmax",
        "input": [
          "PartitionedCall/model/tf.compat.v1.transpose_5/transpose"
        ],
        "attr": {
          "T": {
            "type": "DT_FLOAT"
          }
        }
      },
      {
        "name": "PartitionedCall/model/tf.nn.convolution_63/convolution",
        "op": "Conv2D",
        "input": [
          "PartitionedCall/model/tf.nn.softmax//model.22/dfl/Softmax",
          "4208"
        ],
        "device": "/device:CPU:0",
        "attr": {
          "padding": {
            "s": "U0FNRQ=="
          },
          "use_cudnn_on_gpu": {
            "b": true
          },
          "dilations": {
            "list": {
              "i": [
                "1",
                "1",
                "1",
                "1"
              ]
            }
          },
          "data_format": {
            "s": "TkhXQw=="
          },
          "T": {
            "type": "DT_FLOAT"
          },
          "explicit_paddings": {
            "list": {}
          },
          "strides": {
            "list": {
              "i": [
                "1",
                "1",
                "1",
                "1"
              ]
            }
          }
        }
      },
      {
        "name": "PartitionedCall/model/tf.compat.v1.transpose_8/transpose",
        "op": "Transpose",
        "input": [
          "PartitionedCall/model/tf.nn.convolution_63/convolution",
          "PartitionedCall/model/tf.compat.v1.transpose_8/transpose/perm"
        ],
        "attr": {
          "Tperm": {
            "type": "DT_INT32"
          },
          "T": {
            "type": "DT_FLOAT"
          }
        }
      },
      {
        "name": "PartitionedCall/model/tf.reshape_4/Reshape",
        "op": "Reshape",
        "input": [
          "PartitionedCall/model/tf.compat.v1.transpose_8/transpose",
          "PartitionedCall/model/tf.reshape_4/Reshape/shape"
        ],
        "attr": {
          "T": {
            "type": "DT_FLOAT"
          },
          "Tshape": {
            "type": "DT_INT32"
          }
        }
      },
      {
        "name": "PartitionedCall/model/tf.strided_slice_19/StridedSlice",
        "op": "StridedSlice",
        "input": [
          "PartitionedCall/model/tf.reshape_4/Reshape",
          "4210",
          "4212",
          "PartitionedCall/model/tf.strided_slice_19/ones_like"
        ],
        "attr": {
          "ellipsis_mask": {
            "i": "0"
          },
          "end_mask": {
            "i": "5"
          },
          "new_axis_mask": {
            "i": "0"
          },
          "shrink_axis_mask": {
            "i": "0"
          },
          "Index": {
            "type": "DT_INT64"
          },
          "begin_mask": {
            "i": "5"
          },
          "T": {
            "type": "DT_FLOAT"
          }
        }
      },
      {
        "name": "PartitionedCall/model/tf.strided_slice_18/StridedSlice",
        "op": "StridedSlice",
        "input": [
          "PartitionedCall/model/tf.reshape_4/Reshape",
          "4214",
          "4216",
          "PartitionedCall/model/tf.strided_slice_18/ones_like"
        ],
        "attr": {
          "end_mask": {
            "i": "5"
          },
          "new_axis_mask": {
            "i": "0"
          },
          "T": {
            "type": "DT_FLOAT"
          },
          "shrink_axis_mask": {
            "i": "0"
          },
          "begin_mask": {
            "i": "7"
          },
          "Index": {
            "type": "DT_INT64"
          },
          "ellipsis_mask": {
            "i": "0"
          }
        }
      },
      {
        "name": "PartitionedCall/model/tf.math.add_69/Add",
        "op": "AddV2",
        "input": [
          "4218",
          "PartitionedCall/model/tf.strided_slice_19/StridedSlice"
        ],
        "attr": {
          "T": {
            "type": "DT_FLOAT"
          }
        }
      },
      {
        "name": "PartitionedCall/model/tf.math.subtract/Sub",
        "op": "Sub",
        "input": [
          "4220",
          "PartitionedCall/model/tf.strided_slice_18/StridedSlice"
        ],
        "attr": {
          "T": {
            "type": "DT_FLOAT"
          }
        }
      },
      {
        "name": "PartitionedCall/model/tf.math.add_70/Add",
        "op": "AddV2",
        "input": [
          "PartitionedCall/model/tf.math.subtract/Sub",
          "PartitionedCall/model/tf.math.add_69/Add"
        ],
        "attr": {
          "T": {
            "type": "DT_FLOAT"
          }
        }
      },
      {
        "name": "PartitionedCall/model/tf.math.subtract_1/Sub",
        "op": "Sub",
        "input": [
          "PartitionedCall/model/tf.math.add_69/Add",
          "PartitionedCall/model/tf.math.subtract/Sub"
        ],
        "attr": {
          "T": {
            "type": "DT_FLOAT"
          }
        }
      },
      {
        "name": "PartitionedCall/model/tf.math.divide/truediv",
        "op": "Mul",
        "input": [
          "PartitionedCall/model/tf.math.add_70/Add",
          "ConstantFolding/PartitionedCall/model/tf.math.divide/truediv_recip"
        ],
        "attr": {
          "T": {
            "type": "DT_FLOAT"
          }
        }
      },
      {
        "name": "PartitionedCall/model/tf.concat_17/concat",
        "op": "ConcatV2",
        "input": [
          "PartitionedCall/model/tf.math.divide/truediv",
          "PartitionedCall/model/tf.math.subtract_1/Sub",
          "PartitionedCall/model/tf.concat_17/concat/axis"
        ],
        "attr": {
          "T": {
            "type": "DT_FLOAT"
          },
          "N": {
            "i": "2"
          },
          "Tidx": {
            "type": "DT_INT32"
          }
        }
      },
      {
        "name": "PartitionedCall/model/tf.math.multiply_195/Mul",
        "op": "Mul",
        "input": [
          "PartitionedCall/model/tf.concat_17/concat",
          "PartitionedCall/model/tf.math.multiply_195/Mul/y"
        ],
        "attr": {
          "T": {
            "type": "DT_FLOAT"
          }
        }
      },
      {
        "name": "PartitionedCall/model/output0/concat",
        "op": "ConcatV2",
        "input": [
          "PartitionedCall/model/tf.math.multiply_195/Mul",
          "PartitionedCall/model/tf.math.sigmoid_57/Sigmoid",
          "PartitionedCall/model/output0/concat/axis"
        ],
        "attr": {
          "T": {
            "type": "DT_FLOAT"
          },
          "N": {
            "i": "2"
          },
          "Tidx": {
            "type": "DT_INT32"
          }
        }
      },
      {
        "name": "Identity",
        "op": "Identity",
        "input": [
          "PartitionedCall/model/output0/concat"
        ],
        "attr": {
          "T": {
            "type": "DT_FLOAT"
          }
        }
      }
    ],
    "library": {},
    "versions": {
      "producer": 1205
    }
  },
  "weightsManifest": [
    {
      "paths": [
        "group1-shard1of3.bin",
        "group1-shard2of3.bin",
        "group1-shard3of3.bin"
      ],
      "weights": [
        {
          "name": "ConstantFolding/PartitionedCall/model/tf.math.divide/truediv_recip",
          "shape": [
            1,
            1,
            1
          ],
          "dtype": "float32"
        },
        {
          "name": "4218",
          "shape": [
            1,
            2,
            8400
          ],
          "dtype": "float32"
        },
        {
          "name": "4210",
          "shape": [
            3
          ],
          "dtype": "int32"
        },
        {
          "name": "4212",
          "shape": [
            3
          ],
          "dtype": "int32"
        },
        {
          "name": "PartitionedCall/model/tf.strided_slice_19/ones_like",
          "shape": [
            3
          ],
          "dtype": "int32"
        },
        {
          "name": "4220",
          "shape": [
            1,
            2,
            8400
          ],
          "dtype": "float32"
        },
        {
          "name": "4204",
          "shape": [
            3
          ],
          "dtype": "int32"
        },
        {
          "name": "4206",
          "shape": [
            3
          ],
          "dtype": "int32"
        },
        {
          "name": "PartitionedCall/model/tf.strided_slice_16/StridedSlice/strides",
          "shape": [
            3
          ],
          "dtype": "int32"
        },
        {
          "name": "PartitionedCall/model/tf.reshape_3/Reshape/shape",
          "shape": [
            4
          ],
          "dtype": "int32"
        },
        {
          "name": "PartitionedCall/model/tf.compat.v1.transpose_4/transpose/perm",
          "shape": [
            4
          ],
          "dtype": "int32"
        },
        {
          "name": "PartitionedCall/model/tf.compat.v1.transpose_5/transpose/perm",
          "shape": [
            4
          ],
          "dtype": "int32"
        },
        {
          "name": "4208",
          "shape": [
            1,
            1,
            16,
            1
          ],
          "dtype": "float32"
        },
        {
          "name": "PartitionedCall/model/tf.compat.v1.transpose_8/transpose/perm",
          "shape": [
            4
          ],
          "dtype": "int32"
        },
        {
          "name": "PartitionedCall/model/tf.reshape_4/Reshape/shape",
          "shape": [
            3
          ],
          "dtype": "int32"
        },
        {
          "name": "4214",
          "shape": [
            3
          ],
          "dtype": "int32"
        },
        {
          "name": "4216",
          "shape": [
            3
          ],
          "dtype": "int32"
        },
        {
          "name": "PartitionedCall/model/tf.strided_slice_18/ones_like",
          "shape": [
            3
          ],
          "dtype": "int32"
        },
        {
          "name": "PartitionedCall/model/tf.concat_17/concat/axis",
          "shape": [],
          "dtype": "int32"
        },
        {
          "name": "PartitionedCall/model/tf.math.multiply_195/Mul/y",
          "shape": [
            1,
            1,
            8400
          ],
          "dtype": "float32"
        },
        {
          "name": "4142",
          "shape": [
            3,
            3,
            64,
            64
          ],
          "dtype": "float32"
        },
        {
          "name": "4154",
          "shape": [
            64
          ],
          "dtype": "float32"
        },
        {
          "name": "4166",
          "shape": [
            3,
            3,
            64,
            64
          ],
          "dtype": "float32"
        },
        {
          "name": "4178",
          "shape": [
            64
          ],
          "dtype": "float32"
        },
        {
          "name": "4190",
          "shape": [
            1,
            1,
            64,
            64
          ],
          "dtype": "float32"
        },
        {
          "name": "4200",
          "shape": [
            64
          ],
          "dtype": "float32"
        },
        {
          "name": "4140",
          "shape": [
            3,
            3,
            64,
            64
          ],
          "dtype": "float32"
        },
        {
          "name": "4152",
          "shape": [
            64
          ],
          "dtype": "float32"
        },
        {
          "name": "4164",
          "shape": [
            3,
            3,
            64,
            64
          ],
          "dtype": "float32"
        },
        {
          "name": "4176",
          "shape": [
            64
          ],
          "dtype": "float32"
        },
        {
          "name": "4188",
          "shape": [
            1,
            1,
            64,
            5
          ],
          "dtype": "float32"
        },
        {
          "name": "4202",
          "shape": [
            5
          ],
          "dtype": "float32"
        },
        {
          "name": "PartitionedCall/model/tf.concat_10/concat/axis",
          "shape": [],
          "dtype": "int32"
        },
        {
          "name": "PartitionedCall/model/tf.compat.v1.transpose/transpose/perm",
          "shape": [
            4
          ],
          "dtype": "int32"
        },
        {
          "name": "PartitionedCall/model/tf.reshape/Reshape/shape",
          "shape": [
            3
          ],
          "dtype": "int32"
        },
        {
          "name": "4138",
          "shape": [
            3,
            3,
            128,
            64
          ],
          "dtype": "float32"
        },
        {
          "name": "4150",
          "shape": [
            64
          ],
          "dtype": "float32"
        },
        {
          "name": "4162",
          "shape": [
            3,
            3,
            64,
            64
          ],
          "dtype": "float32"
        },
        {
          "name": "4174",
          "shape": [
            64
          ],
          "dtype": "float32"
        },
        {
          "name": "4186",
          "shape": [
            1,
            1,
            64,
            64
          ],
          "dtype": "float32"
        },
        {
          "name": "4196",
          "shape": [
            64
          ],
          "dtype": "float32"
        },
        {
          "name": "4136",
          "shape": [
            3,
            3,
            128,
            64
          ],
          "dtype": "float32"
        },
        {
          "name": "4148",
          "shape": [
            64
          ],
          "dtype": "float32"
        },
        {
          "name": "4160",
          "shape": [
            3,
            3,
            64,
            64
          ],
          "dtype": "float32"
        },
        {
          "name": "4172",
          "shape": [
            64
          ],
          "dtype": "float32"
        },
        {
          "name": "4184",
          "shape": [
            1,
            1,
            64,
            5
          ],
          "dtype": "float32"
        },
        {
          "name": "4198",
          "shape": [
            5
          ],
          "dtype": "float32"
        },
        {
          "name": "PartitionedCall/model/tf.concat_13/concat/axis",
          "shape": [],
          "dtype": "int32"
        },
        {
          "name": "PartitionedCall/model/tf.compat.v1.transpose_1/transpose/perm",
          "shape": [
            4
          ],
          "dtype": "int32"
        },
        {
          "name": "PartitionedCall/model/tf.reshape_1/Reshape/shape",
          "shape": [
            3
          ],
          "dtype": "int32"
        },
        {
          "name": "4134",
          "shape": [
            3,
            3,
            256,
            64
          ],
          "dtype": "float32"
        },
        {
          "name": "4146",
          "shape": [
            64
          ],
          "dtype": "float32"
        },
        {
          "name": "4158",
          "shape": [
            3,
            3,
            64,
            64
          ],
          "dtype": "float32"
        },
        {
          "name": "4170",
          "shape": [
            64
          ],
          "dtype": "float32"
        },
        {
          "name": "4182",
          "shape": [
            1,
            1,
            64,
            64
          ],
          "dtype": "float32"
        },
        {
          "name": "4192",
          "shape": [
            64
          ],
          "dtype": "float32"
        },
        {
          "name": "4124",
          "shape": [
            4
          ],
          "dtype": "int32"
        },
        {
          "name": "4126",
          "shape": [
            4
          ],
          "dtype": "int32"
        },
        {
          "name": "PartitionedCall/model/tf.strided_slice_14/ones_like",
          "shape": [
            4
          ],
          "dtype": "int32"
        },
        {
          "name": "4094",
          "shape": [
            4
          ],
          "dtype": "int32"
        },
        {
          "name": "4096",
          "shape": [
            4
          ],
          "dtype": "int32"
        },
        {
          "name": "PartitionedCall/model/tf.strided_slice_12/ones_like",
          "shape": [
            4
          ],
          "dtype": "int32"
        },
        {
          "name": "4064",
          "shape": [
            4
          ],
          "dtype": "int32"
        },
        {
          "name": "4066",
          "shape": [
            4
          ],
          "dtype": "int32"
        },
        {
          "name": "PartitionedCall/model/tf.strided_slice_10/ones_like",
          "shape": [
            4
          ],
          "dtype": "int32"
        },
        {
          "name": "PartitionedCall/model/lambda_1//model.13/Resize/size",
          "shape": [
            2
          ],
          "dtype": "int32"
        },
        {
          "name": "PartitionedCall/model/tf.concat_7/concat/axis",
          "shape": [],
          "dtype": "int32"
        },
        {
          "name": "4048",
          "shape": [
            1,
            1,
            192,
            64
          ],
          "dtype": "float32"
        },
        {
          "name": "4050",
          "shape": [
            64
          ],
          "dtype": "float32"
        },
        {
          "name": "4052",
          "shape": [
            4
          ],
          "dtype": "int32"
        },
        {
          "name": "4054",
          "shape": [
            4
          ],
          "dtype": "int32"
        },
        {
          "name": "PartitionedCall/model/tf.strided_slice_11/ones_like",
          "shape": [
            4
          ],
          "dtype": "int32"
        },
        {
          "name": "4056",
          "shape": [
            3,
            3,
            32,
            32
          ],
          "dtype": "float32"
        },
        {
          "name": "4058",
          "shape": [
            32
          ],
          "dtype": "float32"
        },
        {
          "name": "4060",
          "shape": [
            3,
            3,
            32,
            32
          ],
          "dtype": "float32"
        },
        {
          "name": "4062",
          "shape": [
            32
          ],
          "dtype": "float32"
        },
        {
          "name": "PartitionedCall/model/tf.concat_8/concat/axis",
          "shape": [],
          "dtype": "int32"
        },
        {
          "name": "4068",
          "shape": [
            1,
            1,
            96,
            64
          ],
          "dtype": "float32"
        },
        {
          "name": "4070",
          "shape": [
            64
          ],
          "dtype": "float32"
        },
        {
          "name": "4072",
          "shape": [
            4,
            2
          ],
          "dtype": "int32"
        },
        {
          "name": "4074",
          "shape": [
            3,
            3,
            64,
            64
          ],
          "dtype": "float32"
        },
        {
          "name": "4076",
          "shape": [
            64
          ],
          "dtype": "float32"
        },
        {
          "name": "4040",
          "shape": [
            4
          ],
          "dtype": "int32"
        },
        {
          "name": "4042",
          "shape": [
            4
          ],
          "dtype": "int32"
        },
        {
          "name": "PartitionedCall/model/tf.strided_slice_8/ones_like",
          "shape": [
            4
          ],
          "dtype": "int32"
        },
        {
          "name": "PartitionedCall/model/lambda//model.10/Resize/size",
          "shape": [
            2
          ],
          "dtype": "int32"
        },
        {
          "name": "PartitionedCall/model/tf.concat_5/concat/axis",
          "shape": [],
          "dtype": "int32"
        },
        {
          "name": "4024",
          "shape": [
            1,
            1,
            384,
            128
          ],
          "dtype": "float32"
        },
        {
          "name": "4026",
          "shape": [
            128
          ],
          "dtype": "float32"
        },
        {
          "name": "4028",
          "shape": [
            4
          ],
          "dtype": "int32"
        },
        {
          "name": "4030",
          "shape": [
            4
          ],
          "dtype": "int32"
        },
        {
          "name": "PartitionedCall/model/tf.strided_slice_9/ones_like",
          "shape": [
            4
          ],
          "dtype": "int32"
        },
        {
          "name": "4032",
          "shape": [
            3,
            3,
            64,
            64
          ],
          "dtype": "float32"
        },
        {
          "name": "4034",
          "shape": [
            64
          ],
          "dtype": "float32"
        },
        {
          "name": "4036",
          "shape": [
            3,
            3,
            64,
            64
          ],
          "dtype": "float32"
        },
        {
          "name": "4038",
          "shape": [
            64
          ],
          "dtype": "float32"
        },
        {
          "name": "PartitionedCall/model/tf.concat_6/concat/axis",
          "shape": [],
          "dtype": "int32"
        },
        {
          "name": "4044",
          "shape": [
            1,
            1,
            192,
            128
          ],
          "dtype": "float32"
        },
        {
          "name": "4046",
          "shape": [
            128
          ],
          "dtype": "float32"
        },
        {
          "name": "PartitionedCall/model/tf.concat_9/concat/axis",
          "shape": [],
          "dtype": "int32"
        },
        {
          "name": "4078",
          "shape": [
            1,
            1,
            192,
            128
          ],
          "dtype": "float32"
        },
        {
          "name": "4080",
          "shape": [
            128
          ],
          "dtype": "float32"
        },
        {
          "name": "4082",
          "shape": [
            4
          ],
          "dtype": "int32"
        },
        {
          "name": "4084",
          "shape": [
            4
          ],
          "dtype": "int32"
        },
        {
          "name": "PartitionedCall/model/tf.strided_slice_13/ones_like",
          "shape": [
            4
          ],
          "dtype": "int32"
        },
        {
          "name": "4086",
          "shape": [
            3,
            3,
            64,
            64
          ],
          "dtype": "float32"
        },
        {
          "name": "4088",
          "shape": [
            64
          ],
          "dtype": "float32"
        },
        {
          "name": "4090",
          "shape": [
            3,
            3,
            64,
            64
          ],
          "dtype": "float32"
        },
        {
          "name": "4092",
          "shape": [
            64
          ],
          "dtype": "float32"
        },
        {
          "name": "PartitionedCall/model/tf.concat_11/concat/axis",
          "shape": [],
          "dtype": "int32"
        },
        {
          "name": "4098",
          "shape": [
            1,
            1,
            192,
            128
          ],
          "dtype": "float32"
        },
        {
          "name": "4100",
          "shape": [
            128
          ],
          "dtype": "float32"
        },
        {
          "name": "4102",
          "shape": [
            4,
            2
          ],
          "dtype": "int32"
        },
        {
          "name": "4104",
          "shape": [
            3,
            3,
            128,
            128
          ],
          "dtype": "float32"
        },
        {
          "name": "4106",
          "shape": [
            128
          ],
          "dtype": "float32"
        },
        {
          "name": "4008",
          "shape": [
            4
          ],
          "dtype": "int32"
        },
        {
          "name": "4010",
          "shape": [
            4
          ],
          "dtype": "int32"
        },
        {
          "name": "PartitionedCall/model/tf.strided_slice_6/ones_like",
          "shape": [
            4
          ],
          "dtype": "int32"
        },
        {
          "name": "3978",
          "shape": [
            4
          ],
          "dtype": "int32"
        },
        {
          "name": "3980",
          "shape": [
            4
          ],
          "dtype": "int32"
        },
        {
          "name": "PartitionedCall/model/tf.strided_slice_4/ones_like",
          "shape": [
            4
          ],
          "dtype": "int32"
        },
        {
          "name": "3940",
          "shape": [
            4
          ],
          "dtype": "int32"
        },
        {
          "name": "3942",
          "shape": [
            4
          ],
          "dtype": "int32"
        },
        {
          "name": "PartitionedCall/model/tf.strided_slice_2/ones_like",
          "shape": [
            4
          ],
          "dtype": "int32"
        },
        {
          "name": "3902",
          "shape": [
            4
          ],
          "dtype": "int32"
        },
        {
          "name": "3904",
          "shape": [
            4
          ],
          "dtype": "int32"
        },
        {
          "name": "PartitionedCall/model/tf.strided_slice/ones_like",
          "shape": [
            4
          ],
          "dtype": "int32"
        },
        {
          "name": "3874",
          "shape": [
            4,
            2
          ],
          "dtype": "int32"
        },
        {
          "name": "3876",
          "shape": [
            3,
            3,
            3,
            16
          ],
          "dtype": "float32"
        },
        {
          "name": "3878",
          "shape": [
            16
          ],
          "dtype": "float32"
        },
        {
          "name": "3880",
          "shape": [
            4,
            2
          ],
          "dtype": "int32"
        },
        {
          "name": "3882",
          "shape": [
            3,
            3,
            16,
            32
          ],
          "dtype": "float32"
        },
        {
          "name": "3884",
          "shape": [
            32
          ],
          "dtype": "float32"
        },
        {
          "name": "3886",
          "shape": [
            1,
            1,
            32,
            32
          ],
          "dtype": "float32"
        },
        {
          "name": "3888",
          "shape": [
            32
          ],
          "dtype": "float32"
        },
        {
          "name": "3890",
          "shape": [
            4
          ],
          "dtype": "int32"
        },
        {
          "name": "3892",
          "shape": [
            4
          ],
          "dtype": "int32"
        },
        {
          "name": "PartitionedCall/model/tf.strided_slice_1/ones_like",
          "shape": [
            4
          ],
          "dtype": "int32"
        },
        {
          "name": "3894",
          "shape": [
            3,
            3,
            16,
            16
          ],
          "dtype": "float32"
        },
        {
          "name": "3896",
          "shape": [
            16
          ],
          "dtype": "float32"
        },
        {
          "name": "3898",
          "shape": [
            3,
            3,
            16,
            16
          ],
          "dtype": "float32"
        },
        {
          "name": "3900",
          "shape": [
            16
          ],
          "dtype": "float32"
        },
        {
          "name": "PartitionedCall/model/tf.concat/concat/axis",
          "shape": [],
          "dtype": "int32"
        },
        {
          "name": "3906",
          "shape": [
            1,
            1,
            48,
            32
          ],
          "dtype": "float32"
        },
        {
          "name": "3908",
          "shape": [
            32
          ],
          "dtype": "float32"
        },
        {
          "name": "3910",
          "shape": [
            4,
            2
          ],
          "dtype": "int32"
        },
        {
          "name": "3912",
          "shape": [
            3,
            3,
            32,
            64
          ],
          "dtype": "float32"
        },
        {
          "name": "3914",
          "shape": [
            64
          ],
          "dtype": "float32"
        },
        {
          "name": "3916",
          "shape": [
            1,
            1,
            64,
            64
          ],
          "dtype": "float32"
        },
        {
          "name": "3918",
          "shape": [
            64
          ],
          "dtype": "float32"
        },
        {
          "name": "3920",
          "shape": [
            4
          ],
          "dtype": "int32"
        },
        {
          "name": "3922",
          "shape": [
            4
          ],
          "dtype": "int32"
        },
        {
          "name": "PartitionedCall/model/tf.strided_slice_3/ones_like",
          "shape": [
            4
          ],
          "dtype": "int32"
        },
        {
          "name": "3924",
          "shape": [
            3,
            3,
            32,
            32
          ],
          "dtype": "float32"
        },
        {
          "name": "3926",
          "shape": [
            32
          ],
          "dtype": "float32"
        },
        {
          "name": "3928",
          "shape": [
            3,
            3,
            32,
            32
          ],
          "dtype": "float32"
        },
        {
          "name": "3930",
          "shape": [
            32
          ],
          "dtype": "float32"
        },
        {
          "name": "3932",
          "shape": [
            3,
            3,
            32,
            32
          ],
          "dtype": "float32"
        },
        {
          "name": "3934",
          "shape": [
            32
          ],
          "dtype": "float32"
        },
        {
          "name": "3936",
          "shape": [
            3,
            3,
            32,
            32
          ],
          "dtype": "float32"
        },
        {
          "name": "3938",
          "shape": [
            32
          ],
          "dtype": "float32"
        },
        {
          "name": "PartitionedCall/model/tf.concat_1/concat/axis",
          "shape": [],
          "dtype": "int32"
        },
        {
          "name": "3944",
          "shape": [
            1,
            1,
            128,
            64
          ],
          "dtype": "float32"
        },
        {
          "name": "3946",
          "shape": [
            64
          ],
          "dtype": "float32"
        },
        {
          "name": "3948",
          "shape": [
            4,
            2
          ],
          "dtype": "int32"
        },
        {
          "name": "3950",
          "shape": [
            3,
            3,
            64,
            128
          ],
          "dtype": "float32"
        },
        {
          "name": "3952",
          "shape": [
            128
          ],
          "dtype": "float32"
        },
        {
          "name": "3954",
          "shape": [
            1,
            1,
            128,
            128
          ],
          "dtype": "float32"
        },
        {
          "name": "3956",
          "shape": [
            128
          ],
          "dtype": "float32"
        },
        {
          "name": "3958",
          "shape": [
            4
          ],
          "dtype": "int32"
        },
        {
          "name": "3960",
          "shape": [
            4
          ],
          "dtype": "int32"
        },
        {
          "name": "PartitionedCall/model/tf.strided_slice_5/ones_like",
          "shape": [
            4
          ],
          "dtype": "int32"
        },
        {
          "name": "3962",
          "shape": [
            3,
            3,
            64,
            64
          ],
          "dtype": "float32"
        },
        {
          "name": "3964",
          "shape": [
            64
          ],
          "dtype": "float32"
        },
        {
          "name": "3966",
          "shape": [
            3,
            3,
            64,
            64
          ],
          "dtype": "float32"
        },
        {
          "name": "3968",
          "shape": [
            64
          ],
          "dtype": "float32"
        },
        {
          "name": "3970",
          "shape": [
            3,
            3,
            64,
            64
          ],
          "dtype": "float32"
        },
        {
          "name": "3972",
          "shape": [
            64
          ],
          "dtype": "float32"
        },
        {
          "name": "3974",
          "shape": [
            3,
            3,
            64,
            64
          ],
          "dtype": "float32"
        },
        {
          "name": "3976",
          "shape": [
            64
          ],
          "dtype": "float32"
        },
        {
          "name": "PartitionedCall/model/tf.concat_2/concat/axis",
          "shape": [],
          "dtype": "int32"
        },
        {
          "name": "3982",
          "shape": [
            1,
            1,
            256,
            128
          ],
          "dtype": "float32"
        },
        {
          "name": "3984",
          "shape": [
            128
          ],
          "dtype": "float32"
        },
        {
          "name": "3986",
          "shape": [
            4,
            2
          ],
          "dtype": "int32"
        },
        {
          "name": "3988",
          "shape": [
            3,
            3,
            128,
            256
          ],
          "dtype": "float32"
        },
        {
          "name": "3990",
          "shape": [
            256
          ],
          "dtype": "float32"
        },
        {
          "name": "3992",
          "shape": [
            1,
            1,
            256,
            256
          ],
          "dtype": "float32"
        },
        {
          "name": "3994",
          "shape": [
            256
          ],
          "dtype": "float32"
        },
        {
          "name": "3996",
          "shape": [
            4
          ],
          "dtype": "int32"
        },
        {
          "name": "3998",
          "shape": [
            4
          ],
          "dtype": "int32"
        },
        {
          "name": "PartitionedCall/model/tf.strided_slice_7/ones_like",
          "shape": [
            4
          ],
          "dtype": "int32"
        },
        {
          "name": "4000",
          "shape": [
            3,
            3,
            128,
            128
          ],
          "dtype": "float32"
        },
        {
          "name": "4002",
          "shape": [
            128
          ],
          "dtype": "float32"
        },
        {
          "name": "4004",
          "shape": [
            3,
            3,
            128,
            128
          ],
          "dtype": "float32"
        },
        {
          "name": "4006",
          "shape": [
            128
          ],
          "dtype": "float32"
        },
        {
          "name": "PartitionedCall/model/tf.concat_3/concat/axis",
          "shape": [],
          "dtype": "int32"
        },
        {
          "name": "4012",
          "shape": [
            1,
            1,
            384,
            256
          ],
          "dtype": "float32"
        },
        {
          "name": "4014",
          "shape": [
            256
          ],
          "dtype": "float32"
        },
        {
          "name": "4016",
          "shape": [
            1,
            1,
            256,
            128
          ],
          "dtype": "float32"
        },
        {
          "name": "4018",
          "shape": [
            128
          ],
          "dtype": "float32"
        },
        {
          "name": "PartitionedCall/model/tf.concat_4/concat/axis",
          "shape": [],
          "dtype": "int32"
        },
        {
          "name": "4020",
          "shape": [
            1,
            1,
            512,
            256
          ],
          "dtype": "float32"
        },
        {
          "name": "4022",
          "shape": [
            256
          ],
          "dtype": "float32"
        },
        {
          "name": "PartitionedCall/model/tf.concat_12/concat/axis",
          "shape": [],
          "dtype": "int32"
        },
        {
          "name": "4108",
          "shape": [
            1,
            1,
            384,
            256
          ],
          "dtype": "float32"
        },
        {
          "name": "4110",
          "shape": [
            256
          ],
          "dtype": "float32"
        },
        {
          "name": "4112",
          "shape": [
            4
          ],
          "dtype": "int32"
        },
        {
          "name": "4114",
          "shape": [
            4
          ],
          "dtype": "int32"
        },
        {
          "name": "PartitionedCall/model/tf.strided_slice_15/ones_like",
          "shape": [
            4
          ],
          "dtype": "int32"
        },
        {
          "name": "4116",
          "shape": [
            3,
            3,
            128,
            128
          ],
          "dtype": "float32"
        },
        {
          "name": "4118",
          "shape": [
            128
          ],
          "dtype": "float32"
        },
        {
          "name": "4120",
          "shape": [
            3,
            3,
            128,
            128
          ],
          "dtype": "float32"
        },
        {
          "name": "4122",
          "shape": [
            128
          ],
          "dtype": "float32"
        },
        {
          "name": "PartitionedCall/model/tf.concat_14/concat/axis",
          "shape": [],
          "dtype": "int32"
        },
        {
          "name": "4128",
          "shape": [
            1,
            1,
            384,
            256
          ],
          "dtype": "float32"
        },
        {
          "name": "4130",
          "shape": [
            256
          ],
          "dtype": "float32"
        },
        {
          "name": "4132",
          "shape": [
            3,
            3,
            256,
            64
          ],
          "dtype": "float32"
        },
        {
          "name": "4144",
          "shape": [
            64
          ],
          "dtype": "float32"
        },
        {
          "name": "4156",
          "shape": [
            3,
            3,
            64,
            64
          ],
          "dtype": "float32"
        },
        {
          "name": "4168",
          "shape": [
            64
          ],
          "dtype": "float32"
        },
        {
          "name": "4180",
          "shape": [
            1,
            1,
            64,
            5
          ],
          "dtype": "float32"
        },
        {
          "name": "4194",
          "shape": [
            5
          ],
          "dtype": "float32"
        },
        {
          "name": "PartitionedCall/model/tf.concat_15/concat/axis",
          "shape": [],
          "dtype": "int32"
        },
        {
          "name": "PartitionedCall/model/tf.compat.v1.transpose_2/transpose/perm",
          "shape": [
            4
          ],
          "dtype": "int32"
        },
        {
          "name": "PartitionedCall/model/tf.reshape_2/Reshape/shape",
          "shape": [
            3
          ],
          "dtype": "int32"
        },
        {
          "name": "PartitionedCall/model/tf.concat_16/concat/axis",
          "shape": [],
          "dtype": "int32"
        },
        {
          "name": "4224",
          "shape": [
            3
          ],
          "dtype": "int32"
        },
        {
          "name": "4226",
          "shape": [
            3
          ],
          "dtype": "int32"
        },
        {
          "name": "PartitionedCall/model/tf.strided_slice_17/StridedSlice/strides",
          "shape": [
            3
          ],
          "dtype": "int32"
        },
        {
          "name": "PartitionedCall/model/output0/concat/axis",
          "shape": [],
          "dtype": "int32"
        }
      ]
    }
  ]
}